saved_models/sde/sde_gen_swa_ERCOT_tws.pt (torch, 255285 bytes, 20 tensors)

module._initial._model.0.weight f4 [32, 32]
000000 59 35 26 3e 85 99 d0 3d 3c 2e 61 3e 1f 23 ad 3d
       0.16231288 0.101855315 0.21990293 0.084539644
000010 54 73 14 be 94 4c 0d be fe 08 4c bd a6 82 10 3d
       -0.14497119 -0.13798743 -0.049813263 0.035280846
000020 45 33 18 bd 0e 57 e1 bd 00 89 47 3d 42 bf e8 3d
       -0.03715827 -0.110029325 0.048714638 0.113646045
000030 c5 f1 6f 3d 8d 5c 97 bc 7d 12 42 bd 4e 23 a2 bd
       0.05858018 -0.018476749 -0.047380913 -0.0791689
000040 a5 f2 86 3d f6 fc c8 3d 8d 4d 4a 3a 89 df c6 3d
       0.065892495 0.098138735 0.00077172444 0.09710605
000050 57 79 5e 3b bf fe 52 bd e6 4e bf bd ac 37 0e 3e
       0.0033946836 -0.051512476 -0.093412206 0.13888425
000060 e7 b6 c4 bd 9e 49 2e 3d 8e 57 2b bd 47 01 73 bd
       -0.09605198 0.042550676 -0.041831546 -0.05932739
000070 a8 20 25 bd 54 87 cb 3c bb ad 5d be ed d5 79 3c
       -0.040314347 0.024844803 -0.21648304 0.015248758
000080 da e9 27 bd f1 7e 91 bd f5 cf d7 3c 50 4b df bd
       -0.040994503 -0.0710429 0.026344279 -0.109030366
000090 c4 52 d1 3c db b0 5e be a6 2b e7 bd 5e 15 82 3c
       0.025552161 -0.21747153 -0.11287622 0.01587933
0000a0 b6 66 63 3d f6 12 c3 bd fe 1e d0 3c af 26 49 be
       0.055517875 -0.09525101 0.025405403 -0.19643663
0000b0 99 56 13 bd df 5a 67 be cd 28 ee bd a3 bf 85 3d
       -0.035971258 -0.22593258 -0.11628876 0.065306924
0000c0 4c e6 a0 3d 07 09 3c be de a2 02 3e f6 59 05 be
       0.07856426 -0.18362819 0.12757441 -0.13022599
0000d0 0a f8 53 3d cf 6d fe bb 14 ed 7e 3d 0b 08 ef 3d
       0.05175022 -0.007764555 0.062237814 0.11671456
0000e0 7b 37 3c ba cb 8a 16 3b 20 41 34 3d 53 94 43 be
       -0.0007179898 0.002297091 0.04400742 -0.1909955
0000f0 4a b9 26 3e b7 de 62 bd 5f ad c9 3b df aa 33 3e
       0.1628162 -0.05538818 0.0061547006 0.17545651
000100 53 f3 bf 3c de 40 69 bd 67 69 c4 bc 9e 9f 88 bd
       0.023431456 -0.056946628 -0.023976041 -0.066710696
000110 90 22 5a 3c f1 3f b9 3d d0 2f 8f 3d 45 21 f3 3d
       0.013313904 0.09045399 0.069915414 0.1187158
000120 15 77 66 3d 20 de a7 bc 95 03 ff bd 0e 6d 82 3d
       0.05626591 -0.02049166 -0.12451855 0.06368457
000130 e9 8a 0f be 06 c8 5d 3d a2 87 2c bd 77 40 db bd
       -0.14017834 0.054145835 -0.042121537 -0.10705655
000140 26 2e 46 3d 4e 21 09 3e fa 23 a2 bd 12 a0 4f be
       0.048383854 0.13391611 -0.07917018 -0.20275906
000150 3c 4b 2d 3d 90 b0 26 be b0 13 dc 3d 11 3a 8a bd
       0.042308077 -0.16278291 0.107459426 -0.067493565
000160 22 11 12 be af 96 30 bd 58 15 cb bd 5d ed 79 bd
       -0.14264348 -0.043112453 -0.0991618 -0.061017383
000170 79 dd 3c 3e 30 b8 ae bd e9 30 5c bd 26 8f 0f 3e
       0.1844386 -0.08531225 -0.05375758 0.1401945
000180 2e dc b3 3b 67 83 11 3d cf 26 10 3d 82 84 8f 3d
       0.005488894 0.035525706 0.03519326 0.07007696
000190 24 ec 14 be 7e b4 0d bd 7a 66 24 3e 28 ce a0 bb
       -0.14543205 -0.03459596 0.16054717 -0.0049073882
0001a0 82 5c 6a 3d 02 f1 a0 bd 78 58 78 3d 39 e9 13 3c
       0.05721713 -0.078584686 0.060631245 0.009027773
0001b0 41 a5 ac bd 05 f0 cd 3c 0c 01 a6 bd d1 35 27 be
       -0.08429957 0.025138864 -0.081056684 -0.16329123
0001c0 32 17 33 3c 0d 35 0c 3e 02 92 27 3d 6f fc 89 bd
       0.010930823 0.13692112 0.04091073 -0.06737601
0001d0 07 37 a4 bd 80 eb a9 bd 99 2f 61 bd aa 71 cb 3c
       -0.08018308 -0.08296871 -0.054977033 0.024834473
0001e0 fa 68 09 bd 07 cf 73 3d 3b 4e 50 3d ac ea 91 3d
       -0.03354738 0.05952361 0.050855856 0.07124838
0001f0 54 5e 67 3c f2 0a f2 3d ca 43 21 be c3 d3 1e bc
       0.014121611 0.11818494 -0.15748516 -0.009694043
000200 97 53 0a be 5e 56 9a 3d a6 72 e7 bd e2 fe 17 3d
       -0.1350845 0.075360045 -0.11301164 0.03710831
000210 77 97 d9 3d ec 42 77 3e 23 fc 42 3e b2 6c 4c 3c
       0.10624593 0.24146622 0.19041495 0.012477087
000220 05 99 37 be de b7 a1 3d e1 2e 5e 3d 05 4c 1c 3e
       -0.17929466 0.07896398 0.054243926 0.15263374
000230 4f a5 94 3d e0 18 89 3e 32 42 16 3e 8c bb 7e 3d
       0.072580926 0.2677679 0.14673689 0.062190577
000240 73 13 80 be 77 9c 8d 3d e4 78 b4 3d c1 82 58 3e
       -0.2501484 0.06914609 0.088121206 0.21143629
000250 e2 da 55 be 30 3f 60 bd 75 04 19 3d 3f c7 45 be
       -0.20884278 -0.05474776 0.037357766 -0.19314288
000260 97 c0 18 3e c7 65 d3 3b dc 82 32 3e bf 98 2d 3e
       0.14917217 0.006451342 0.17432731 0.169528
000270 73 c3 3a bd 5b 7e b8 3d 8d 18 15 bd 23 c5 2e be
       -0.04559655 0.090084754 -0.036400367 -0.17067389
000280 79 79 29 be 94 c9 1d 3d 6f 9b 49 3d e8 1b 7f bb
       -0.16550244 0.038522318 0.0492205 -0.0038926546
000290 1c 50 aa 3d e5 3d 72 3d 8d 53 0f bc b3 4a aa bd
       0.08316061 0.05914106 -0.008747947 -0.08315029
0002a0 53 f6 88 bd d9 b2 8b bd b7 c2 09 3e e3 78 fd bd
       -0.066876076 -0.06821222 0.13453184 -0.12376573
0002b0 1a 17 01 be 1a a4 78 3d 47 09 da 3c 35 1c 55 bd
       -0.12606469 0.060703374 0.026615752 -0.052028853
0002c0 33 c0 dd bb 19 bf 52 3b 68 5c bb bd 73 1b 85 3c
       -0.0067672967 0.003215736 -0.091484845 0.01624844
0002d0 09 02 97 3d bf d3 15 3e 5a 22 fc bd 08 16 bb bd
       0.07373435 0.14631556 -0.123112395 -0.091350615
0002e0 20 da 79 bd 02 80 ae bd fc 69 d9 bd ac 4e 2d 3e
       -0.060999036 -0.08520509 -0.10615918 0.16924542
0002f0 fb 0d fa bd 80 a5 7e bd e2 5b 99 bd 54 02 11 be
       -0.12209698 -0.06216955 -0.074882284 -0.14161044
000300 c6 e8 16 be a7 e4 db 3c 61 93 d1 3c c7 e7 24 3d
       -0.14737234 0.026842428 0.025582971 0.040260103
000310 bb 04 2f 3e 35 84 cc 3d e9 f4 14 3e a6 0d 9c bd
       0.17091648 0.09986154 0.14546551 -0.07619791
000320 d0 22 e4 bd 87 b4 59 bc 64 da 4d bb 7e ec 4a 3d
       -0.111394525 -0.01328767 -0.0031410689 0.049541943
000330 c0 78 02 bd 52 b7 3a bd 20 43 e3 bd e8 68 ab bc
       -0.031853437 -0.045584984 -0.110967875 -0.020924047
000340 99 1c 81 bc 57 93 87 3d a2 b5 0e be 15 2b eb bd
       -0.015760707 0.066199 -0.13936475 -0.114828266
000350 19 53 27 bd cf 77 c4 bd 48 1c bf bd f5 06 30 be
       -0.040850732 -0.09593164 -0.09331566 -0.17190154
000360 2b fb 14 3d c8 a3 68 3c 6e 50 39 3e b8 a3 d0 bd
       0.036372345 0.014199205 0.18097088 -0.10187477
000370 26 2f 2b be 29 83 c2 3b 69 0d 89 3d dd 3b 2c 3d
       -0.16717204 0.0059360457 0.06692011 0.042049278
000380 b0 fa 23 bd b0 22 9d 3d be ab dd bd 1d a1 f9 bd
       -0.040033996 0.07672632 -0.10823773 -0.12188933
000390 3c b6 81 bd d4 bf 38 bd 9c 82 08 bb 68 80 e7 3d
       -0.063335866 -0.045104817 -0.0020829802 0.113037884
0003a0 08 f2 14 3e 4b 8a 4b bd 07 2d 0a 3b 49 23 97 bd
       0.14545453 -0.049692433 0.0021083967 -0.07379777
0003b0 25 78 e5 3c 2f b1 9c bd 24 59 ba bc ce da 36 3c
       0.028011391 -0.076509826 -0.022747584 0.011160566
0003c0 a9 cb dd bc b0 81 16 3e cd b7 02 be 1e f1 32 be
       -0.027074652 0.1469791 -0.12765427 -0.17474791
0003d0 f4 ac 57 bb f4 c5 9f bd d4 e1 97 bd 74 24 be 3d
       -0.0032909485 -0.078014284 -0.0741612 0.09284297
0003e0 9f 50 39 bb e5 be 0b 3d 97 08 2d be 2d 5e c2 ba
       -0.0028276814 0.034117598 -0.16897808 -0.0014829092
0003f0 97 38 08 bd 12 54 b5 3d be 08 08 3d 75 ef 1b 3d
       -0.033257093 0.08853926 0.033211462 0.03807016

module._initial._model.0.bias f4 [32]
000000 5a 6f 50 3d 6b c9 53 3e 5b d4 f0 3d d5 8c b5 bd
       0.050887443 0.20682304 0.117592536 -0.08864752
000010 db c0 d0 bd c4 ff 2c 3e 80 28 15 be 31 9a 60 3d
       -0.10193034 0.16894442 -0.14566231 0.05483455
000020 af 82 70 be e4 18 ad bd b0 22 44 bd e1 97 f4 3d
       -0.23487352 -0.08452013 -0.047884643 0.11943031
000030 14 15 da 3d 5c 9e 69 3e ef 6a e1 3d 94 75 c2 3d
       0.106485516 0.22814316 0.11006724 0.094950825
000040 83 71 0a be f3 ff 56 be 40 67 d9 3c 1b 08 03 be
       -0.13519864 -0.20996074 0.026538491 -0.1279606
000050 f8 12 89 be 11 c9 86 bd 12 de 03 be aa 67 79 3e
       -0.26772285 -0.06581319 -0.12877682 0.24355951
000060 9f 45 0d be eb 90 53 3c 79 bd d1 bd ef 03 7f be
       -0.1379609 0.012912969 -0.10241217 -0.24903844
000070 d9 56 7e be 2f b0 4c bd 66 d5 b6 3a a8 e8 56 3e
       -0.24837817 -0.04997271 0.0013949096 0.20987189

module._func._drift._model.0.weight f4 [128, 33]
000000 e9 31 7d bd f2 24 a3 3d 79 fc b9 bd 19 9f 9f bd
       -0.061815176 0.07966031 -0.090813585 -0.07794017
000010 f9 1a f5 3d 5c 8e 24 be 9c 40 ef bb 6e 47 06 be
       0.11968035 -0.16069931 -0.007301403 -0.13113186
000020 ee 56 32 3d fa 13 29 3d d6 b5 9e bd 91 17 09 bd
       0.043539934 0.041278817 -0.07749526 -0.03346974
000030 6e 04 d5 3d cc 8a e0 bd 38 ec 1b 3d b2 55 46 3d
       0.104012355 -0.109639734 0.038067073 0.04842157
000040 3e 38 71 3d e6 d7 03 be b7 cd 2f be 3b 08 0f be
       0.058891527 -0.12875327 -0.17168318 -0.13967983
000050 67 09 28 bd 37 46 c4 3c 65 09 03 be 53 e5 11 be
       -0.04102459 0.023959262 -0.12796552 -0.14247636
000060 3b 3c e7 bd 8a c8 19 3e a9 95 9b bd a6 cc c8 bd
       -0.11290785 0.15017906 -0.07596905 -0.098046586
000070 d1 75 90 bd 45 40 14 be fb 5f fb 3d ab a7 03 be
       -0.07053722 -0.14477642 0.12274166 -0.12856929
000080 15 3a 0e be 69 7d d7 3d 64 b5 e9 bd 5c fc 01 bd
       -0.13889344 0.10521967 -0.11411551 -0.03173481
000090 14 15 15 3d 3d 61 95 3d bb 18 3f 3e 14 6b 84 bd
       0.036397055 0.07293937 0.18661778 -0.06465736
0000a0 9e e0 9f 3d 03 b0 cd 3d ae ba 0d 3e c5 9f db 3d
       0.07806514 0.10043337 0.13840744 0.10723833
0000b0 f2 3c 1c 3e db 63 ff 3d 50 29 13 be 26 98 66 bd
       0.15257624 0.12470218 -0.14371228 -0.056297444
0000c0 90 30 07 be c9 fc 1c 3e 90 22 e0 3d d6 d3 27 be
       -0.13202119 0.15330805 0.10944092 -0.16389403
0000d0 0d c4 27 bd 2b 1c d0 3d 60 3c 8b bd 90 51 e8 3d
       -0.040958453 0.101616226 -0.06798625 0.11343682
0000e0 e0 f3 77 3b dd 43 28 be 8d fa 16 3e 6a 24 e5 3d
       0.003783457 -0.16432138 0.14744015 0.11188586
0000f0 64 ff e8 3c 0a ec ca bc 68 a5 fa 3d 29 31 0a bc
       0.028442092 -0.024770755 0.1223858 -0.008434572
000100 45 6f 38 3e b5 b6 65 3b f0 58 6c ba cd 59 61 3d
       0.18011196 0.0035051529 -0.0009015938 0.05501728
000110 b7 18 cd bd 83 06 03 3d cc d3 70 3d df 0e 3a be
       -0.100144796 0.031988632 0.058795735 -0.18169735
000120 ef 13 b2 bd 57 b6 c5 bd 33 11 f9 3d 54 bd a4 3d
       -0.08695208 -0.09653919 0.121614836 0.08043924
000130 e4 af 51 3c 18 d2 b1 3d fe fa fb bd 25 56 1d bd
       0.012798283 0.0868265 -0.12303732 -0.038412232
000140 83 54 9d bc 79 f8 10 3e 56 b2 f7 3d ac a6 1b 3e
       -0.019205337 0.14157285 0.12094562 0.15200299
000150 d9 37 27 3e c9 99 f7 bd e2 ea c0 3c d9 36 bc bc
       0.16329898 -0.12089879 0.0235495 -0.022975372
000160 ef b1 23 3d 22 0a b4 bd b9 7c 90 bd 96 ca 95 3d
       0.039964613 -0.08790995 -0.07055039 0.07314031
000170 f6 41 c4 bc be 05 fa 3d 3d 24 97 3c 85 4a b1 bd
       -0.023957234 0.122081265 0.018449897 -0.086567916
000180 e0 eb b6 3d 08 4f b2 bd 78 68 30 be 8d 4b a1 b9
       0.08931708 -0.0870648 -0.17227352 -0.00030764603
000190 e4 2b 0a 3e 26 e2 c1 bd 6d 66 ad 3d 42 be 54 3d
       0.13493305 -0.094669625 0.08466802 0.051939256
0001a0 2d 67 61 3d 99 aa 97 bd 73 fa 10 3e 54 f8 ba 3d
       0.055030037 -0.07405586 0.14158039 0.09129396
0001b0 55 36 04 3e a1 eb 41 be eb eb 69 bd 86 1b 0d be
       0.12911351 -0.18937542 -0.057109755 -0.1378003
0001c0 1d af e4 bd 46 0a 80 3d cf f4 88 3d 66 7a 86 bd
       -0.11166213 0.062519595 0.066873185 -0.065663144
0001d0 85 11 8e 3d f8 74 4f bc 4d 85 0d be 8b 14 d2 3d
       0.06936935 -0.012662165 -0.13820381 0.102578245
0001e0 74 99 e8 3d 24 f2 a1 bd 0d 09 3f bd 56 23 10 3e
       0.11357394 -0.07907513 -0.04663949 0.1407598
0001f0 ff 62 ad bc 36 13 79 3d 97 0a 2c 3e 58 09 89 bd
       -0.02116537 0.060809337 0.16800915 -0.06691235
000200 c5 34 96 3d 72 99 fa bd 07 6c f4 bd 9f 79 fb 3d
       0.07334284 -0.122362986 -0.11934667 0.12279057
000210 9a 8e 83 3c 6b 20 2c be 57 a3 f8 bd ae 42 ec 3c
       0.016059209 -0.16809241 -0.121405296 0.02884039
000220 2d 50 99 bd 09 c8 0d be 17 9a f5 3b 6f f3 97 bd
       -0.074859954 -0.13845839 0.0074951756 -0.07419478
000230 20 a7 85 3d 63 8a ad bd 13 4d 83 bd 53 4e 00 be
       0.06526017 -0.08473661 -0.06411185 -0.12529878
000240 fd 49 29 3d dc 79 b2 3d 7c 11 f4 3d 37 63 45 3c
       0.041330326 0.08714649 0.119173974 0.01204758
000250 8c 6c 0d 3e de a4 fa 3a 1c b1 a8 bd 65 41 21 3e
       0.13810939 0.001912262 -0.08236906 0.15747602
000260 cb 64 66 3c 9f 32 be bd ca 76 22 3a 21 87 22 be
       0.014062117 -0.09286999 0.00061975105 -0.1587186
000270 1c 23 16 3e 7d 51 2a be 4c 57 fa 3c 8b 55 b1 bd
       0.1466183 -0.16632648 0.030559205 -0.08658894
000280 20 ae 2e be 2f 91 83 bd 69 e9 ba bd 58 26 f3 3d
       -0.17058611 -0.06424176 -0.09126551 0.11872548
000290 a5 1c d0 bd 4c 28 97 3c 8f df be bd 64 1b af bd
       -0.101617135 0.018451832 -0.09319984 -0.08550146
0002a0 31 59 8e 3c 1b 30 a5 3d ce 5c 9d 3c 1d e0 0d 3d
       0.017376514 0.08065816 0.019209292 0.03463756
0002b0 ef 74 a3 bd 5a 14 ec bd 5b 5e da 3b 17 f3 50 3e
       -0.07981288 -0.11527319 0.00666408 0.20405231
0002c0 b7 74 0a be d0 e7 29 3e a6 e7 01 3d bc 43 93 bb
       -0.13521086 0.16592336 0.031715058 -0.0044941586
0002d0 c8 77 1e 3e 97 ca 7e 3d 45 0b 96 bd 3d f0 d9 3d
       0.1547538 0.062204923 -0.07326368 0.10641525
0002e0 49 5b 45 bc ca c3 3e bd 51 ed c4 3d 6a 9d ae 3c
       -0.01204569 -0.046573438 0.09615577 0.021315295
0002f0 8c 1b 00 3d 08 10 e8 3d a7 ac 22 bb f7 8d 09 be
       0.03127627 0.11331183 -0.0024822147 -0.13433062
000300 37 a4 f3 3a ab 77 f8 bb c7 23 5b 3c 55 5a e6 3d
       0.0018588369 -0.007582625 0.013375229 0.11247698
000310 39 d4 b4 3d 7d 3a 1b 3e f2 94 48 ba 75 c7 2a be
       0.08829541 0.1515903 -0.0007651589 -0.1667765
000320 67 3d 2b 3e 19 81 01 bc 99 f4 69 3d 24 28 8f 3d
       0.16722642 -0.007904314 0.057118032 0.06990078
000330 66 f7 05 3e 77 0a 0d 3d 1c 30 95 3d 1b 2b b9 3d
       0.13082656 0.03443381 0.07284567 0.09041425
000340 b1 e5 21 3e e1 dd 2f be c8 5c e3 bd 86 1c 68 bc
       0.15810277 -0.17174484 -0.11101681 -0.014166957
000350 7d 88 fb bd df 24 12 3d 01 0d fc bd d9 46 c3 3d
       -0.122818924 0.035679694 -0.12307168 0.095349975
000360 e5 74 93 bd ec 71 15 3e ec cf f2 bd 69 9f a0 3c
       -0.0720003 0.14594239 -0.11856064 0.019607263
000370 aa 4e 18 be 42 29 87 3d ac ca 22 bd b8 bf 35 3e
       -0.14873758 0.06599666 -0.039744064 0.17748916
000380 bc d0 50 bd 4e 5e 90 39 23 fc f6 bd a7 11 f5 bd
       -0.050980315 0.00027536083 -0.1205981 -0.119662575
000390 cd 90 97 3d 4f 98 d6 bd f9 ea cd 3d d0 74 dd 3d
       0.074006654 -0.10478269 0.10054583 0.10813296
0003a0 89 62 95 3c 2b 87 72 bd 81 ff 47 3d f5 c3 dc bd
       0.018235462 -0.059210937 0.048827652 -0.10779563
0003b0 8d 5c 96 bd fe 6c 38 bd 14 14 8b 3d b7 39 c6 3d
       -0.073418714 -0.045025818 0.06790939 0.09678977
0003c0 9c 1e f3 3d 14 fd 06 3e d7 6d 70 3d bb 89 fd 3c
       0.11871073 0.13182479 0.0586985 0.030949464
0003d0 db 84 2c 3e b7 2b ef 3d 4b 86 03 3e 7f d6 19 be
       0.16847555 0.1167826 0.12844197 -0.1502323
0003e0 18 90 10 be 93 5f 1f 3d 0c 6f 1c bc 18 01 0b be
       -0.14117467 0.038909506 -0.00954796 -0.13574636
0003f0 4a 02 26 3e 7d 87 0c 3d e3 0a 26 be b3 b9 00 be
       0.1621181 0.0343089 -0.1621509 -0.12570839

module._func._drift._model.0.bias f4 [128]
000000 24 c7 15 be f1 3e ab bd bf ab 0f 3e dc 69 5f bd
       -0.14626747 -0.083616145 0.1403036 -0.054544315
000010 81 af 81 bd 1e de 85 bd 72 91 10 3e bd 4f 38 3d
       -0.06332303 -0.06536506 0.14117983 0.04499792
000020 6a 91 42 bd ec 9a a8 bd 65 2e 01 be b0 ee 42 bc
       -0.04750196 -0.08232674 -0.12615354 -0.011897728
000030 e6 f3 9a bc 44 fd b4 3c 16 93 d5 3c 33 15 26 be
       -0.018915128 0.022093423 0.026071113 -0.16219024
000040 dc 91 9b bd 13 30 12 be ae db 09 bd 40 10 13 be
       -0.0759618 -0.14276151 -0.03365677 -0.14361668
000050 5c 75 90 bc d9 da 4b bd cc 04 27 3e 83 6c 78 3c
       -0.017634086 -0.049769256 0.16310424 0.01516259
000060 ee 35 91 3d 5c 40 94 bd 86 b3 19 be 4b 10 de 3d
       0.070903644 -0.07238838 -0.15009889 0.108429514
000070 d9 63 42 bc 39 67 c6 3d 5f 0f 93 3d b2 eb 85 3d
       -0.011864626 0.09687657 0.07180666 0.06539096
000080 d0 93 d9 3d 08 60 2c 3d ec 9d 11 3c 0f 53 ca bd
       0.10623896 0.04208377 0.008887749 -0.098791234
000090 8f 9f a2 3d 2e 88 85 3d 25 33 03 be 3e 49 d3 bc
       0.0794059 0.06520115 -0.12812479 -0.02579176
0000a0 d0 8d b0 3d 7c 84 f8 bd 26 28 a3 bd 24 f1 bd bd
       0.086207986 -0.121346444 -0.07966642 -0.092745095
0000b0 3b 55 1d 3e 63 04 fd bc 59 fc 2a 3d 90 f1 85 3d
       0.15364544 -0.03088588 0.041744564 0.06540215
0000c0 0f 2c 13 be af ab 95 3c 6e f1 6e bd d4 1f d2 bd
       -0.14372276 0.018270342 -0.058335714 -0.10259977
0000d0 bd 17 bd bd f2 9a a8 3c 23 e3 71 bc 7b e5 73 bd
       -0.09233043 0.020581696 -0.014763626 -0.05954502
0000e0 98 f3 9f 3d 78 3e 64 3c 91 be 30 bd 52 30 35 be
       0.07810134 0.013930909 -0.04315049 -0.17694214
0000f0 3e 2b ce bc f9 3d 37 be f9 a0 4c 3d ff 1e 99 bd
       -0.025167104 -0.17894734 0.049958203 -0.07476615
000100 bb ea 1d be 16 5b a3 bc 93 0a b7 3c 3a 9b b1 3d
       -0.15421574 -0.019940894 0.02234391 0.08672185
000110 74 36 4a 3d ec 33 9e bd 9c df f1 bc 6f 8e ad bc
       0.049368337 -0.07724747 -0.02952557 -0.021186082
000120 ab 71 35 3e 9c 81 fc 3c 8d 2c 5a bd 5a 7c 78 3d
       0.17719142 0.030823521 -0.053265143 0.060665466
000130 bf 7b 07 be ec 10 0c 3e 70 49 92 3c c0 89 eb 3d
       -0.13230799 0.1367833 0.017857283 0.11500883
000140 37 b1 15 be 48 1c f5 bd 82 ca 07 3e 83 fc 18 3d
       -0.14618383 -0.11968285 0.13260844 0.03735019
000150 e8 fb 22 3e 78 34 cb 3d 07 78 f2 3c 00 75 b6 bd
       0.15916407 0.09922117 0.02959825 -0.08909035
000160 63 9b 14 be d7 ae 37 3e a7 1d fd bd f2 a9 17 bd
       -0.145124 0.1793779 -0.12359171 -0.037027307
000170 16 c7 28 be dd b1 38 3d 01 27 33 be b7 3c 13 be
       -0.16482195 0.0450915 -0.17495348 -0.1437863
000180 fe 86 36 bd 71 1b 18 3e 54 5e f0 bc dd 57 1e be
       -0.044562332 0.14854218 -0.029341854 -0.15463205
000190 be ad 95 bd 54 9d 17 be f4 6a 05 bd 93 fb 1c bd
       -0.07308529 -0.1480611 -0.0325727 -0.038325857
0001a0 4e d4 f9 3d 13 9f 14 3e dd 9a 13 3e 5d 7f 13 be
       0.12198697 0.14513807 0.14414544 -0.14404054
0001b0 04 62 ca 3c 17 a7 2d 3e 2f 1d ec bd ae cf 2d be
       0.02470494 0.16958271 -0.11529004 -0.16973755
0001c0 51 d5 ec bd 7d c2 02 3e 98 5b 0e 3e b4 a8 c1 bd
       -0.115641244 0.12769504 0.13902128 -0.09456006
0001d0 ab 70 f3 3d 49 92 28 3e ef c8 11 3d d9 d7 eb 3d
       0.11886724 0.16462053 0.035592016 0.11515779
0001e0 91 5c 31 3e 62 69 01 3e 51 a9 06 be 2e 24 92 3c
       0.17320468 0.12637857 -0.13150527 0.017839517
0001f0 2e be e6 bd ba 3a 40 bd e9 08 a3 3d 3c ac c1 bd
       -0.11266743 -0.046931006 0.07960684 -0.09456679

module._func._drift._model.2.weight f4 [128, 128]
000000 92 2b 93 bd a7 a7 68 bd 5b 0a a6 bd b2 bb 52 3d
       -0.07186045 -0.05680051 -0.08107444 0.05144853
000010 7c 26 9f bc 21 bb b4 3d 99 c9 97 bd 12 5e 7b 3c
       -0.01942753 0.088247545 -0.074114986 0.015342252
000020 b4 64 14 bd fe 81 88 bd dc 9b 26 3c 05 ef 13 3c
       -0.03622885 -0.06665419 0.010168996 0.009029155
000030 fd 68 37 3d a2 12 8a bd 52 42 7c bd 1b 46 f1 bc
       0.04477786 -0.06741835 -0.061586685 -0.029452374
000040 e9 09 34 bd 59 ea 87 bd b7 75 7f 3c a9 80 87 bc
       -0.043954764 -0.06636495 0.01559203 -0.016540842
000050 00 5d 88 3d 27 a9 99 3d 28 db 26 ba 98 eb d3 bc
       0.06658363 0.075029664 -0.0006365054 -0.025869176
000060 8f 7e e4 bb c6 6a 11 3d c0 a2 7d 3c 7b 03 4c 3d
       -0.006973095 0.035502218 0.015480697 0.049808007
000070 8e a8 88 bc be 0d 98 3a 39 2e 5b 3d bb 8d 85 3d
       -0.016681936 0.0011600775 0.05351088 0.065211736
000080 1a b4 2f bd 5a ce da bc f4 b8 2b 3d 18 da 22 bc
       -0.042896368 -0.026709724 0.041924432 -0.009939693
000090 13 4d 12 bd 01 56 2f bd 5d a9 02 bc ef 3d 68 bc
       -0.035718035 -0.04280663 -0.00797495 -0.014174922
0000a0 bc 47 9f bd c6 29 11 bd ac c0 b7 3c 6e 9d 56 bd
       -0.07777354 -0.03544023 0.02243074 -0.05239623
0000b0 a0 3b d5 3c da 72 b8 bd 35 4b 86 bd 9b 22 76 bb
       0.026029408 -0.09006281 -0.06557313 -0.0037557248
0000c0 cd ca 95 bd 84 f0 93 3d ef a6 0d bd 98 60 99 bd
       -0.07314072 0.07223609 -0.03458303 -0.07489127
0000d0 c3 04 1a 3b d6 bb 31 bd ca ce da bc 6a 95 1b 3d
       0.0023501373 -0.043392025 -0.026709933 0.03798429
0000e0 09 7b 98 3d 9c d1 b1 3d e9 fd 87 3d 7b 7b f6 bc
       0.07445342 0.08682558 0.066402264 -0.030088177
0000f0 5a 9d 3e 3d 60 f6 13 3d 58 41 24 bd 2b fd b2 3d
       0.04653678 0.036123633 -0.04010138 0.08739694
000100 a9 80 e1 bc 0c 71 de bc 5b 0c ad bd 75 63 85 3b
       -0.02752717 -0.027153514 -0.08449622 0.004070694
000110 29 b9 84 3d ae 13 a8 3d c4 10 bc bc e0 9d 98 bd
       0.06480629 0.082068786 -0.022957213 -0.07451987
000120 66 68 8a 3d 9b 51 91 3d 62 e3 86 bd c6 3f 20 bd
       0.06758194 0.07095643 -0.065863386 -0.03912332
000130 6e 3b 88 3d 68 32 c4 3c 79 98 38 3b b7 61 f5 bc
       0.0665196 0.023949817 0.0028167053 -0.02995382
000140 1b 78 d0 bc 1b e0 b4 3d c4 db 89 3d 17 0a 3c bc
       -0.025447896 0.08831807 0.0673137 -0.011477015
000150 68 7a 0e 3d 4b 54 37 bd 49 ab 08 3d aa 74 9e bd
       0.034784704 -0.044758122 0.033366475 -0.07737096
000160 e7 65 55 3d 00 0b d2 3c 67 0f 31 bd 33 6b 60 3d
       0.052099135 0.02564001 -0.04322758 0.054789733
000170 cf cc 2f bb b2 9b 30 3d 08 c6 16 3d ef f3 52 3d
       -0.0026824956 0.043117233 0.03680995 0.051502164
000180 69 b5 71 3d 93 63 8c bd 63 0e 2f 3d fd 81 86 bd
       0.059010897 -0.0685493 0.04273833 -0.06567762
000190 1a 4a 43 3d c8 4d 94 bd ab 26 f3 3c d4 13 84 bd
       0.04767809 -0.07241398 0.029681524 -0.064490944
0001a0 b1 57 7a 3d 74 a4 b5 3d 59 32 26 bd ff e6 12 bd
       0.061118785 0.088692576 -0.04057536 -0.035864826
0001b0 cc bf 5a bd db ea 1c bd d1 ab a6 3d 1b a4 59 3d
       -0.053405568 -0.038309913 0.0813824 0.05313502
0001c0 a0 5e 0e bd 46 f4 42 bd 5a 66 e7 bc ad 8b 0c bd
       -0.03475821 -0.04759624 -0.028247047 -0.034312893
0001d0 15 eb 1b bd 52 d9 9e bd 5f 66 64 3d b0 d4 7b bd
       -0.03806599 -0.07756294 0.05576169 -0.06148213
0001e0 29 bb 25 3d a5 5a 64 3c a1 f7 ac 3d 4e 86 85 3a
       0.040461693 0.013937627 0.08445669 0.0010187121
0001f0 2c d4 33 3c 34 69 9e bd ed ad 0d 3d 37 5c 9c bc
       0.010975879 -0.0773491 0.034589697 -0.01908694
000200 8a 75 83 bd fb 39 b5 3d 81 64 75 3d d4 ba a4 3d
       -0.06418903 0.088489495 0.0599103 0.08043447
000210 53 4f 47 bd 63 39 2f bb 0e 13 ba 3b c4 67 98 bd
       -0.048659634 -0.0026737086 0.005678541 -0.07441667
000220 27 31 8c bd 1b 9a 2e 3d 2d 90 e5 3c e3 be 08 3d
       -0.068453126 0.042627435 0.02802285 0.03338517
000230 f4 dc 04 bd af 50 74 3d 01 d4 99 3d 0e d4 a3 3d
       -0.03243728 0.05964726 0.0751114 0.079994306
000240 7b 61 38 bc fc c9 91 bc 7e f4 0e 3c ed eb 65 bd
       -0.01125371 -0.017796509 0.008725284 -0.0561332
000250 59 ec 76 3d b6 d6 70 3d d9 08 09 3d f8 4f c1 bd
       0.060283992 0.058798514 0.033455703 -0.09439081
000260 ec 35 80 bd d7 71 0e 3d e6 d6 9c 3b f8 77 26 3d
       -0.06260285 0.034776535 0.00478636 0.040641755
000270 85 7c 22 3c 43 64 58 bd 11 34 86 3c 06 ba 4e 3d
       0.009917383 -0.052829992 0.01638225 0.050470375
000280 ae 5c 51 bc 4f f8 8f bd 86 96 41 bd 43 50 96 bc
       -0.012778444 -0.07029783 -0.04726269 -0.018348819
000290 48 c0 4f bd 5e 62 9a bc 17 57 65 3c 8c 14 83 3d
       -0.050720483 -0.018845733 0.013997815 0.064004034
0002a0 de 98 75 3d b3 eb 7f 3d 0f 14 38 3b 3f 15 31 3c
       0.05996024 0.06248064 0.0028088128 0.010808288
0002b0 d7 58 87 3d 28 6e e3 3b 56 d1 98 3d 21 4c 1b bc
       0.06608742 0.006940622 0.07461803 -0.0094786
0002c0 cb 97 75 bb df 02 1d bd c8 1e a9 bd 3e c9 9b 3d
       -0.003747451 -0.038332816 -0.08257824 0.07606743
0002d0 cb 86 c0 bb 42 b1 0a bd 40 1b 5c 3d 80 63 7c bd
       -0.0058754436 -0.033860452 0.053736925 -0.061618328
0002e0 47 7c ba 3d 79 e8 14 3d 0b b6 ac bd e1 e3 aa bc
       0.09105735 0.036354516 -0.084331594 -0.020860614
0002f0 8d 26 5c 3a 56 15 88 3d 06 67 a4 3d c0 2f d4 bc
       0.00083980785 0.066446945 0.08027463 -0.025901675
000300 3c 3e 84 3d 18 8d 5c bd 91 57 8a bd c6 f4 89 bd
       0.06457183 -0.053845495 -0.06754983 -0.0673614
000310 71 0e b3 3d f1 6c 8e bd 2e 45 21 3d 21 ff 8e 3d
       0.08742989 -0.06954373 0.039372616 0.06982256
000320 71 19 33 3d 77 4d 87 bd 1c 86 15 3c 22 34 9a 3b
       0.043725435 -0.06606572 0.009126212 0.0047059217
000330 11 e3 2b 3d 19 d2 b5 bc 44 ad 13 bd a2 e4 b4 3d
       0.041964594 -0.022194909 -0.03605391 0.08832671
000340 f0 a3 f2 3c 8b e1 7d 3c 15 94 b6 3c d8 e0 ac 3d
       0.029619187 0.015495668 0.022287408 0.08441323
000350 a7 d6 ad 3d 79 5e b1 bc 57 c3 36 bd 2c 90 97 bd
       0.08488207 -0.021651493 -0.044619884 -0.074005455
000360 39 cb b6 bd aa 6f 47 3d e6 50 95 bd ba 8e eb 3c
       -0.089254804 0.048690476 -0.07290821 0.02875458
000370 3c 41 d6 3c 48 cd 2e 3c a1 b1 37 3d 04 a7 b1 3d
       0.026154153 0.01066906 0.044847135 0.08674434
000380 3e bf f1 3d c6 7c 20 3d ff 49 de bd 6a d0 98 bd
       0.11804055 0.039181493 -0.108539574 -0.07461627
000390 9f 47 9c bd 53 b7 4e bd 8a e6 8a 3d cc 60 b1 3d
       -0.07630848 -0.0504678 0.06782253 0.08661041
0003a0 d0 e2 45 bc 85 6e 84 bd 39 3c 1a 3d f6 b7 81 bc
       -0.012078002 -0.064663924 0.03765509 -0.01583479
0003b0 48 12 f5 3b e8 76 d0 3c a8 2c 9e bd 8f fc f6 bb
       0.007478986 0.025447324 -0.07723361 -0.0075374315
0003c0 c6 7f b3 bb f4 e6 58 3d cf 06 80 bd 98 f4 5d 3d
       -0.0054778783 0.05295463 -0.06251299 0.05418834
0003d0 d6 e9 65 3d f8 2b 74 bc 11 a2 3e 3c a5 3c 48 bc
       0.056131206 -0.014903061 0.011635319 -0.01222149
0003e0 57 89 45 3c f2 2e f2 3c 2c 92 73 bd 6a ad 00 bd
       0.01205667 0.0295634 -0.059465572 -0.03141538
0003f0 2d 25 89 bd 35 6c 89 bd a2 2e a2 bd 98 af 83 3d
       -0.06696544 -0.06710092 -0.07919051 0.06429976

module._func._drift._model.2.bias f4 [128]
000000 d7 66 22 3d 59 1d f7 bc ba a9 06 3c 14 ea 95 bc
       0.039648857 -0.030165361 0.008219177 -0.018300094
000010 40 1b d3 bc f2 bc 87 3d ce ac 04 bd f2 e4 12 3b
       -0.02576983 0.06627835 -0.032391362 0.0022414294
000020 a9 07 49 3d 6d 5f 25 3d 62 bd 13 3d 84 5c 5b 3d
       0.04907957 0.04037421 0.03606928 0.053555027
000030 27 ca 29 bd 78 5b 2c bd 53 3d 21 3d 35 4c ee 3c
       -0.041452553 -0.04207942 0.039365124 0.029089073
000040 5f f8 2c bd 0e 8e cc 3b 30 ba 94 bb dd f7 64 3d
       -0.042229053 0.00624252 -0.004538797 0.055900443
000050 2c 3d 9d bd e3 f7 e7 3c d4 a9 1f 3d 10 79 c1 3d
       -0.07677683 0.028316444 0.03898032 0.09446919
000060 0c 00 65 3d 18 cf 67 bc 3e 79 8d bd 66 c1 c4 bd
       0.055908248 -0.014148496 -0.06907891 -0.096072
000070 1a f9 8f 3d 0c 0b 89 3d 2d 39 9f 3d 00 5c 8c 3d
       0.07029934 0.0669156 0.07774577 0.06853485
000080 ba 98 1e 3d 46 1f 54 bc 51 83 cb bc 32 90 2d 3d
       0.03871987 -0.012946909 -0.02484289 0.042373843
000090 a3 42 72 3b ce 98 8f 3d e6 2f b2 3d a2 04 2c bc
       0.0036965988 0.07011567 0.08700542 -0.010499151
0000a0 39 26 5f bd aa 38 8f 3c d8 0d b9 bc f9 c1 8a bc
       -0.05447981 0.017483074 -0.022589609 -0.016938196
0000b0 42 77 d1 3a cf 2e 00 bd 78 35 5b bd 15 fb 4f 3d
       0.0015980976 -0.03129464 -0.05351779 0.05077656
0000c0 a7 58 2b 3d e6 5d 8b bd 4b 5c 15 bd f0 3c 7e bd
       0.041832592 -0.06805019 -0.03646497 -0.062069833
0000d0 c6 00 0b bd 41 90 b3 3d e9 c0 4c 3d a6 ca 72 bd
       -0.033936284 0.087677486 0.04998866 -0.05927529
0000e0 59 31 99 bd f5 1c 48 3d d5 b4 b5 bc 00 73 89 bd
       -0.074801154 0.04885574 -0.022180954 -0.06711388
0000f0 c7 23 88 bd de 30 ff 3c f1 7a bb 3c 01 e5 a2 bc
       -0.06647449 0.031151231 0.022885771 -0.019884588
000100 d6 53 61 3d f8 25 a9 3d 7a f5 eb bb 31 06 4e 3d
       0.055011593 0.08259195 -0.007200894 0.050298873
000110 09 10 0d bc 5d eb 09 3d 01 dc 9a 3d 6b 66 89 3d
       -0.00860978 0.033671726 0.07561494 0.06708988
000120 4a 1f 85 bd dd 9e bb bc b2 ca e0 ba 80 f2 aa 3d
       -0.065001085 -0.0229029 -0.0017150252 0.083470345
000130 cc 1d 25 3d c6 a6 31 bd b8 e7 81 bd 2b ef 8f bd
       0.04031162 -0.04337194 -0.06343025 -0.070280395
000140 bd 97 2f 3c 63 0c 3b bd 60 5d cd bc 47 90 a5 3c
       0.01071733 -0.04566611 -0.025068939 0.020210398
000150 87 0b a5 3c e5 39 b3 bc 4b 61 1c bc 47 d6 85 bc
       0.020147098 -0.021878192 -0.009544681 -0.016337527
000160 08 0c a7 bd f5 b8 a0 3c 8c 5f a8 bc 12 32 3c bd
       -0.08156592 0.019619444 -0.020553373 -0.04594619
000170 88 5a a7 3d 6d c3 ff 3c aa 55 e7 3b 8c fd 13 3b
       0.08171564 0.031221116 0.0070597725 0.0022581546
000180 20 49 99 bd 94 ac 8e 3c 03 01 68 3d 79 10 1d 3d
       -0.074846506 0.017416276 0.05664159 0.038345788
000190 2b 28 3d bc e5 18 a9 3d 10 ad 2f 3d 79 74 87 3c
       -0.011545221 0.082567014 0.042889655 0.01653503
0001a0 f9 df a3 3d b5 a6 4c bd a3 c4 bc 3d b7 1b 26 bd
       0.08001704 -0.04996367 0.09217193 -0.040553775
0001b0 b0 5a c4 bc 77 b2 35 bd 78 57 87 bd d9 8a d1 bb
       -0.023969024 -0.04435965 -0.0660848 -0.0063947258
0001c0 d1 62 2f 3d ca 73 35 bc 01 47 40 bd d2 df 48 3d
       0.042818848 -0.01107497 -0.046942715 0.049041577
0001d0 15 8d 9d bb b2 a1 8f 3c 78 79 7f bc c8 ed a3 3d
       -0.004808078 0.017533157 -0.015592925 0.080043375
0001e0 5b 25 06 3d 5c 89 18 3d 4e 1b ab 3d 0f c7 6b 3c
       0.03275047 0.03724037 0.08354817 0.014390721
0001f0 2c 53 19 3d 93 b9 05 3d ac 94 b0 3d 76 e1 65 3d
       0.037432835 0.03264768 0.08622107 0.05612322

module._func._drift._model.4.weight f4 [32, 128]
000000 b3 e9 a4 3c df 10 eb 3c 58 3f 6c bd 9d a2 49 bd
       0.020130968 0.028694568 -0.057677597 -0.049227346
000010 a7 26 f9 3c d1 35 54 3c 4a 4e 37 3d 0c 35 aa 3d
       0.030413939 0.012952284 0.044752397 0.08310899
000020 ab 15 12 bd f7 1a 7e 3d 0a 60 fd 3c 16 86 fa bc
       -0.035665195 0.062037434 0.030929584 -0.030581515
000030 c0 74 ee 3c 71 60 aa 3d f4 d4 6e 3d c1 a4 6d 3c
       0.029108405 0.08319176 0.058308557 0.014504612
000040 05 36 5d bc 56 9e ce bd 36 eb d2 bd 84 a6 9f 3d
       -0.013501649 -0.10088794 -0.10298769 0.07795432
000050 57 d0 9a bd 23 02 41 bc 87 1e a4 bd 1a 9e 9c 3d
       -0.07559269 -0.011780295 -0.08013635 0.07647343
000060 c6 c3 83 bc 53 7f 68 3d 12 2d fb 3c 2d 6f d0 3c
       -0.016084563 0.05676205 0.03066114 0.025443638
000070 dd 76 a0 3d 10 0a 55 3d cf cd 8d bd ae ca ba 3d
       0.07835171 0.05201155 -0.069240205 0.09120689
000080 38 ed a3 bd a0 2a b1 3c a2 5d 65 3d ff b1 2c 3d
       -0.0800423 0.02162677 0.0559975 0.042161938
000090 c2 09 a3 bd f6 cc 08 3d 21 ab 92 bc 0e 69 a6 bd
       -0.079608455 0.03339859 -0.017903866 -0.08125506
0000a0 02 f7 d8 bc 76 a7 0e 3d 97 0e 2f bd 4a 6d ad 3c
       -0.02648497 0.034827672 -0.042738523 0.021170277
0000b0 43 f0 3a bd 77 34 47 bc 17 47 e1 3c 6a 4c 54 3d
       -0.045639288 -0.012158505 0.027499719 0.051830687
0000c0 b3 90 6b bd 7e 27 98 3d 1f 2d a2 bd d1 ee d6 3b
       -0.057511043 0.074294075 -0.079187624 0.006559231
0000d0 ac f0 22 3d bf 79 b7 3b 27 b0 a4 bd fe 69 5d bd
       0.039780304 0.00559923 -0.08041411 -0.05405616
0000e0 3a a7 c4 3d 2e 95 04 bc 9b d3 b6 3d 14 a5 17 bd
       0.096022084 -0.008092208 0.08927079 -0.037022665
0000f0 b5 d6 29 bd 9b 68 14 bd cd ef 5a bd 72 d3 4a 3c
       -0.041464526 -0.036232572 -0.053451348 0.012379514
000100 38 90 68 bd cf a0 3e 3d 06 31 ca 3c 07 8d ab 3d
       -0.056778163 0.046540078 0.02468158 0.08376508
000110 0b 01 75 bc b1 8f 16 3d 93 10 b8 3c 0a b5 49 3d
       -0.014953862 0.03675813 0.02246884 0.049244918
000120 34 19 bb 3d e2 6a de bc 58 ed a7 bd a0 9f a0 bb
       0.091356665 -0.027150575 -0.081995666 -0.0049018413
000130 15 11 1e 3d 43 fb 73 bd a3 a5 9b 3d 64 42 ac 3d
       0.03859051 -0.059565794 0.07599952 0.084111005
000140 80 55 e2 bb 2f f3 42 3b c1 4c db 3c 96 48 72 bd
       -0.006907165 0.0029747 0.026769998 -0.059151255
000150 fb 47 2f 3d 08 4c 7c bc 64 21 a5 bd 55 e6 9f bd
       0.042793255 -0.015398987 -0.080630094 -0.07807604
000160 de 0e cd bb a5 af b1 bc a3 fd 92 bd a8 51 ec 3b
       -0.006257876 -0.0216902 -0.071772836 0.0072118826
000170 a2 48 c5 3c f6 ad 9a bd 31 44 82 bd e0 30 84 bd
       0.024082486 -0.07552712 -0.06360663 -0.06454635
000180 2b 50 9c bc 0c 6f 18 bd f5 dd 07 3d 13 40 41 3d
       -0.019081196 -0.037215278 0.03317066 0.047180247
000190 58 1e c6 3d 22 be ae 3b 21 7b 78 3a c4 ca f0 bc
       0.09673756 0.005332724 0.0009478797 -0.029393561
0001a0 74 cb 46 bd eb 9c 90 bd c5 ec 67 bd fd 6b 0c bc
       -0.04853387 -0.0706118 -0.056622285 -0.008570668
0001b0 5f 83 25 ba 7f b7 b1 3d f6 29 2c 3d e6 7f ea bc
       -0.00063138263 0.08677577 0.042032205 -0.02862544
0001c0 a8 6b b9 3c 7c d8 f8 3c 15 ae 80 3c 32 92 a9 bd
       0.022634342 0.030376665 0.015708009 -0.08279838
0001d0 64 1e 81 bd 8a dc 28 3c 8b bc 9f 3d 83 af a5 bd
       -0.06304625 0.010306487 0.077996336 -0.08090117
0001e0 b5 88 92 bb b0 12 81 3d 02 a2 04 3d 5f f9 3e bd
       -0.004471863 0.063023925 0.032381065 -0.046624538
0001f0 4c 7b b3 3d 40 5a 80 3b 2a a9 4d bd 24 33 86 3d
       0.087637514 0.0039170086 -0.050210156 0.06552723
000200 ac 8d c4 bd 29 93 b4 bd 70 a4 97 3d 2c b4 b7 bd
       -0.09597334 -0.08817131 0.07404411 -0.08969912
000210 0e 56 52 bd 5c 62 b3 bd 24 0d 5c 3d ab 33 4e bd
       -0.0513516 -0.08758995 0.05372347 -0.050342243
000220 7a 83 7a bd 91 0f 0a bd 06 99 3f 3d de 42 17 bd
       -0.061160542 -0.03370625 0.046776794 -0.036929004
000230 e6 60 93 bc 46 04 ad 3d 28 2b ae 3c 18 9b 83 bd
       -0.01799054 0.08448081 0.021260813 -0.06426066
000240 4f c3 02 3d 00 4f 5e bb ba 6d 18 3d 5b ef 4e bd
       0.031924542 -0.00339216 0.03721402 -0.050521236
000250 bf 61 35 bc 1c 41 a1 3d a7 ba 1d bd a1 18 95 bc
       -0.011070668 0.07873747 -0.038508084 -0.01820022
000260 f6 f5 0f bd a7 96 80 bd 38 5a 07 3c 45 33 8a bd
       -0.035146676 -0.06278735 0.008261256 -0.0674806
000270 63 06 59 3d 25 64 84 3d eb 28 a8 bd 43 80 14 3c
       0.052984606 0.064644136 -0.082109295 0.009063783
000280 56 be 73 bd f4 13 68 3d 53 20 1f 3d ae 39 99 bd
       -0.05950769 0.056659654 0.038849186 -0.07481705
000290 d3 d9 93 bd 7a 05 04 3d 5c fa e9 3b ca f0 48 bd
       -0.07219281 0.032231785 0.007140441 -0.04905776
0002a0 bc ec 23 bd 03 be 32 3b bd b0 51 bd 36 0c 9c 3d
       -0.04002069 0.00272739 -0.05119394 0.076195166
0002b0 cf 66 61 3d 1a e6 62 bd 1d 63 16 bd cf 2f 57 bc
       0.055029687 -0.055395223 -0.036715616 -0.013133957
0002c0 90 97 06 bd 0f 8d 16 bd b4 16 ad bb 52 47 ed bc
       -0.032859385 -0.036755618 -0.0052822474 -0.028964672
0002d0 83 0c 89 bd 2d e8 43 3d 25 a8 5f 3d b8 82 b9 3c
       -0.066918395 0.047828842 0.054603714 0.02264534
0002e0 c7 25 95 bb 78 b3 5b 3b 50 47 49 bd 6e 84 09 3d
       -0.0045516226 0.003352372 -0.049140275 0.03357356
0002f0 3e b5 a0 bd e6 4c b5 3d 95 d5 4e bd 06 6b 2c 3d
       -0.07847069 0.08852558 -0.050496656 0.042094253
000300 87 20 b1 3c 33 eb 86 bd 0b dd ab bd 65 86 49 3d
       0.021621956 -0.065878294 -0.0839177 0.049200434
000310 84 10 a8 3c dd b0 a0 bc 34 c9 81 3d 83 b5 ee bc
       0.020515688 -0.019615585 0.063372046 -0.029139286
000320 0d 4f 8f 3d 8c 41 96 3d 24 62 02 bd 58 9d 6f bc
       0.069974996 0.07336721 -0.031831875 -0.014624916
000330 23 9d 7e bd d3 b4 86 bd a3 0f 97 3d 19 22 67 3d
       -0.062161576 -0.06577458 0.07376029 0.056429002
000340 ad 80 b0 3d 8b 6c 94 bd 01 6a 81 3b 4d 58 27 3d
       0.08618293 -0.072472654 0.003949404 0.040855695
000350 bb 5b 9d bc ea d8 b8 3d 54 db 81 bc 46 22 00 bd
       -0.01920878 0.09025748 -0.015851654 -0.031282686
000360 b4 4f 5d 3d 30 78 8b 3d ce e6 0e 3d 44 33 92 bd
       0.05403109 0.06810033 0.03488808 -0.071386844
000370 56 75 9b bd 8d b1 ae 3d 7c c9 6c 3c 2a 9a 37 bd
       -0.075907394 0.08529959 0.0144523345 -0.044824757
000380 64 25 09 bd 2c 35 a1 3c 75 b5 e5 bb ab 2d 7a bd
       -0.033482924 0.019678675 -0.0070101568 -0.06107871
000390 50 b8 38 bd 9d b7 10 39 47 ee 39 bd ae 7b 18 bc
       -0.04509765 0.00013801311 -0.045393255 -0.009306831
0003a0 39 b3 1c 3b dd 04 b7 3d 27 62 46 3d 47 af 59 bd
       0.0023910536 0.089364745 0.04843345 -0.053145673
0003b0 05 00 82 3d f2 94 ba bd 14 bd 38 bd 06 b4 b7 bc
       0.0634766 -0.0911044 -0.045102194 -0.022424709
0003c0 04 11 f8 bb f3 c3 87 bc bb 26 9f 3d 16 4f d7 3c
       -0.007570388 -0.016572928 0.07771059 0.026282828
0003d0 db c2 91 bd 97 0d 19 3d 92 b0 18 3d 5b 72 4f bc
       -0.07117244 0.037366476 0.037277766 -0.012661542
0003e0 b8 33 0f bd 68 e8 d5 bc 13 54 15 3d cf c2 9a 3d
       -0.034961432 -0.026111796 0.036457133 0.07556688
0003f0 c9 36 cf bd 46 73 76 3d 62 11 45 bd a3 64 4a bc
       -0.10117871 0.060168527 -0.04811228 -0.012353095

module._func._drift._model.4.bias f4 [32]
000000 6b 2e 0f bd a4 7b 3d bc 4c 40 0b 3d 8a 91 89 bd
       -0.034956377 -0.011565123 0.033996865 -0.067172125
000010 45 8c 73 bc 59 2d a8 3c 46 45 d8 bc e4 eb 3a 3d
       -0.014864986 0.020529436 -0.02640022 0.04563512
000020 d2 18 87 bd 34 52 4f bd d7 bd b8 bc f7 38 89 3d
       -0.06596531 -0.050615504 -0.02255146 0.06700318
000030 9f 04 34 3d 7b 9f 32 3d cc b2 81 bd b6 79 cb bb
       0.04394972 0.043609124 -0.06332931 -0.0062095774
000040 42 44 2f bd f8 8d aa bd 2e 04 19 bd 6b f6 af 3d
       -0.042789705 -0.0832786 -0.0373575 0.085919224
000050 bd 08 bd 3c a2 5c 75 bd 8e ed 43 bd 40 6d e7 3c
       0.023075456 -0.059902795 -0.04783397 0.028250337
000060 34 ce 81 3d ce 48 21 3d 76 e2 09 3d 34 84 8d bb
       0.06338158 0.039376073 0.033663236 -0.0043187384
000070 a7 2d c3 bd 56 23 9e bc 49 ca 6f bd 82 50 f3 bc
       -0.09530192 -0.019303959 -0.058542524 -0.029701475

module._func._diffusion._model.0.weight f4 [128, 33]
000000 ba 2b 08 bd fa d6 dd bd 7f 85 20 bd 07 e7 0e 3e
       -0.033244826 -0.10832019 -0.03918981 0.13955317
000010 ed f8 86 3c ae c6 34 3e 01 7a 03 be 0a 46 80 3d
       0.016476119 0.17653915 -0.1283951 0.06263359
000020 b5 b1 66 3c e5 e4 95 bc 4d a0 0b be b9 e8 3b bd
       0.014080455 -0.018297622 -0.13635369 -0.04587624
000030 32 af 22 3e 2b ce 9e bd 4a cb 1b be 84 39 55 bd
       0.15887144 -0.07754167 -0.15214267 -0.052056804
000040 01 56 08 be 17 38 63 bd 86 00 3a bd 3b 8a 1a 3d
       -0.13314058 -0.055473413 -0.045410655 0.037729483
000050 7c 7a 19 be 10 4b d4 3d 85 30 76 3c 06 4a 0b be
       -0.1498813 0.103658795 0.015026216 -0.13602456
000060 b8 ce b7 bd 99 7e 64 3d c7 5f d5 bc 3c 61 15 3e
       -0.08974975 0.055784795 -0.026046647 0.14587873
000070 7d 22 0a be 3b d8 cd 3d b7 d9 ec 3d 08 18 a7 3c
       -0.13489719 0.10051008 0.11564963 0.020397201
000080 32 35 f3 3b cf f7 04 be fa 37 0e bd dd 36 21 be
       0.007422113 -0.12985156 -0.034721352 -0.15743585
000090 aa f3 25 be 1a 64 97 bc 2f ba ad 3d 7a a7 35 bd
       -0.16206232 -0.01848035 0.08482777 -0.04434917
0000a0 dc 55 06 3d 29 da 08 be f5 dd f2 bd f0 27 bc 3d
       0.032796726 -0.13364471 -0.11858741 0.09187305
0000b0 4a cd a1 3d 23 65 80 3d 5c 38 af 3d 4c 35 c8 3c
       0.07900484 0.0626929 0.085556716 0.024439476
0000c0 34 fe e4 3d 99 4b ce bd af 23 ba 3c 58 24 21 be
       0.11181298 -0.10073013 0.022722093 -0.1573652
0000d0 67 93 22 3e 48 d1 03 be 6c 68 82 3d 2c 80 02 3e
       0.15876542 -0.12872803 0.06367573 0.12744206
0000e0 2a 12 e4 bd 23 93 a5 3d 62 e8 1b 3e b4 9b 1e bd
       -0.11136277 0.08084705 0.15225366 -0.03872271
0000f0 2f fd b7 bd fe 4d 0e bc 3b 75 16 be a0 ee 09 be
       -0.08983838 -0.008685587 -0.14693157 -0.13469934
000100 e5 c4 80 3d eb fa 43 bd fd 8a c8 bc 4d 01 00 be
       0.06287555 -0.047846716 -0.024480337 -0.12500496
000110 dd a4 a5 bb 59 7e 04 be 27 a4 e4 bd ef ac e2 bb
       -0.0050550536 -0.12938823 -0.11164122 -0.006917588
000120 d1 4a 98 bd aa eb e1 bd 34 69 fc 3d 35 9f 05 be
       -0.07436145 -0.110312775 0.123247534 -0.13049014
000130 9d 7b b8 3c cb 0c 07 be 5f 5d 06 3e bc c4 c1 bd
       0.02251988 -0.13188474 0.13121556 -0.09461352
000140 09 20 87 3d a5 6d 96 bd 2a 56 8e bd a9 e9 e6 3d
       0.06597907 -0.07345132 -0.06950028 0.11275036
000150 fb db 40 3c d9 84 ac bd d1 36 ec bd 27 97 b0 bd
       0.011771197 -0.08423776 -0.11533893 -0.0862258
000160 20 9e 1b 3c f9 1f 1a 3e e3 27 17 3d 7d c2 32 be
       0.009498149 0.15051259 0.036903273 -0.17457004
000170 26 ee 5c bd e3 87 2c be b0 29 63 bc e6 a2 a9 3c
       -0.053938054 -0.16848712 -0.01386492 0.020707559
000180 9e e9 ad bd 07 d5 04 be 1d 00 36 3d 6c 19 07 3e
       -0.084918246 -0.12971888 0.0444337 0.13193291
000190 a8 17 cb bd 66 d7 a0 bd 6f de 96 bc 16 b5 71 3d
       -0.099166214 -0.07853584 -0.018416611 0.059010588
0001a0 f2 4b 1b 3d 1e 8d 65 3c 16 97 4b 3c 35 08 9e 3d
       0.037914224 0.014010696 0.012426158 0.07716409
0001b0 0f 1d 2d 3e 22 77 08 3e c5 81 cd bd e7 7e 84 3d
       0.16905616 0.13326696 -0.10034517 0.06469517
0001c0 50 97 1f be 7e cc 0f be b3 b8 af bc 98 e1 e8 3d
       -0.15585065 -0.14042851 -0.021450376 0.113711536
0001d0 be 33 02 be 78 e8 2a bd 19 28 83 bb a3 c8 3e 3d
       -0.1271505 -0.041725606 -0.0040025827 0.04657806
0001e0 2b 51 2d 3e 5f a9 c0 bd d3 a8 27 be b1 34 0c bc
       0.16925494 -0.09407305 -0.16372995 -0.0085574845
0001f0 c7 59 c1 3c c4 c4 c5 bd fc c4 4a bd fc 97 34 bd
       0.02360238 -0.09656671 -0.049504265 -0.044090256
000200 b9 e8 81 3d 11 3c 04 bd 3c ee be 3d ff 3f 06 be
       0.063432164 -0.032283846 0.09322783 -0.1311035
000210 18 48 0e be f2 1e 9d 3c 0e 83 e5 bd 28 4a 90 3d
       -0.13894689 0.019179795 -0.11206637 0.07045394
000220 94 85 b8 3d 72 17 05 be 63 ca 82 3b 4a 66 07 be
       0.09009853 -0.12997225 0.0039914115 -0.13222614
000230 47 d2 20 be e1 9b cb bd a5 60 0b bd 91 3a 6f bc
       -0.15705214 -0.09941841 -0.034027714 -0.014601366
000240 b5 db 10 bd 93 52 ea bd d8 d3 8d ba a0 7d b2 3d
       -0.03536578 -0.11441531 -0.0010820581 0.08715367
000250 9c 03 01 3e 66 7d 9f 3d 2d 4e 8b 3d f2 9f dd 3d
       0.12599033 0.0778759 0.0680202 0.10821523
000260 f1 d9 45 3d 78 db b6 3d 57 c0 ca 3c 9b e3 df bd
       0.04830355 0.08928579 0.024749918 -0.10932084
000270 eb 1d 1f be 6d 05 07 3e 57 2a 29 be 8d eb 22 3e
       -0.15538757 0.13185664 -0.16520058 0.15910168
000280 dc 18 21 bc 7e 9e cf bd 9e 2a df 3d 0e 5d 01 3e
       -0.009832587 -0.10137652 0.108968005 0.12633154
000290 23 2f 1c 3e 95 54 1a 3e 23 34 f9 3d 54 b7 19 be
       0.15252356 0.15071328 0.121681474 -0.1501134
0002a0 bd c8 83 bc 83 5c fd bd 2b 88 db 3c 8f 67 4b bd
       -0.01608693 -0.12371161 0.026798328 -0.049659308
0002b0 15 0f 3c 3d 62 00 a1 3b a7 d8 46 bd 35 cb f5 3d
       0.04591282 0.0049133757 -0.04854646 0.12001649
0002c0 d9 e8 8b bd fd 67 0e 3d a9 1e 11 be 76 5f 94 bb
       -0.068315215 0.03476714 -0.14171852 -0.0045279814
0002d0 f9 4c b9 bb 74 7f 74 3d a7 da 13 3d 56 21 f4 3c
       -0.005654928 0.05969186 0.036097195 0.029801052
0002e0 a0 3e 1f 3e d0 d2 1c be cb b9 49 3c a7 3a 61 bd
       0.15551233 -0.15314794 0.012312363 -0.054987576
0002f0 58 33 30 be 1e 5c 7a 3d 29 6b b6 3d d5 b9 d1 bc
       -0.17207086 0.061123006 0.08907158 -0.025601307
000300 f4 20 1a 3e 5e 44 1d be 59 4e 83 bd 78 42 e8 bd
       0.15051633 -0.15358111 -0.06411428 -0.11340803
000310 00 4d 69 3d a5 95 04 bd d7 e8 f9 bd 48 9e 88 3d
       0.0569582 -0.032369275 -0.12202614 0.06670815
000320 64 57 72 3d 94 d9 f5 bd 79 30 4b bd 94 93 3f 3d
       0.059165373 -0.1200439 -0.049606774 0.0467716
000330 2f 33 de bd 89 87 2a be 28 ec 22 3e 68 5a 16 be
       -0.10849606 -0.16653265 0.15910399 -0.14682925
000340 43 aa 8c 3d 8d 9c bb 3d 0c e4 d9 bd e9 08 a0 3c
       0.06868412 0.09160719 -0.106391996 0.019535499
000350 e5 45 4b 3d 0d da 0b be 29 b4 97 3d 10 e3 17 bd
       0.049627203 -0.13657399 0.0740741 -0.037081778
000360 a8 0c 67 3d c1 a1 78 bd 6d be 1f be 83 00 08 3c
       0.056408554 -0.060701136 -0.15599985 0.008300903
000370 35 c0 c5 3c 95 5e 5d 3d a0 8d d1 3d 0b e9 f8 3c
       0.024139503 0.05404528 0.10232091 0.030384561
000380 0b 34 9f 3d f4 68 f4 bd 26 c1 e7 bd 29 6d f7 bd
       0.07773598 -0.11934081 -0.11316137 -0.120813675
000390 87 87 f3 bd 43 7e b6 3d 9f d8 30 be 76 c0 e0 bd
       -0.11891084 0.08910801 -0.17270134 -0.10974209
0003a0 7a 2e cd bd 75 ab a8 bd 75 47 9d 3d 82 a4 a1 bd
       -0.1001863 -0.08235828 0.07679645 -0.078927055
0003b0 27 ba db bb b9 27 1f 3e 29 37 06 3e ed 6c 06 bd
       -0.0067055407 0.15542497 0.1310698 -0.032818723
0003c0 5d f6 d1 bd 73 39 4d bd a8 eb 18 3e 6e 75 62 3d
       -0.10252068 -0.050103616 0.14933646 0.05528777
0003d0 36 76 bd 3d ba e8 85 3d 64 51 d8 3d 20 ea 32 bd
       0.092510626 0.0653853 0.10562399 -0.04368031
0003e0 18 d3 4e 3d 83 72 f4 3d 17 a8 de 3d d7 48 d2 bd
       0.050494283 0.11935904 0.10871904 -0.10267799
0003f0 9e 7f 60 bd 62 e6 95 bc 8c 8b d3 bd 52 e9 85 3d
       -0.054809205 -0.018298332 -0.10329351 0.06538643

module._func._diffusion._model.0.bias f4 [128]
000000 ee 7a 08 be 98 a6 d6 3d 9e 98 aa 3d b9 56 bd 3d
       -0.13328144 0.10480994 0.08329891 0.09245057
000010 57 d0 a4 ba 8a 3e aa bc d1 86 10 3e bd e7 21 be
       -0.0012574297 -0.020781774 0.14113928 -0.15811057
000020 13 fa 35 be 8f 5d 05 be f3 7d 2a be 11 08 89 3d
       -0.17771177 -0.13023971 -0.16649608 0.06690992
000030 cd 54 90 3d b3 cc 38 3e c1 ac b2 3d f0 08 df 3d
       0.070474245 0.18046837 0.087243564 0.108903766
000040 bb f6 20 3e 38 2f f9 3d cf 7f a9 3d 69 00 1e be
       0.1571912 0.121672094 0.08276331 -0.15429844
000050 ec fa 10 bd 99 b5 7c bd b3 d7 e0 bc 62 05 04 3e
       -0.035395548 -0.061696623 -0.027446603 0.12892678
000060 95 06 04 bd 80 a8 f7 3d b7 5b 0d 3e b6 98 37 be
       -0.03223284 0.12092686 0.13804518 -0.17929348
000070 8b 5a 88 bd bf de 90 bd 48 bf c1 3d 4d ef f7 3d
       -0.06657895 -0.070737354 0.09460312 0.1210619
000080 84 ca 22 be f3 45 b9 3c 1a 3e 1e bd a0 e8 f0 3d
       -0.15897566 0.022616362 -0.038633443 0.1176312
000090 7b 75 29 3e c1 be bb 3d 22 c5 0a 3e 4a cb 5d 3d
       0.16548721 0.09167243 0.13551763 0.05414895
0000a0 71 51 af bd cb 76 ad bb 11 15 a5 3c f8 70 94 3c
       -0.085604556 -0.0052937022 0.020151647 0.018120274
0000b0 fb c0 15 3e f3 d9 c9 bd 5e 42 d6 3d fe 5c d0 3d
       0.14624397 -0.09856024 0.10461877 0.10173987
0000c0 da 1f 7c 3d 34 ef f7 3d 14 cf 90 3d f6 4e 24 3e
       0.061553814 0.12106171 0.07070747 0.16045746
0000d0 61 58 f8 3b 59 61 4b bc b0 36 29 3e 34 00 e7 bd
       0.007578895 -0.012413346 0.16524768 -0.112793356
0000e0 da ab 16 bd 06 b3 00 be 74 29 96 bd 08 6e 0d bd
       -0.036784984 -0.12568292 -0.07332125 -0.034528762
0000f0 1c ce 04 be 63 33 0f be f9 65 d4 bd f4 af 25 3e
       -0.1296925 -0.13984446 -0.10371012 0.16180402
000100 ea af da 3d a2 f3 f9 bd 0d a6 12 be fa c0 cb 3c
       0.10678084 -0.122046724 -0.14321156 0.024872292
000110 c4 77 2d 3e 4c ec 20 3d b4 2a 1a be e5 d2 c2 3c
       0.16940218 0.03928785 -0.15055352 0.023782203
000120 5a 60 01 3c 17 3d 99 3c 23 18 f2 3d 3f c6 62 bd
       0.007896507 0.018705888 0.1182101 -0.055364843
000130 28 91 ab 3d c0 b5 0c 3e 15 fd 74 bd bc 5f 20 3d
       0.08377296 0.13741207 -0.05981167 0.0391538
000140 2e 0f 9a bd 40 10 d9 3d 9b 01 25 be 91 67 ac 3b
       -0.075224265 0.105988026 -0.16113894 0.0052613695
000150 c2 85 07 bd 28 c5 0f be 84 89 d3 3d 5b fc 8d 3d
       -0.033086546 -0.14040053 0.103289634 0.069328986
000160 4e 7e 90 3d 9a ac 9e ba 83 40 16 3e 9f 9e 99 bd
       0.07055341 -0.0012105883 0.14673047 -0.07500958
000170 54 ca 06 3b 25 91 98 3c e6 e5 81 3d 7a 6d bb 3b
       0.0020567374 0.018623898 0.06342678 0.0057198377
000180 87 59 dc 3d f8 b1 10 bd 5d 41 c9 3d 5e 85 10 be
       0.107592635 -0.035325974 0.0982692 -0.14113376
000190 ff 21 06 be 87 e2 e8 3d 88 f0 15 3e 80 92 ba bd
       -0.13098906 0.11371332 0.14642537 -0.09109974
0001a0 f7 59 41 3d ff d3 e1 bc ec 45 2b bd e7 99 79 bc
       0.047204938 -0.027566908 -0.04181473 -0.015234447
0001b0 a9 3a 24 3e a3 e2 aa bd 35 7e 98 bd f4 08 0a 3e
       0.16038002 -0.08344009 -0.07445947 0.13479978
0001c0 b9 e6 7f bd 37 c6 f0 3c 90 be fc bd 3f 5a b5 3c
       -0.062475894 0.029391391 -0.123410344 0.02213776
0001d0 89 d6 11 3c 34 06 9b 3d 21 7e 1c 3e 1b 5d 8b bd
       0.008901247 0.075695425 0.1528249 -0.06804868
0001e0 a3 1d ca 3d 1e 04 49 3d e9 44 86 3a 21 49 10 3e
       0.09868934 0.049076192 0.0010243925 0.14090396
0001f0 59 63 00 be 0c 7c 67 bd a7 40 32 3c 64 6b 1a bd
       -0.12537898 -0.056514785 0.010879672 -0.037700072
