saved_models/sde/sde_gen_ERCOT_tws.pt (torch, 254474 bytes, 20 tensors)

_initial._model.0.weight f4 [32, 32]
0	0x3e272238	0.16321647
1	0x3dcdf224	0.1005595
2	0x3e61a601	0.22035982
3	0x3dae0ebb	0.08498903
4	0xbe1505be	-0.14552972
5	0xbe0e9ecf	-0.13927768
6	0xbd460230	-0.04834193
7	0x3d123568	0.035695463
8	0xbd16cbcf	-0.03681546
9	0xbde4b4f4	-0.111673266
10	0x3d43b5c5	0.04778077
11	0x3de7802e	0.11303745
12	0x3d6591e5	0.05604734
13	0xbc99a605	-0.018755922
14	0xbd432a41	-0.04764772
15	0xbda50039	-0.08056683
16	0x3d86fa1c	0.06590673
17	0x3dca179a	0.09867783
18	0x395802ba	0.00020600381
19	0x3dc51895	0.09623829
20	0x3b53276a	0.0032219538
21	0xbd5adb9d	-0.053432096
22	0xbdbc2107	-0.09185987
23	0x3e0eb987	0.1393796
24	0xbdc2aa75	-0.09505168
25	0x3d2e66eb	0.04257862
26	0xbd2832fd	-0.04106425
27	0xbd70b3b4	-0.05876513
28	0xbd209eaa	-0.039213814
29	0x3cca2a04	0.024678238
30	0xbe5f5e55	-0.21813329
31	0x3c878a80	0.016545534
32	0xbd365bcc	-0.044521138
33	0xbd92cfd1	-0.07168544
34	0x3ce896e4	0.028392263
35	0xbddd3f71	-0.10803116
36	0x3cd13a1f	0.02554041
37	0xbe5f8f4d	-0.21832009
38	0xbde6b98a	-0.112658575
39	0x3c70c75a	0.014695967
40	0x3d5a2d22	0.0532657
41	0xbdc50e9e	-0.09621929
42	0x3cded31d	0.027200276
43	0xbe4989a2	-0.19681409
44	0xbd176b57	-0.0369676
45	0xbe6737a8	-0.22579825
46	0xbdee76c1	-0.11643744
47	0x3d847907	0.06468397
48	0x3da24080	0.07922459
49	0xbe3e0cc3	-0.18559556
50	0x3e01e496	0.12684855
51	0xbe04069f	-0.12893151
52	0x3d5d75a1	0.054067258
53	0xbbb8e563	-0.0056425794
54	0x3d81a144	0.06329587
55	0x3df0f054	0.11764589
56	0x3a479e2b	0.00076148164
57	0x39953970	0.0002846229
58	0x3d351532	0.044209667
59	0xbe422ae4	-0.18961674
60	0x3e249101	0.1607094
61	0xbd6aaa46	-0.05729129
62	0x3b8f4cca	0.0043731676
63	0x3e32c5d7	0.17458282
64	0x3cd729ea	0.026265103
65	0xbd67efad	-0.056625057
66	0xbcbded05	-0.023184309
67	0xbd85c1e6	-0.06531124
68	0x3c3c8dbf	0.011508404
69	0x3db77e88	0.08959681
70	0x3d8f1615	0.06986634
71	0x3df0e074	0.11761561
72	0x3d67a77d	0.056556214
73	0xbca5fd4d	-0.020262385
74	0xbe00684d	-0.12539788
75	0x3d84c942	0.064836994
76	0xbe112c70	-0.14177108
77	0x3d5e57a3	0.054282796
78	0xbd305008	-0.043045074
79	0xbddb74df	-0.10715651
80	0x3d4beda2	0.04978717
81	0x3e0a186e	0.13485882
82	0xbd9eb866	-0.07750015
83	0xbe52a7fd	-0.20571895
84	0x3d2e55aa	0.042562164
85	0xbe28b4f9	-0.16475286
86	0x3ddc5365	0.10758094
87	0xbd8d6cb6	-0.069055006
88	0xbe10e110	-0.14148355
89	0xbd2a7167	-0.041612055
90	0xbdc6cb95	-0.09706799
91	0xbd813ce1	-0.0631044
92	0x3e3dd6de	0.18538997
93	0xbdae30b2	-0.08505382
94	0xbd601b6f	-0.054713663
95	0x3e0ff2e4	0.14057499
96	0x3bc4a936	0.006001617
97	0x3d17188b	0.03688864
98	0x3d13844a	0.036014833
99	0x3d90b287	0.070653014
100	0xbe14bff3	-0.14526348
101	0xbd0a20d6	-0.03372272
102	0x3e2349a0	0.15946054
103	0xbb8fc2cf	-0.0043872367
104	0x3d6a01e1	0.057130698
105	0xbd9d3e5f	-0.07677912
106	0x3d81385f	0.0630958
107	0x3c3c007c	0.011474725
108	0xbda84b63	-0.08217504
109	0x3ccbc1f6	0.024872761
110	0xbda66ac5	-0.081258334
111	0xbe27b56e	-0.16377804
112	0x3c4c1377	0.012455813
113	0x3e0ba3d1	0.1363671
114	0x3d27554b	0.040852826
115	0xbd82e0a6	-0.063905045
116	0xbda3a543	-0.079905055
117	0xbdaa9769	-0.083296604
118	0xbd673d9f	-0.05645525
119	0x3cdb9bde	0.026807722
120	0xbd067079	-0.032822106
121	0x3d73a7f5	0.05948635
122	0x3d4bf121	0.049790505
123	0x3d920fb3	0.07131901
124	0x3c51653c	0.012780484
125	0x3df42df5	0.11922828
126	0xbe2262eb	-0.15858047
127	0xbc1ad4b0	-0.009450123
128	0xbe092e2f	-0.13396524
129	0x3d98a1b9	0.07452721
130	0xbde3b7a9	-0.11119015
131	0x3d1e5b45	0.03866126
132	0x3dd892fa	0.105749086
133	0x3e78699e	0.2425904
134	0x3e44f660	0.1923461
135	0x3c351c2d	0.011054081
136	0xbe380dcc	-0.17974013
137	0x3da1d908	0.079027236
138	0x3d5ba235	0.05362149
139	0x3e1dc14a	0.15405765
140	0x3d963b6b	0.07335552
141	0x3e89a86d	0.2688631
142	0x3e15c8d0	0.14627385
143	0x3d7fa2dc	0.062411174
144	0xbe7ff915	-0.24997361
145	0x3d8ce3eb	0.068794094
146	0x3db139e7	0.08653622
147	0x3e5959f7	0.21225725
148	0xbe55f9d5	-0.20896085
149	0xbd6028a0	-0.054726243
150	0x3d1f9347	0.038958814
151	0xbe467ca5	-0.19383486
152	0x3e1b6e76	0.15178856
153	0x3bc0babf	0.005881637
154	0x3e327a12	0.17429379
155	0x3e2e97b2	0.17050055
156	0xbd43856c	-0.047734663
157	0x3db9987f	0.090622894
158	0xbd15a8a8	-0.036537796
159	0xbe2e0069	-0.16992344
160	0xbe27d10e	-0.16388342
161	0x3d1fabec	0.038982317
162	0x3d4d55b6	0.05013057
163	0xbacdf936	-0.001571453
164	0x3dab4d16	0.08364312
165	0x3d6c4faf	0.05769318
166	0xbc30b3cb	-0.0107850535
167	0xbda9dcc7	-0.08294063
168	0xbd86ca19	-0.06581516
169	0xbd86a63a	-0.06574674
170	0x3e0aa196	0.13538203
171	0xbdfca029	-0.123352356
172	0xbdfca658	-0.12336415
173	0x3d7b8dac	0.061414406
174	0x3ce22349	0.027604716
175	0xbd4cd527	-0.050007965
176	0xbbcc621a	-0.0062372806
177	0xba929fdc	-0.0011186558
178	0xbdb806e8	-0.08985692
179	0x3c8d0bf9	0.017217623
180	0x3d97dc9c	0.07415125
181	0x3e1758ab	0.14779918
182	0xbdf77bd7	-0.120841675
183	0xbdb5408f	-0.08850204
184	0xbd6f5995	-0.05843504
185	0xbdb12748	-0.086500704
186	0xbddb741f	-0.10715508
187	0x3e2e523c	0.17023557
188	0xbdfe1b21	-0.12407518
189	0xbd7e7b6b	-0.06212942
190	0xbd978798	-0.07398909
191	0xbe10235f	-0.14075993
192	0xbe164d9c	-0.14678043
193	0x3cc4ef28	0.02403982
194	0x3cc6ceca	0.024268527
195	0x3d1b0f67	0.037856486
196	0x3e2ec540	0.17067432
197	0x3dcc73e4	0.09983042
198	0x3e1700da	0.14746419
199	0xbd9ac893	-0.07557788
200	0xbde34963	-0.11097982
201	0xbc628b64	-0.013827179
202	0xbba62221	-0.0050699865
203	0x3d4f4c4f	0.050609883
204	0xbd068e78	-0.032850713
205	0xbd39616f	-0.045258936
206	0xbde29109	-0.110628195
207	0xbcae0f17	-0.02124743
208	0xbc89be35	-0.01681433
209	0x3d89a42d	0.06720767
210	0xbe0f23f6	-0.13978562
211	0xbde8ef4d	-0.11373768
212	0xbd2988a1	-0.041390065
213	0xbdc68d57	-0.09694927
214	0xbdbbdf83	-0.09173491
215	0xbe303104	-0.17206198
216	0x3d169afb	0.036768895
217	0x3c702d0c	0.0146591775
218	0x3e3abdc5	0.18236454
219	0xbdd04a09	-0.10170371
220	0xbe2820a3	-0.164187
221	0x3bd1e4eb	0.006405463
222	0x3d87519a	0.06607361
223	0x3d2fcb38	0.042918414
224	0xbd239229	-0.03993431
225	0x3d999b56	0.07500331
226	0xbdda1314	-0.1064817
227	0xbdf85d92	-0.12127222
228	0xbd8365a4	-0.06415871
229	0xbd388202	-0.04504586
230	0xbbdfa376	-0.006824906
231	0x3de22257	0.11041706
232	0x3e16b897	0.14718853
233	0xbd49833c	-0.04919742
234	0x3ba6eb2a	0.0050939517
235	0xbd9bcd89	-0.07607562
236	0x3cd83daf	0.0263966
237	0xbd9e5a36	-0.0773205
238	0xbca4f886	-0.020138036
239	0x3c4aa841	0.012369216
240	0xbcd8b7af	-0.026454775
241	0x3e12fabd	0.14353462
242	0xbdfeef08	-0.12447935
243	0xbe2f5cf0	-0.17125297
244	0xbb8c09d0	-0.0042736307
245	0xbd9a610d	-0.07538042
246	0xbd946a77	-0.07246869
247	0x3dc334d9	0.09531564
248	0xba2b8e87	-0.00065443706
249	0x3d04cd6a	0.03242246
250	0xbe3048ea	-0.17215315
251	0x3b4984bf	0.003074929
252	0xbd13205a	-0.035919525
253	0x3db2c6b1	0.08729304
254	0x3d04bd74	0.03240724
255	0x3d1d4ca4	0.03840317

_initial._model.0.bias f4 [32]
0	0x3d57f439	0.052723143
1	0x3e53af63	0.20672373
2	0x3df48a3d	0.11940429
3	0xbdb63130	-0.088961005
4	0xbdcbf9fa	-0.099597886
5	0x3e2dc4e2	0.16969636
6	0xbe152579	-0.14565076
7	0x3d64dee8	0.055876642
8	0xbe74f566	-0.23921737
9	0xbdaebe0e	-0.08532344
10	0xbd3d6e07	-0.04624751
11	0x3df4aed2	0.11947407
12	0x3ddb4275	0.10706035
13	0x3e6b6838	0.22988975
14	0x3de3ab07	0.11116605
15	0x3dc5965b	0.09647819
16	0xbe0af3f4	-0.13569623
17	0xbe583583	-0.21114163
18	0x3cd30a8e	0.025761869
19	0xbe03ba0d	-0.12863941
20	0xbe89b81a	-0.2689827
21	0xbd80c71e	-0.062879786
22	0xbe05f5e0	-0.13082075
23	0x3e7b373e	0.24532792
24	0xbe0c1d13	-0.13682966
25	0x3c4b6029	0.012413063
26	0xbdcfbf75	-0.101439394
27	0xbe80d45e	-0.25162023
28	0xbe7f893c	-0.24954695
29	0xbd4d7f01	-0.05016995
30	0xb9a59806	-0.0003158452
31	0x3e59b3fc	0.21260065

_func._drift._model.0.weight f4 [128, 33]
0	0xbd7cb897	-0.061699476
1	0x3da2a8c2	0.07942344
2	0xbdba9e67	-0.09112244
3	0xbda0493e	-0.0782647
4	0x3df4b629	0.11948807
5	0xbe249d9d	-0.1607575
6	0xbbeb530e	-0.0071815317
7	0xbe05f404	-0.13081366
8	0x3d3195ed	0.04335587
9	0x3d29347a	0.04130981
10	0xbd9e955b	-0.07743331
11	0xbd0797b6	-0.033103667
12	0x3dd55596	0.10416715
13	0xbddfd5dd	-0.10929463
14	0x3d1b3cb4	0.037899688
15	0x3d43f36f	0.04783958
16	0x3d722277	0.0591149
17	0xbe03fef6	-0.12890229
18	0xbe2ff5ca	-0.17183605
19	0xbe0ece57	-0.139459
20	0xbd268cf6	-0.040661775
21	0x3ccd48fc	0.025059216
22	0xbe033168	-0.12811816
23	0xbe119679	-0.14217557
24	0xbde81a70	-0.113331676
25	0x3e19e720	0.15029573
26	0xbd9b3c2a	-0.07579835
27	0xbdc95f63	-0.09832647
28	0xbd8fb92e	-0.07017742
29	0xbe145f25	-0.1448942
30	0x3dfadc74	0.12249079
31	0xbe03c622	-0.1286855
32	0xbe0e870a	-0.13918701
33	0x3dd7a45a	0.105293944
34	0xbde9e6a7	-0.114209466
35	0xbd02affb	-0.03190611
36	0x3d140822	0.03614057
37	0x3d95a629	0.07307083
38	0x3e3fb456	0.18721136
39	0xbd8437c3	-0.06455948
40	0x3d9f75af	0.07786118
41	0x3dcdc4cc	0.10047302
42	0x3e0dd282	0.13849834
43	0x3ddadfe7	0.10687237
44	0x3e1d2e46	0.15349683
45	0x3dfefa4e	0.124500856
46	0xbe12f66a	-0.14351812
47	0xbd66979b	-0.056296926
48	0xbe0746f2	-0.13210657
49	0x3e1cb9b8	0.15305221
50	0x3de066af	0.10957085
51	0xbe27dd30	-0.1639297
52	0xbd285712	-0.04109866
53	0x3dd0a691	0.1018802
54	0xbd8a1567	-0.067423634
55	0x3de8921f	0.113559954
56	0x3b7673b1	0.0037605579
57	0xbe280351	-0.16407515
58	0x3e16a554	0.14711505
59	0x3de50c7b	0.11184021
60	0x3ce95f3f	0.0284878
61	0xbccd2fe6	-0.025047254
62	0x3dfa1660	0.12211299
63	0xbc13feda	-0.009032929
64	0x3e38de3a	0.18053523
65	0x3b6ee8dd	0.0036454715
66	0xba13b880	-0.00056350976
67	0x3d629827	0.055320885
68	0xbdcc75dd	-0.09983418
69	0x3d054627	0.032537606
70	0x3d6fd9a3	0.058557164
71	0xbe3a5827	-0.1819769
72	0xbdb26fc8	-0.08712727
73	0xbdc7806d	-0.09741292
74	0x3df77f46	0.12084822
75	0x3da3bcdd	0.07995007
76	0x3c430366	0.011902666
77	0x3db20728	0.08692771
78	0xbdfc1add	-0.12309811
79	0xbd193b0e	-0.037409835
80	0xbc952f47	-0.01821102
81	0x3e116785	0.14199646
82	0x3df82a9f	0.12117504
83	0x3e1c0412	0.15235928
84	0x3e269e3f	0.16271304
85	0xbdf935eb	-0.12168487
86	0x3cc38358	0.02386634
87	0xbcb8df05	-0.022567281
88	0x3d220a70	0.039560735
89	0xbdb4ec92	-0.08834185
90	0xbd9228fc	-0.071367234
91	0x3d95f75f	0.07322573
92	0xbcc3200e	-0.023818996
93	0x3df827ea	0.12116988
94	0x3c9cf2d2	0.019158754
95	0xbdb27d89	-0.0871535
96	0x3db5c0b6	0.08874647
97	0xbdb343c8	-0.087531626
98	0xbe30a86f	-0.17251752
99	0x3a9d49ca	0.001200014
100	0x3e0ada1c	0.13559765
101	0xbdc12f5d	-0.09432862
102	0x3db03606	0.08604054
103	0x3d5049d2	0.05085165
104	0x3d617762	0.055045493
105	0xbd95c3ef	-0.07312762
106	0x3e1213bf	0.14265345
107	0x3dbab1be	0.09115933
108	0x3e02a8e3	0.12759738
109	0xbe434250	-0.19068265
110	0xbd693c17	-0.05694207
111	0xbe0c6ccf	-0.13713382
112	0xbde42bd6	-0.111411735
113	0x3d830247	0.06396919
114	0x3d88e3fd	0.0668411
115	0xbd8422a5	-0.064519204
116	0x3d8c1945	0.06840757
117	0xbc67a8f5	-0.014139404
118	0xbe0e3e99	-0.13891067
119	0x3dd30541	0.103037365
120	0x3de7dd86	0.11321549
121	0xbda529bd	-0.080646016
122	0xbd40bc8d	-0.047054816
123	0x3e118a05	0.14212807
124	0xbca4e4a6	-0.02012856
125	0x3d7f07d0	0.06226331
126	0x3e2b1e56	0.16710791
127	0xbd89ab51	-0.06722129
128	0x3d936cb2	0.07198466
129	0xbdfb3c51	-0.12267364
130	0xbdf7664d	-0.12080059
131	0x3df92136	0.121645376
132	0x3c83f6ff	0.016108988
133	0xbe2c4bce	-0.16825792
134	0xbdf73f20	-0.12072587
135	0x3cef99d4	0.029248156
136	0xbd994b51	-0.074850686
137	0xbe0e64da	-0.1390566
138	0x3bf41744	0.0074490625
139	0xbd97e807	-0.074173026
140	0x3d861828	0.06547576
141	0xbdadac6c	-0.084801525
142	0xbd853e1c	-0.06505987
143	0xbe003d1b	-0.1252331
144	0x3d29e7cf	0.041480836
145	0x3db2636b	0.08710369
146	0x3df4a026	0.119446084
147	0x3c4c947b	0.012486572
148	0x3e0da1ca	0.13831249
149	0x3afa8807	0.0019114026
150	0xbda89d41	-0.08233119
151	0x3e20f966	0.15720138
152	0x3c630af6	0.013857594
153	0xbdbd4b16	-0.09242837
154	0x3939142c	0.0001765049
155	0xbe22d7dc	-0.15902656
156	0x3e171ade	0.14756343
157	0xbe2a5f79	-0.16637982
158	0x3cfcdaf4	0.030866124
159	0xbdb1c381	-0.086798675
160	0xbe2ee9fe	-0.17081448
161	0xbd84220c	-0.064518064
162	0xbdbb7558	-0.09153241
163	0x3df12bc7	0.11775928
164	0xbdcfeb1e	-0.10152267
165	0x3c98d918	0.018658206
166	0xbdbf7c5f	-0.09349894
167	0xbdaddf57	-0.08489864
168	0x3c8cb88a	0.017177839
169	0x3da441e7	0.080203824
170	0x3c9b8a37	0.018986804
171	0x3d0f0ee8	0.034926325
172	0xbda213b3	-0.079139136
173	0xbdeb7c6d	-0.11498342
174	0x3bd78ba2	0.006577925
175	0x3e51e0d3	0.2049592
176	0xbe0b5907	-0.1360818
177	0x3e2a040b	0.16603105
178	0x3d017d2d	0.031613518
179	0xbb9e6b12	-0.004834541
180	0x3e1e70ad	0.1547267
181	0x3d7d379d	0.061820615
182	0xbd96e1be	-0.07367276
183	0x3ddb6f4b	0.10714587
184	0xbc3fcce3	-0.011706564
185	0xbd40a557	-0.04703268
186	0x3dc42e6c	0.09579167
187	0x3ca83fcf	0.020538239
188	0x3d01fdf2	0.03173632
189	0x3de73b58	0.11290616
190	0xbaf7798e	-0.0018880831
191	0xbe095290	-0.13410401
192	0x3b15e689	0.0022873005
193	0xbbe2b207	-0.006918195
194	0x3c5ed7fe	0.013601301
195	0x3de89156	0.11355846
196	0x3db43939	0.08799977
197	0x3e1ab3b1	0.1510761
198	0xb998f6fc	-0.00029175717
199	0xbe2b0a56	-0.16703162
200	0x3e2a8884	0.16653639
201	0xbc0ebb8d	-0.008711708
202	0x3d683b36	0.056697093
203	0x3d8fcd07	0.07021528
204	0x3e067466	0.1313034
205	0x3d0ee518	0.03488645
206	0x3d956e0a	0.07296379
207	0x3db8d293	0.09024539
208	0x3e22400e	0.15844747
209	0xbe2f8dba	-0.17143908
210	0xbde1f414	-0.11032882
211	0xbc5cb314	-0.01347043
212	0xbdfca0fa	-0.12335391
213	0x3d0e96dd	0.034811843
214	0xbdfcb0d5	-0.123384155
215	0x3dc2565c	0.09489128
216	0xbd94931c	-0.072546214
217	0x3e15ff76	0.14648232
218	0xbdf16cef	-0.117883556
219	0x3ca7d53c	0.02048742
220	0xbe18815c	-0.14893097
221	0x3d88a421	0.0667193
222	0xbd2359dc	-0.03988062
223	0x3e3608a6	0.17776737
224	0xbd4fa84f	-0.05069762
225	0x37cfa4b4	2.4753019e-05
226	0xbdf5d71f	-0.12003922
227	0xbdf539d7	-0.11973923
228	0x3d96c4d4	0.07361761
229	0xbdd6297c	-0.10457131
230	0x3dccefa6	0.10006647
231	0x3dddaecb	0.10824355
232	0x3c96cfca	0.018409628
233	0xbd72ead5	-0.059305985
234	0x3d47bae3	0.048762213
235	0xbddcab4f	-0.10774862
236	0xbd962a1a	-0.07332249
237	0xbd386d45	-0.045026083
238	0x3d89f4b6	0.06736128
239	0x3dc40720	0.095716715
240	0x3df2b5e5	0.118511
241	0x3e060e3e	0.1309137
242	0x3d72a3e9	0.05923835
243	0x3cfd452b	0.03091677
244	0x3e2c8fe2	0.16851762
245	0x3defe1e5	0.11713008
246	0x3e03ac11	0.12858607
247	0xbe19cc31	-0.15019299
248	0xbe106b72	-0.14103487
249	0x3d1e62f1	0.038668577
250	0xbc1ea256	-0.009682259
251	0xbe0ae4dc	-0.13563865
252	0x3e260d80	0.16216087
253	0x3d0c4c5a	0.034252502
254	0xbe260dc0	-0.16216183
255	0xbe0093dd	-0.12556405

_func._drift._model.0.bias f4 [128]
0	0xbe15d857	-0.14633308
1	0xbdaad9e4	-0.083423406
2	0x3e0fe3d7	0.14051758
3	0xbd59a22e	-0.053133182
4	0xbd818b6e	-0.06325422
5	0xbd8556f9	-0.06510729
6	0x3e10dedf	0.14147519
7	0x3d38d2ee	0.045123033
8	0xbd437b4f	-0.047725018
9	0xbda71eba	-0.081601575
10	0xbe011bb9	-0.12608232
11	0xbc45d97b	-0.012075777
12	0xbc99b86c	-0.018764697
13	0x3cb80a5d	0.02246588
14	0x3cd57bf4	0.026060082
15	0xbe26d7ab	-0.16293208
16	0xbd9919a0	-0.07475591
17	0xbe125605	-0.14290626
18	0xbd0a4210	-0.03375441
19	0xbe12d8b7	-0.14340483
20	0xbc8a79e1	-0.01690382
21	0xbd49f4b5	-0.049305636
22	0x3e269300	0.16267014
23	0x3c7d664d	0.015466285
24	0x3d91004d	0.070801355
25	0xbd940cfe	-0.072290406
26	0xbe19eb8f	-0.15031265
27	0x3dde8082	0.10864355
28	0xbc43a7d8	-0.011941873
29	0x3dc6c0ef	0.09704768
30	0x3d945a9d	0.072438456
31	0x3d85bbf6	0.06529991
32	0x3dd88565	0.10572318
33	0x3d2d327e	0.04228448
34	0x3c18af2a	0.009319106
35	0xbdcad4b0	-0.09903848
36	0x3da2dd07	0.07952314
37	0x3d84feaa	0.06493886
38	0xbe036fbc	-0.12835592
39	0xbcd34052	-0.025787506
40	0x3db10e8e	0.08645354
41	0xbdf7c185	-0.12097458
42	0xbda2da93	-0.07951846
43	0xbdbcf592	-0.09226526
44	0x3e1dbc81	0.1540394
45	0xbcfb19a0	-0.030651867
46	0x3d2cf3a3	0.042224538
47	0x3d8560d6	0.065126106
48	0xbe12f151	-0.14349867
49	0x3c956eac	0.018241249
50	0xbd6e84ca	-0.058232106
51	0xbdd06af2	-0.10176648
52	0xbdbdae75	-0.09261791
53	0x3ca80f1b	0.020515015
54	0xbc6df4a4	-0.014523659
55	0xbd74ece4	-0.05979623
56	0x3d9f71f0	0.07785404
57	0x3c63899b	0.013887788
58	0xbd31b1ba	-0.043382384
59	0xbe3539a8	-0.17697775
60	0xbccc3c0d	-0.024930978
61	0xbe36bd5c	-0.17845672
62	0x3d4bfa28	0.049799114
63	0xbd978894	-0.07399097
64	0xbe1dd1d9	-0.15412082
65	0xbca53257	-0.020165605
66	0x3cb67cf2	0.022276375
67	0x3db17d76	0.08666508
68	0x3d48e42a	0.04904572
69	0xbd9dd618	-0.07706851
70	0xbced9243	-0.029000407
71	0xbcae69ce	-0.021290686
72	0x3e35ba94	0.17746955
73	0x3cf96cdc	0.030447416
74	0xbd55e132	-0.052216716
75	0x3d78bf30	0.060729206
76	0xbe07db03	-0.1326714
77	0x3e0c0e02	0.13677219
78	0x3c934888	0.017978922
79	0x3dea57e7	0.11442547
80	0xbe1580e3	-0.14599948
81	0xbdf5b390	-0.119971395
82	0x3e0833f7	0.13301073
83	0x3d1780b5	0.03698798
84	0x3e234772	0.15945223
85	0x3dcd18ce	0.10014497
86	0x3cf05cba	0.02934109
87	0xbdb67b17	-0.08910196
88	0xbe14a528	-0.14516127
89	0x3e374493	0.17897253
90	0xbdfde39d	-0.123969294
91	0xbd164944	-0.036690965
92	0xbe28d4e6	-0.16487464
93	0x3d3bccaf	0.0458495
94	0xbe330ff5	-0.17486556
95	0xbe135c8a	-0.1439077
96	0xbd394874	-0.045235112
97	0x3e182fdb	0.14862005
98	0xbcee0309	-0.029054182
99	0xbe1e63a6	-0.154677
100	0xbd95fa9e	-0.07323192
101	0xbe176b55	-0.14787038
102	0xbd04e1b1	-0.0324418
103	0xbd1d5248	-0.038408548
104	0x3df962df	0.12177061
105	0x3e149963	0.14511637
106	0x3e13abf4	0.14421064
107	0xbe13de60	-0.14440298
108	0x3ccbbad0	0.024869353
109	0x3e2dbd24	0.16966683
110	0xbdec5207	-0.11539083
111	0xbe2da530	-0.16957545
112	0xbdec477d	-0.11537073
113	0x3e02fffd	0.12792964
114	0x3e0e8330	0.13917232
115	0xbdc11ef3	-0.09429731
116	0x3df454e9	0.11930258
117	0x3e28cd7c	0.16484636
118	0x3d11c5a7	0.035588887
119	0x3debc240	0.115116596
120	0x3e31b596	0.17354426
121	0x3e018a58	0.1265043
122	0xbe06789a	-0.13131943
123	0x3c96b802	0.018398289
124	0xbde626b8	-0.11237854
125	0xbd40ccab	-0.047070187
126	0x3da48478	0.08033079
127	0xbdc111b8	-0.09427208

_func._drift._model.2.weight f4 [128, 128]
0	0xbd945c8c	-0.072442144
1	0xbd67288b	-0.05643515
2	0xbda561ed	-0.080753185
3	0x3d58d257	0.05293497
4	0xbc9bab86	-0.019002687
5	0x3db546bf	0.08851384
6	0xbd96f456	-0.07370822
7	0x3c773053	0.015087205
8	0xbd144551	-0.036198918
9	0xbd892f7f	-0.06698512
10	0x3c2cbc46	0.010542935
11	0x3c0ea0e9	0.008705356
12	0x3d399b43	0.045314085
13	0xbd890ef5	-0.06692306
14	0xbd78cef1	-0.06074423
15	0xbced3c0f	-0.028959302
16	0xbd3072c0	-0.043078184
17	0xbd889a18	-0.06670016
18	0x3c819b14	0.015821017
19	0xbc891234	-0.016732313
20	0x3d892d0b	0.066980444
21	0x3d9a5e5d	0.075375296
22	0xb826d32c	-3.9774153e-05
23	0xbcd6956a	-0.026194293
24	0xbbde8d17	-0.0067917216
25	0x3d132c37	0.03593084
26	0x3c81f2fd	0.015862936
27	0x3d509bf0	0.050929964
28	0xbc84d521	-0.016214909
29	0x3a9a9a88	0.0011795321
30	0x3d5e9830	0.054344356
31	0x3d85c997	0.06532591
32	0xbd2d76ae	-0.04234951
33	0xbcda5144	-0.026650079
34	0x3d2d16ab	0.042257946
35	0xbc225a40	-0.009909213
36	0xbd138b23	-0.036021363
37	0xbd3072c7	-0.04307821
38	0xbbf66310	-0.0075191334
39	0xbc6b8c5e	-0.014376728
40	0xbd9fe6c3	-0.07807686
41	0xbd0e6891	-0.03476769
42	0x3cbdefd0	0.02318564
43	0xbd5a4b6f	-0.053294595
44	0x3cd8274b	0.026385924
45	0xbdb76351	-0.0895449
46	0xbd858ca2	-0.06520964
47	0xbb5382a2	-0.0032273908
48	0xbd94f688	-0.072735846
49	0x3d95d32d	0.07315669
50	0xbd0d917d	-0.034562577
51	0xbd98338c	-0.07431707
52	0x3af7a136	0.0018892649
53	0xbd316062	-0.04330481
54	0xbcdc376b	-0.026881894
55	0x3d1c16d9	0.038107727
56	0x3d984c1a	0.0743639
57	0x3db30764	0.08741644
58	0x3d8999b1	0.067187674
59	0xbcf54a3e	-0.029942628
60	0x3d3f2d7a	0.04667423
61	0x3d13c93f	0.036080595
62	0xbd230f95	-0.039809782
63	0x3db500e7	0.08838063
64	0xbcd71829	-0.026256638
65	0xbcdf759d	-0.027277762
66	0xbdab8354	-0.08374658
67	0x3b8d6dfc	0.0043160897
68	0x3d857170	0.06515777
69	0x3da7bf51	0.081907876
70	0xbcb55a11	-0.022137674
71	0xbd967b1a	-0.073476985
72	0x3d8acc92	0.067773
73	0x3d921b9b	0.071341716
74	0xbd86d36d	-0.06583295
75	0xbd2090b4	-0.0392005
76	0x3d8838b7	0.066514425
77	0x3cc5323f	0.02407181
78	0x3b6297b0	0.0034575276
79	0xbcf32515	-0.029680768
80	0xbcced1fb	-0.02524661
81	0x3db5ee7a	0.088833764
82	0x3d8a2a64	0.067463666
83	0xbc3451f6	-0.011005869
84	0x3d0f3609	0.03496364
85	0xbd35e890	-0.044411242
86	0x3d08e50a	0.033421554
87	0xbd9eac49	-0.077477045
88	0x3d5430b9	0.051804278
89	0x3cd50b6b	0.026006421
90	0xbd302133	-0.04300041
91	0x3d60b6c4	0.0548618
92	0xbb242a6e	-0.0025049704
93	0x3d33a4ca	0.043858327
94	0x3d1a4fa3	0.037673604
95	0x3d547c47	0.051876333
96	0x3d73c202	0.059511192
97	0xbd8bb0da	-0.06820841
98	0x3d2de902	0.04245854
99	0xbd86245b	-0.06549903
100	0x3d44b5c8	0.048024923
101	0xbd92d5bf	-0.07169675
102	0x3cf50191	0.029907973
103	0xbd83cd4c	-0.06435642
104	0x3d7b963f	0.061422583
105	0x3db607c4	0.088882
106	0xbd269d78	-0.040677518
107	0xbd132e67	-0.035932925
108	0xbd591ca3	-0.053005826
109	0xbd1ba460	-0.037998557
110	0x3da76a73	0.081746005
111	0x3d561a7d	0.052271355
112	0xbd0c5757	-0.03426298
113	0xbd42689b	-0.04746304
114	0xbce7bf93	-0.028289592
115	0xbd0bfcb1	-0.034176532
116	0xbd184930	-0.037179172
117	0xbd9eaca1	-0.0774777
118	0x3d67b978	0.05657336
119	0xbd7a8abd	-0.061167467
120	0x3d277995	0.040887434
121	0x3c6d5538	0.01448565
122	0x3dad526e	0.08462988
123	0x3a8b6b63	0.0010636862
124	0x3c35117c	0.011051532
125	0xbd9e435e	-0.07727693
126	0x3d0bab9b	0.034099203
127	0xbc9dd91e	-0.019268569
128	0xbd83b5b7	-0.06431144
129	0x3db5040d	0.08838663
130	0x3d79a38b	0.060946982
131	0x3da5d64c	0.080975145
132	0xbd464d6a	-0.04841367
133	0xbb273b79	-0.0025517626
134	0x3bc6d63a	0.0060680183
135	0xbd97b9fc	-0.074085206
136	0xbd8ad159	-0.06778211
137	0x3d2c4bd9	0.04206452
138	0x3ce6432c	0.028108202
139	0x3d089cc4	0.03335263
140	0xbd033a25	-0.032037873
141	0x3d775da8	0.060392052
142	0x3d99eca4	0.07515839
143	0x3da2605c	0.07928535
144	0xbc2619a2	-0.010137947
145	0xbc8f7b3e	-0.017514821
146	0x3c152cf0	0.009104952
147	0xbd6a1645	-0.057150144
148	0x3d77543f	0.060383078
149	0x3d6edf6e	0.058318548
150	0x3d0a630d	0.03378587
151	0xbdc243b6	-0.09485571
152	0xbd7f5e01	-0.06234551
153	0x3d0ed18c	0.03486781
154	0x3ba22988	0.0049487986
155	0x3d26c449	0.040714536
156	0x3c21f68a	0.00988544
157	0xbd588e28	-0.052869946
158	0x3c89ee74	0.016837336
159	0x3d4fffb5	0.05078097
160	0xbc5205ce	-0.012818767
161	0xbd903f9b	-0.07043382
162	0xbd3e851e	-0.04651367
163	0xbc96d720	-0.018413126
164	0xbd501d66	-0.050809287
165	0xbc99f8f0	-0.01879546
166	0x3c66a613	0.014077681
167	0x3d841a61	0.06450344
168	0x3d788db3	0.06068201
169	0x3d7c462d	0.061590362
170	0x3b32044f	0.0027163213
171	0x3c286582	0.010278108
172	0x3d88cc08	0.06679541
173	0x3bdcceb5	0.0067385086
174	0x3d98a35a	0.07453032
175	0xbc1be8a6	-0.009515917
176	0xbb4cecae	-0.0031269002
177	0xbd196632	-0.037450977
178	0xbda9ffd7	-0.08300751
179	0x3d9ca187	0.076479964
180	0xbbbaf326	-0.005705255
181	0xbd093b8d	-0.033504058
182	0x3d5f4870	0.05451244
183	0xbd7c0dd8	-0.06153664
184	0x3dbaf2a7	0.091283135
185	0x3d14e6b3	0.036352824
186	0xbdad55ae	-0.08463608
187	0xbcaa9cb6	-0.020826679
188	0x3a7df544	0.00096877315
189	0x3d8814df	0.06644606
190	0x3da42b8b	0.08016118
191	0xbcd501c8	-0.026001826
192	0x3d83f1dc	0.064426154
193	0xbd5cfbfd	-0.053951252
194	0xbd897ac6	-0.0671287
195	0xbd89e8a1	-0.067338236
196	0x3db37d1d	0.08764098
197	0xbd8d6e73	-0.06905832
198	0x3d23f28d	0.040026236
199	0x3d8e9bc0	0.06963301
200	0x3d32e5f2	0.043676324
201	0xbd86fb0f	-0.065908544
202	0x3c048d00	0.008090258
203	0x3ba0e0a0	0.00490959
204	0x3d2b6515	0.041844446
205	0xbcb30583	-0.021853214
206	0xbd152e08	-0.036420852
207	0x3db56a24	0.08858135
208	0x3cfadd8c	0.03062322
209	0x3c80d1b3	0.015724992
210	0x3cbc1c7e	0.022962805
211	0x3dabd1dc	0.08389637
212	0x3dae2266	0.08502655
213	0xbcace5cf	-0.021105675
214	0xbd36ae09	-0.044599567
215	0xbd97b766	-0.07408027
216	0xbdb953a7	-0.090491585
217	0x3d4b1132	0.049576946
218	0xbd9567be	-0.07295178
219	0x3cee343f	0.029077647
220	0x3cd65961	0.026165666
221	0x3c2dc337	0.010605625
222	0x3d39e6aa	0.045385994
223	0x3db28327	0.087164216
224	0x3df48891	0.119401105
225	0x3d209c83	0.03921176
226	0xbde10cf8	-0.10988802
227	0xbd98f636	-0.07468836
228	0xbd9b6671	-0.075878985
229	0xbd4dcec0	-0.050246
230	0x3d8b4c57	0.0680167
231	0x3db1f34c	0.08688983
232	0xbc3ede6f	-0.011649712
233	0xbd847eb2	-0.06469478
234	0x3d1bd021	0.038040284
235	0xbc83eb4e	-0.016103413
236	0x3bff445b	0.007790131
237	0x3ccfc225	0.02536113
238	0xbd9e6d45	-0.07735685
239	0xbbf990ff	-0.007616162
240	0xbb8ca438	-0.0042920373
241	0x3d57dfef	0.052703794
242	0xbd7f9d2d	-0.062405754
243	0x3d5c9858	0.053856224
244	0x3d64f257	0.055895176
245	0xbc6dbeff	-0.014510869
246	0x3c3233c1	0.010876597
247	0xbc3768ea	-0.011194447
248	0x3c499263	0.012302968
249	0x3cf9e948	0.030506745
250	0xbd72a006	-0.05923464
251	0xbcfd93f4	-0.030954339
252	0xbd882534	-0.06647721
253	0xbd87b517	-0.06626337
254	0xbda29035	-0.079376616
255	0x3d83c642	0.06434299

_func._drift._model.2.bias f4 [128]
0	0x3d21ec21	0.03953183
1	0xbcf68b74	-0.030095793
2	0x3c06f24e	0.008236481
3	0xbc8c6928	-0.017139986
4	0xbcd12c7e	-0.02553391
5	0x3d87bab2	0.06627406
6	0xbd051b26	-0.032496594
7	0x3af08130	0.0018349048
8	0x3d4975af	0.049184497
9	0x3d242dd4	0.040082768
10	0x3d157bc4	0.036494985
11	0x3d5c436e	0.053775243
12	0xbd29597b	-0.0413451
13	0xbd2e92fe	-0.04262065
14	0x3d212d79	0.039350007
15	0x3cefcf50	0.029273659
16	0xbd2d338a	-0.04228548
17	0x3bc3239e	0.0059551736
18	0xbb929e5c	-0.0044744443
19	0x3d645101	0.055741314
20	0xbd9da981	-0.07698346
21	0x3ce7eee3	0.028312152
22	0x3d1f93cb	0.038959306
23	0x3dc0f63c	0.094219655
24	0x3d649439	0.05580542
25	0xbc670098	-0.014099263
26	0xbd8da4ed	-0.06916223
27	0xbdc51457	-0.0962302
28	0x3d8f9433	0.07010689
29	0x3d89578d	0.06706152
30	0x3d9f666d	0.07783208
31	0x3d8c2f7e	0.06844996
32	0x3d1f4634	0.03888531
33	0xbc55f8f7	-0.013059846
34	0xbccdeffd	-0.02513885
35	0x3d2e9c65	0.04262962
36	0x3b71b453	0.0036881163
37	0x3d8f4a7e	0.0699663
38	0x3db1c2b3	0.08679714
39	0xbc2ba7df	-0.010477035
40	0xbd5cc0d4	-0.053894833
41	0x3c8cd0f8	0.017189488
42	0xbcb6c479	-0.022310482
43	0xbc8b22b2	-0.016984317
44	0x3b0423b2	0.0020162878
45	0xbd006a3d	-0.031351317
46	0xbd5b460a	-0.05353359
47	0x3d4f1379	0.05055568
48	0x3d2bf1e4	0.04197873
49	0xbd8b6f8c	-0.06808385
50	0xbd14adc4	-0.03629853
51	0xbd7e023e	-0.062013857
52	0xbd0a97c3	-0.033836138
53	0x3db371a5	0.0876191
54	0x3d4cd4e6	0.050007723
55	0xbd722efd	-0.059126843
56	0xbd999d2a	-0.0750068
57	0x3d47735b	0.048693996
58	0xbcb33b19	-0.021878766
59	0xbd881179	-0.06643958
60	0xbd87ec79	-0.066369005
61	0x3cfcfdd4	0.030882753
62	0x3cbd2323	0.023088044
63	0xbca22eab	-0.019797644
64	0x3d618ad8	0.055064052
65	0x3daad71c	0.0834181
66	0xbbf39391	-0.007433363
67	0x3d4dab84	0.0502124
68	0xbc0c7e43	-0.008575025
69	0x3d0a7f74	0.033812955
70	0x3d9b26bd	0.07575748
71	0x3d8a183d	0.06742904
72	0xbd8427fb	-0.06452938
73	0xbcc079cc	-0.023495577
74	0xbadc31b5	-0.0016799482
75	0x3daa8dd7	0.08327835
76	0x3d256dfe	0.0403881
77	0xbd31a115	-0.04336651
78	0xbd825e7a	-0.06365676
79	0xbd907755	-0.07054011
80	0x3c33c9ab	0.010973374
81	0xbd3b9ad1	-0.04580194
82	0xbccfdc1c	-0.025373511
83	0x3ca24f0a	0.01981308
84	0x3ca4223b	0.020035854
85	0xbcb84848	-0.022495404
86	0xbc1df086	-0.009639865
87	0xbc877b78	-0.016538367
88	0xbda71642	-0.08158542
89	0x3c9fce38	0.019507512
90	0xbca83560	-0.020533264
91	0xbd3d081a	-0.046150304
92	0x3da7598c	0.081713766
93	0x3d00f8a8	0.031487137
94	0x3bf264b9	0.007397261
95	0x3b102fdf	0.002200119
96	0xbd9946ef	-0.07484233
97	0x3c8e388b	0.017360946
98	0x3d68d3c0	0.056842566
99	0x3d1e7a6d	0.038690973
100	0xbc3fff60	-0.011718601
101	0x3da93c53	0.08263459
102	0x3d315597	0.043294515
103	0x3c8b507d	0.017006153
104	0x3da36f01	0.07980157
105	0xbd4c358a	-0.049855746
106	0x3dbd9851	0.09257568
107	0xbd26c8ab	-0.040718716
108	0xbcc20264	-0.02368278
109	0xbd344414	-0.044010237
110	0xbd8794f7	-0.0662021
111	0xbbdca254	-0.006733218
112	0x3d2fc460	0.042911887
113	0xbc37b8b4	-0.01121347
114	0xbd3fdc5e	-0.046841018
115	0x3d4b3f7f	0.0496211
116	0xbb9e9b2f	-0.0048402767
117	0x3c8c3d8d	0.017119193
118	0xbc7ed28e	-0.01555313
119	0x3da3f6b2	0.08006038
120	0x3d0645c0	0.032781363
121	0x3d18911b	0.03724776
122	0x3daafa6f	0.08348548
123	0x3c665145	0.014057462
124	0x3d1abbfb	0.03777693
125	0x3d059b87	0.032619026
126	0x3db1a512	0.08674063
127	0x3d655945	0.055993337

_func._drift._model.4.weight f4 [32, 128]
0	0x3ca6d1da	0.020363737
1	0x3ceb5805	0.028728494
2	0xbd6cf541	-0.05785108
3	0xbd49fd0f	-0.0493136
4	0x3cf80faf	0.030280916
5	0x3c4e3512	0.012585895
6	0x3d34b814	0.044120863
7	0x3dab6988	0.08369738
8	0xbd12c885	-0.03583576
9	0x3d7e20e0	0.06204307
10	0x3cf317df	0.029674469
11	0xbcfe9b08	-0.031079784
12	0x3cedc0c5	0.029022584
13	0x3daa4aa6	0.08315019
14	0x3d6eca3c	0.058298334
15	0x3c5f46ca	0.013627717
16	0xbc5e2761	-0.013559193
17	0xbdce441a	-0.10071583
18	0xbdd27c39	-0.102776
19	0x3d9f3304	0.07773402
20	0xbd9b150d	-0.075723745
21	0xbc489652	-0.01224287
22	0xbda48de1	-0.08034874
23	0x3d9ab0f6	0.07553284
24	0xbc85b232	-0.016320322
25	0x3d67e368	0.056613356
26	0x3cfa29d7	0.030537529
27	0x3cd1a4e2	0.025591318
28	0x3da05115	0.07827965
29	0x3d5477a3	0.051871907
30	0xbd8dff20	-0.06933427
31	0x3dbacfdb	0.091216765
32	0xbda52394	-0.080634266
33	0x3cae85c6	0.021304023
34	0x3d640a7f	0.055674072
35	0x3d2aded9	0.04171643
36	0xbda3a6ce	-0.079908
37	0x3d07e28d	0.03317504
38	0xbc90928a	-0.017648
39	0xbda8d3ae	-0.082435
40	0xbcdc58ca	-0.026897807
41	0x3d11791d	0.035515893
42	0xbd2f53cd	-0.042804528
43	0x3caaf64d	0.020869398
44	0xbd3d9330	-0.046282947
45	0xbc498ca4	-0.012301598
46	0x3cdfef57	0.027335806
47	0x3d543559	0.05180869
48	0xbd6bf83f	-0.057609793
49	0x3d9865bd	0.0744128
50	0xbda296c7	-0.07938915
51	0x3bc76b62	0.006085799
52	0x3d248ce8	0.04017344
53	0x3bbe5935	0.005808974
54	0xbda3bc76	-0.079949304
55	0xbd5cbb29	-0.053889427
56	0x3dc4db46	0.096121356
57	0xbc06f85a	-0.008237923
58	0x3db7a060	0.08966136
59	0xbd16473b	-0.036689024
60	0xbd2ad989	-0.041711364
61	0xbd13545a	-0.035969116
62	0xbd5b28a4	-0.053505555
63	0x3c488a6b	0.012240033
64	0xbd68d0d7	-0.05683979
65	0x3d401c66	0.046902083
66	0x3ccc40b0	0.02493319
67	0x3dac1a5b	0.084034644
68	0xbc778add	-0.015108791
69	0x3d15829f	0.036501523
70	0x3cb60a73	0.02222178
71	0x3d49669e	0.04917013
72	0x3dbae8a8	0.09126407
73	0xbce3735b	-0.027764967
74	0xbda7da15	-0.08195893
75	0xbb998dd3	-0.004686096
76	0x3d1d716a	0.03843824
77	0xbd719cf5	-0.058987577
78	0x3d9b2722	0.07575823
79	0x3dad8a7e	0.08473681
80	0xbbdaa372	-0.006672316
81	0x3b3401ee	0.002746697
82	0x3cd98b76	0.026555758
83	0xbd734a61	-0.059397105
84	0x3d2f75c9	0.042836938
85	0xbc89ea51	-0.016835364
86	0xbda526ba	-0.08064027
87	0xbd9f9805	-0.07792667
88	0xbbcdc72e	-0.0062798476
89	0xbcb24f86	-0.021766435
90	0xbd9322d5	-0.07184378
91	0x3bfbfef5	0.0076903054
92	0x3cc35590	0.02384451
93	0xbd9b184f	-0.07572996
94	0xbd84a9cc	-0.06477699
95	0xbd84992a	-0.06474526
96	0xbca171af	-0.019707529
97	0xbd191616	-0.03737458
98	0x3d07f62a	0.033193745
99	0x3d4303f7	0.047611203
100	0x3dc59502	0.096475616
101	0x3baaaeeb	0.00520884
102	0x3a339651	0.0006850707
103	0xbcf66654	-0.03007809
104	0xbd4701ee	-0.048585825
105	0xbd92d299	-0.071690746
106	0xbd67b08c	-0.056564853
107	0xbc0cf8dc	-0.008604255
108	0xbab12169	-0.0013513985
109	0x3db1a10e	0.08673297
110	0x3d2b7907	0.041863468
111	0xbceaeefa	-0.028678406
112	0x3cbb4479	0.022859799
113	0x3cf8a073	0.030349946
114	0x3c808eb3	0.015693044
115	0xbdab123a	-0.08353086
116	0xbd8124d6	-0.06305854
117	0x3c284448	0.010270186
118	0x3d9f7ea9	0.077878304
119	0xbda3fb6d	-0.0800694
120	0xbba1b430	-0.00493481
121	0x3d80d7ad	0.06291137
122	0x3d043a3b	0.032282095
123	0xbd3e1560	-0.046407104
124	0x3db6ca27	0.08925276
125	0x3b7e8106	0.0038834228
126	0xbd4c6cdf	-0.049908515
127	0x3d86869d	0.06568644
128	0xbdc4f19d	-0.096163966
129	0xbdb6a18e	-0.08917533
130	0x3d979ba8	0.07402736
131	0xbdba017a	-0.09082313
132	0xbd52d152	-0.051469155
133	0xbdb37a9a	-0.08763619
134	0x3d5b5079	0.05354354
135	0xbd50c203	-0.050966274
136	0xbd7c0384	-0.06152679
137	0xbd08b9d0	-0.03338033
138	0x3d414bd6	0.047191463
139	0xbd164e39	-0.036695693
140	0xbc925cdc	-0.017866544
141	0x3dad1dd3	0.08452954
142	0x3cb2b1c1	0.021813275
143	0xbd83f0fe	-0.0644245
144	0x3d019328	0.03163448
145	0xbb584032	-0.0032997248
146	0x3d198ecf	0.03748971
147	0xbd4e7509	-0.050404582
148	0xbc334ded	-0.010943872
149	0x3da11e3a	0.078670934
150	0xbd1db57c	-0.038503155
151	0xbc98659e	-0.018603142
152	0xbd0f623c	-0.035005793
153	0xbd808ff1	-0.06277455
154	0x3c08724f	0.008328035
155	0xbd8a24a0	-0.06745267
156	0x3d588851	0.052864376
157	0x3d846e67	0.0646637
158	0xbda7f3c0	-0.082007885
159	0x3c13cbad	0.009020728
160	0xbd7315a9	-0.05934683
161	0x3d69349f	0.05693495
162	0x3d1f1ee3	0.038847815
163	0xbd9ac5d6	-0.075572655
164	0xbd93baeb	-0.07213386
165	0x3d039eb4	0.032133773
166	0x3bd52f36	0.006505872
167	0xbd4ba7fc	-0.04972075
168	0xbd22dd97	-0.039762106
169	0x3b06e5e8	0.0020583812
170	0xbd53508f	-0.0515905
171	0x3d9b23a9	0.07575161
172	0x3d5f8006	0.054565452
173	0xbd623031	-0.05522174
174	0xbd16289e	-0.03665983
175	0xbc5294a9	-0.012852826
176	0xbd07126b	-0.03297655
177	0xbd14d3aa	-0.03633467
178	0xbbaab9d8	-0.0052101426
179	0xbcee5eef	-0.029098002
180	0xbd8b4b00	-0.068014145
181	0x3d451bc0	0.048122168
182	0x3d5f6af0	0.054545343
183	0x3cbf57fe	0.023357388
184	0xbb97888a	-0.004624431
185	0x3b53462d	0.0032237873
186	0xbd4bd0e6	-0.049759768
187	0x3d071aec	0.03298466
188	0xbda07a6a	-0.07835849
189	0x3db510b3	0.08841076
190	0xbd4ce7f4	-0.050025895
191	0x3d2d1515	0.042256434
192	0x3cb21aff	0.021741388
193	0xbd87076b	-0.06593212
194	0xbdacdd7b	-0.084406815
195	0x3d4abc6e	0.049496107
196	0x3ca8dcb3	0.02061305
197	0xbca04f9c	-0.01956921
198	0x3d8165c6	0.0631824
199	0xbcf2c3e7	-0.02963443
200	0x3d8f2623	0.06989696
201	0x3d96445f	0.073372595
202	0xbd020ebf	-0.031752344
203	0xbc6cbb02	-0.014448883
204	0xbd7cbe32	-0.061704822
205	0xbd8806cc	-0.066419214
206	0x3d96d600	0.07365036
207	0x3d641c40	0.055691004
208	0x3db09533	0.086222075
209	0xbd9423da	-0.07233401
210	0x3b833120	0.004003659
211	0x3d27c16f	0.040955957
212	0xbc9b2649	-0.018939154
213	0x3dbc1ab2	0.09184779
214	0xbc812993	-0.015766894
215	0xbd01479f	-0.031562444
216	0x3d5d5bcb	0.05404262
217	0x3d8c5ced	0.06853662
218	0x3d0e89b0	0.034799278
219	0xbd9245d9	-0.07142229
220	0xbd9c1904	-0.07621959
221	0x3daeb1ee	0.08530031
222	0x3c806210	0.01567176
223	0xbd36f3b7	-0.04466602
224	0xbd0874c2	-0.033314474
225	0x3ca1aa69	0.019734578
226	0xbbe41d91	-0.0069615324
227	0xbd7b98c7	-0.061424997
228	0xbd38aec2	-0.045088537
229	0x39c69582	0.00037876895
230	0xbd376bb2	-0.04478044
231	0xbc109821	-0.008825333
232	0x3b0d0842	0.0021519815
233	0x3dbac740	0.09120035
234	0x3d4745c2	0.04865051
235	0xbd57f926	-0.05272784
236	0x3d81ff1b	0.06347486
237	0xbdbb7ec9	-0.09155042
238	0xbd38a942	-0.04508329
239	0xbcb71372	-0.02234814
240	0xbbee0961	-0.0072643016
241	0xbc871158	-0.016487762
242	0x3d9eabc9	0.07747609
243	0x3cd9b0b0	0.026573509
244	0xbd91978f	-0.07108986
245	0x3d1b1594	0.037862375
246	0x3d197ab3	0.03747053
247	0xbc49ecaa	-0.0123244915
248	0xbd0cadf2	-0.034345575
249	0xbcda1665	-0.026622007
250	0x3d15114a	0.03639344
251	0x3d9ae50a	0.07563217
252	0xbdd129de	-0.10213064
253	0x3d763270	0.060106695
254	0xbd42c1df	-0.04754817
255	0xbc4952ae	-0.012287779

_func._drift._model.4.bias f4 [32]
0	0xbd1076be	-0.03526949
1	0xbc3e1ae6	-0.011603093
2	0x3d0adf40	0.033904314
3	0xbd8930eb	-0.066987835
4	0xbc706ebd	-0.01467484
5	0x3ca5dfda	0.020248342
6	0xbcd7972d	-0.026317203
7	0x3d3bb032	0.04582233
8	0xbd86f9b6	-0.06590597
9	0xbd4fa7c8	-0.050697118
10	0xbcb8bc04	-0.02255059
11	0x3d892e23	0.06698253
12	0x3d347561	0.044057254
13	0x3d331e6e	0.043730192
14	0xbd81a724	-0.06330708
15	0xbbcf475a	-0.0063256444
16	0xbd2f0949	-0.042733464
17	0xbdaa7e3d	-0.08324859
18	0xbd19d210	-0.037553847
19	0x3db00b6c	0.085959285
20	0x3cbd0ddd	0.0230779
21	0xbd749682	-0.059713848
22	0xbd447d64	-0.047971144
23	0x3ce7cda2	0.028296296
24	0x3d8184ba	0.06324144
25	0x3d22247c	0.039585575
26	0x3d09bf3b	0.033629637
27	0xbb93d0b0	-0.0045109615
28	0xbdc35e98	-0.09539527
29	0xbc9eb858	-0.019375011
30	0xbd6f8f2a	-0.05848614
31	0xbcf31fe0	-0.029678285

_func._diffusion._model.0.weight f4 [128, 33]
0	0xbd078d5f	-0.033093806
1	0xbdde3318	-0.10849589
2	0xbd210a40	-0.039316416
3	0x3e0eb74e	0.13937113
4	0x3c855029	0.016273575
5	0x3e34ef1c	0.17669338
6	0xbe0351db	-0.12824194
7	0x3d80a23f	0.06280946
8	0x3c678650	0.014131144
9	0xbc969673	-0.018382287
10	0xbe0badec	-0.13640565
11	0xbd3c03c2	-0.04590202
12	0x3e22c0db	0.15893881
13	0xbd9e7d20	-0.077387094
14	0xbe1bf76d	-0.15231104
15	0xbd55e331	-0.05221862
16	0xbe088711	-0.13332774
17	0xbd63d967	-0.055627253
18	0xbd399a22	-0.045313008
19	0x3d1b7cdb	0.03796087
20	0xbe193f29	-0.149655
21	0x3dd44da5	0.10366372
22	0x3c75b3a6	0.014996445
23	0xbe0b1fc2	-0.13586333
24	0xbdb7894f	-0.089617364
25	0x3d650e8d	0.05592208
26	0xbcd5a9ca	-0.026081938
27	0x3e157d6c	0.14598626
28	0xbe0a29d9	-0.13492526
29	0x3dcd8441	0.10034991
30	0x3dec869d	0.11549113
31	0x3ca82b6b	0.020528516
32	0x3bee8202	0.0072786817
33	0xbe050782	-0.12991145
34	0xbd0e550b	-0.034749072
35	0xbe21196b	-0.15732352
36	0xbe25cfe9	-0.16192593
37	0xbc9740ae	-0.018463459
38	0x3dadb1d7	0.08481186
39	0xbd35f7c0	-0.044425726
40	0x3d07108d	0.03297477
41	0xbe08e53b	-0.13368694
42	0xbdf2a0e9	-0.118470974
43	0x3dbc1639	0.09183926
44	0x3da16e38	0.07882351
45	0x3d8042b9	0.06262726
46	0x3daeefa6	0.08541803
47	0x3cc79dc6	0.024367224
48	0x3de50690	0.11182892
49	0xbdcdc938	-0.10048145
50	0x3cba15c3	0.022715455
51	0xbe211e6e	-0.15734264
52	0x3e22a84c	0.15884513
53	0xbe03da04	-0.12876135
54	0x3d82943b	0.06375929
55	0x3e026606	0.12734231
56	0xbde40224	-0.11133221
57	0x3da53e25	0.08068494
58	0x3e1bf7d4	0.15231258
59	0xbd1e6f59	-0.03868041
60	0xbdb80b17	-0.0898649
61	0xbc0bcb24	-0.008532319
62	0xbe165033	-0.14679031
63	0xbe09c2af	-0.13453172
64	0x3d803f6c	0.06262097
65	0xbd4469bc	-0.0479524
66	0xbcc5f7e0	-0.024166048
67	0xbe0000b1	-0.12500264
68	0xbbae9078	-0.0053272806
69	0xbe04fdf1	-0.12987496
70	0xbde5006c	-0.11181721
71	0xbbd5c564	-0.006523775
72	0xbd97635f	-0.073920004
73	0xbde194ac	-0.11014685
74	0x3dfc0238	0.12305111
75	0xbe05e8eb	-0.13077132
76	0x3cb5f94e	0.022213604
77	0xbe06bb79	-0.13157453
78	0x3e06656c	0.13124627
79	0xbdc1114f	-0.094271295
80	0x3d86c4b2	0.065804854
81	0xbd96fef9	-0.07372851
82	0xbd8eb354	-0.06967798
83	0x3de68251	0.11255325
84	0x3c3e258f	0.011605634
85	0xbdac3504	-0.084085494
86	0xbdeb5adc	-0.114919394
87	0xbdb07f04	-0.08617976
88	0x3c1cf681	0.0095802555
89	0x3e1a5412	0.15071133
90	0x3d1877a6	0.03722348
91	0xbe32cabc	-0.1746015
92	0xbd5cd7dd	-0.0539168
93	0xbe2c9dc1	-0.16857053
94	0xbc66dcec	-0.014090758
95	0x3ca73564	0.0204112
96	0xbdaebef0	-0.08532512
97	0xbe04bb95	-0.12962182
98	0x3d358c85	0.044323463
99	0x3e0724df	0.13197659
100	0xbdcaf3f9	-0.09909815
101	0xbda0a3e1	-0.078437574
102	0xbc969540	-0.018381715
103	0x3d71819e	0.058961503
104	0x3d1b9799	0.03798637
105	0x3c6557a0	0.013997942
106	0x3c4d206d	0.012519938
107	0x3d9dd757	0.077070884
108	0x3e2d303a	0.16912928
109	0x3e088a15	0.13333924
110	0xbdcdb5ee	-0.10044466
111	0x3d846e49	0.06466348
112	0xbe1f9e6a	-0.15587774
113	0xbe0f9f6d	-0.1402566
114	0xbcafce95	-0.02146081
115	0x3de944c3	0.113900684
116	0xbe0231a5	-0.1271425
117	0xbd2b52eb	-0.041827124
118	0xbb82fffb	-0.0039978004
119	0x3d3e957a	0.04652927
120	0x3e2d10e5	0.16900976
121	0xbdc0ea8b	-0.094197355
122	0xbe2792b8	-0.16364563
123	0xbc0c8252	-0.008575993
124	0x3cc1c80b	0.023654958
125	0xbdc56405	-0.09638218
126	0xbd4afd07	-0.049557712
127	0xbd347170	-0.044053495
128	0x3d81fcf8	0.06347078
129	0xbd0407c3	-0.032233965
130	0x3dbe6dd3	0.09298291
131	0xbe0658d3	-0.13119821
132	0xbe0e6889	-0.13907064
133	0x3c9d455a	0.019198108
134	0xbde524f1	-0.11188687
135	0x3d90ba7b	0.07066818
136	0x3db8b636	0.09019129
137	0xbe05420b	-0.13013475
138	0x3b7c2db0	0.003847938
139	0xbe074d75	-0.13213141
140	0xbe20b057	-0.15692268
141	0xbdcb27a8	-0.09919673
142	0xbd0bc918	-0.034127325
143	0xbc6eda1f	-0.014578371
144	0xbd1069a1	-0.035256986
145	0xbdea83bb	-0.11450907
146	0xba824f6c	-0.0009941882
147	0x3db2d777	0.08732503
148	0x3e00e5f9	0.12587728
149	0x3d9fa44c	0.07795009
150	0x3d8b64d9	0.068063445
151	0x3ddd8eb9	0.10818238
152	0x3d454804	0.048164383
153	0x3db6a09d	0.08917353
154	0x3cc895c2	0.024485473
155	0xbddfb6e6	-0.10923557
156	0xbe1ef27d	-0.1552219
157	0x3e070fb5	0.13189586
158	0xbe28eb4b	-0.16496007
159	0x3e22ca88	0.15897572
160	0xbc1f1fe7	-0.009712196
161	0xbdcf98cb	-0.10136565
162	0x3ddf1c00	0.108940125
163	0x3e011ecf	0.12609409
164	0x3e1bf1c1	0.1522894
165	0x3e1a4465	0.15065153
166	0x3df949b2	0.121722594
167	0xbe19d6fa	-0.15023413
168	0xbc83a3a8	-0.016069248
169	0xbdfd3fd6	-0.12365691
170	0x3cdc1dff	0.026869772
171	0xbd4b9d02	-0.04971028
172	0x3d3c1a45	0.04592349
173	0x3ba30f24	0.00497617
174	0xbd465f7c	-0.048430905
175	0x3df57f51	0.11987174
176	0xbd8ba0a3	-0.068177484
177	0x3d0e63a4	0.034762993
178	0xbe1106b4	-0.14162713
179	0xbb8ee00b	-0.004360204
180	0xbbb8019a	-0.0056154253
181	0x3d750d6b	0.05982725
182	0x3d14070a	0.036139525
183	0x3cf44a3c	0.029820554
184	0x3e1f10fb	0.15533821
185	0xbe1cbbe2	-0.15306047
186	0x3c4d3014	0.01252367
187	0xbd6100d5	-0.054932434
188	0xbe30392f	-0.17209314
189	0x3d7a9773	0.06117959
190	0x3db6495d	0.08900712
191	0xbcd1d0e9	-0.025612311
192	0x3e1a140d	0.15046711
193	0xbe1d37cb	-0.15353315
194	0xbd83488e	-0.06410323
195	0xbde82281	-0.11334706
196	0x3d692fd9	0.056930397
197	0xbd04a571	-0.03238434
198	0xbdfa344e	-0.122170076
199	0x3d884833	0.06654396
200	0x3d716757	0.058936443
201	0xbdf594a7	-0.11991244
202	0xbd4a7504	-0.049428
203	0x3d3fd6e6	0.046835802
204	0xbddea8de	-0.108720526
205	0xbe2a76ce	-0.16646883
206	0x3e231c6b	0.1592881
207	0xbe15f865	-0.14645536
208	0x3d8ca6b2	0.06867732
209	0x3dbb78cc	0.091538996
210	0xbdd9e507	-0.106393866
211	0x3ca008a9	0.01953538
212	0x3d4b7b31	0.04967803
213	0xbe0bef9a	-0.1366562
214	0x3d97c056	0.07409732
215	0xbd175387	-0.036944892
216	0x3d67dc4a	0.05660657
217	0xbd7983aa	-0.06091658
218	0xbe1fb6ec	-0.15597123
219	0x3c0d1354	0.008610565
220	0x3cc5f871	0.024166318
221	0x3d5d5f7b	0.054046135
222	0x3dd1afe7	0.10238629
223	0x3cf776f9	0.030208098
224	0x3d9ee5d4	0.0775868
225	0xbdf3ee69	-0.119107075
226	0xbde73d2d	-0.11290965
227	0xbdf6f29c	-0.12057993
228	0xbdf3209f	-0.11871456
229	0x3db6cab7	0.089253835
230	0xbe30cdb4	-0.1726597
231	0xbde0ea56	-0.10982196
232	0xbdcd1914	-0.10014549
233	0xbda86c7e	-0.08223818
234	0x3d9d3e4b	0.07677897
235	0xbda1b849	-0.07896478
236	0xbbdf6d32	-0.006818437
237	0x3e1f0f6e	0.1553323
238	0x3e063bec	0.13108796
239	0xbd06b852	-0.032890625
240	0xbdd1c9e4	-0.10243586
241	0xbd4d0f67	-0.050063517
242	0x3e18cebf	0.14922617
243	0x3d62c5b2	0.05536432
244	0x3dbd70ac	0.09250006
245	0x3d86097d	0.065447785
246	0x3dd84e8e	0.10561858
247	0xbd32afc6	-0.043624662
248	0x3d4f2e4a	0.050581254
249	0x3df4919e	0.11941837
250	0x3dde8323	0.10864856
251	0xbdd268e6	-0.10273914
252	0xbd6085ef	-0.05481523
253	0xbc96cfd4	-0.018409647
254	0xbdd32f46	-0.10311751
255	0x3d85bae4	0.06529787

_func._diffusion._model.0.bias f4 [128]
0	0xbe08606e	-0.13318035
1	0x3dd63cdd	0.104608275
2	0x3daab44f	0.083351724
3	0x3dbd2c29	0.092369385
4	0xbaba2d6e	-0.0014204213
5	0xbcac4ad0	-0.021031767
6	0x3e105238	0.14093864
7	0xbe21f6b7	-0.1581677
8	0xbe3621f7	-0.17786394
9	0xbe054504	-0.13014609
10	0xbe2ab86e	-0.16671917
11	0x3d882c8f	0.06649124
12	0x3d8feffa	0.07028194
13	0x3e38e0b3	0.18054466
14	0x3db3388e	0.08751021
15	0x3ddeb9d4	0.10875288
16	0x3e211646	0.15731153
17	0x3df93489	0.121682234
18	0x3da97364	0.08273962
19	0xbe1df57b	-0.15425675
20	0xbd107a31	-0.03527278
21	0xbd7cccb8	-0.061718673
22	0xbce15f24	-0.027511187
23	0x3e03f181	0.12885095
24	0xbd046b38	-0.032328814
25	0x3df7bd7a	0.12096687
26	0x3e0d9821	0.13827564
27	0xbe37cdce	-0.17949602
28	0xbd888b6a	-0.06667216
29	0xbd9109de	-0.0708196
30	0x3dc10b57	0.09425991
31	0x3df88831	0.121353514
32	0xbe22b743	-0.15890221
33	0x3cba7774	0.022762038
34	0xbd1f32e1	-0.03886688
35	0x3df09730	0.11747587
36	0x3e297247	0.165475
37	0x3dbbe518	0.091745555
38	0x3e0ab8c0	0.13547039
39	0x3d5e3119	0.054246042
40	0xbdafcc0e	-0.08583842
41	0xbbb5aa52	-0.0055439854
42	0x3ca6be48	0.020354405
43	0x3c93b36f	0.018029897
44	0x3e159718	0.14608419
45	0xbdca2ab2	-0.09871425
46	0x3dd69420	0.10477471
47	0x3dcfd7b1	0.10148562
48	0x3d7b6e32	0.061384387
49	0x3df84812	0.12123121
50	0x3d9125f8	0.0708732
51	0x3e24433d	0.16041274
52	0x3bedb733	0.007254505
53	0xbc4f3397	-0.012646577
54	0x3e2908c8	0.16507256
55	0xbde7a021	-0.11309839
56	0xbd161503	-0.036641132
57	0xbe00be8d	-0.1257269
58	0xbd958cd3	-0.07302251
59	0xbd0ad4e8	-0.03389445
60	0xbe050009	-0.12988295
61	0xbe0f5c41	-0.14000036
62	0xbdd4af8f	-0.10385048
63	0x3e25e3b4	0.16200143
64	0x3ddbd566	0.10734062
65	0xbdf9f366	-0.12204628
66	0xbe128063	-0.14306788
67	0x3ccbd5f4	0.024882294
68	0x3e2d9eee	0.16955158
69	0x3d20cc42	0.039257295
70	0xbe1a455b	-0.1506552
71	0x3cc22e97	0.023703856
72	0x3c029944	0.007971112
73	0x3c98055c	0.018557243
74	0x3df20198	0.1181671
75	0xbd633f5b	-0.055480342
76	0x3dabfd60	0.08397937
77	0x3e0c9e6d	0.1373231
78	0xbd76b964	-0.060235396
79	0x3d2008ee	0.039071016
80	0xbd9a5824	-0.07536343
81	0x3dd995bc	0.10624263
82	0xbe24da8d	-0.16098996
83	0x3bac6b1a	0.005261791
84	0xbd08527b	-0.033281785
85	0xbe0fadc6	-0.14031133
86	0x3dd40fdd	0.10354588
87	0x3d8db0b8	0.06918472
88	0x3d904383	0.07044127
89	0xbac34626	-0.0014898225
90	0x3e166ba5	0.146895
91	0xbd999d1b	-0.075006686
92	0x3b00326b	0.0019561301
93	0x3c98e57a	0.01866411
94	0x3d820379	0.063483186
95	0x3bae2f90	0.0053157285
96	0x3ddcac00	0.10774994
97	0xbd0fecb2	-0.03513784
98	0x3dc9a73c	0.098463506
99	0xbe10b431	-0.14131238
100	0xbe06250d	-0.13100071
101	0x3de8fcbe	0.11376332
102	0x3e15ebb0	0.14640689
103	0xbdba5db8	-0.09099907
104	0x3d415d73	0.04720826
105	0xbce05d14	-0.027388133
106	0xbd2b6b63	-0.04185046
107	0xbc7ba812	-0.015359895
108	0x3e24275c	0.1603064
109	0xbdab32a7	-0.083592705
110	0xbd98ed51	-0.074671395
111	0x3e09f928	0.13473952
112	0xbd8010a4	-0.06253174
113	0x3cef77f9	0.029232012
114	0xbdfce3c7	-0.123481326
115	0x3cb52a43	0.022114879
116	0x3c13eec0	0.00902909
117	0x3d9a45ad	0.07532821
118	0x3e1c7e08	0.15282452
119	0xbd8b0d43	-0.06789639
120	0x3dca183b	0.09867903
121	0x3d491a8e	0.04909759
122	0x3a801402	0.0009771588
123	0x3e10191c	0.14072078
124	0xbe007768	-0.1254555
125	0xbd68562a	-0.056722797
126	0x3c31e245	0.0108571695
127	0xbd1b1d2c	-0.037869617
