saved_models/sde/sde_dis_ERCOT_tws.pt (torch, 869636 bytes, 9 tensors)

model.1._model.0.weight f4 [256, 72]
000000 89 b3 cb 3d 3d ae 94 3d 8d ef a0 bd fa 16 61 bd
       0.09946353 0.07259796 -0.07858191 -0.054953553
000010 79 f1 e2 bc 32 de 85 bd 65 65 b2 bd c4 b9 af 3d
       -0.027703034 -0.06536521 -0.08710746 0.08580354
000020 8e 66 00 bd eb d8 1c be 17 67 fe 3d 7b df 46 3d
       -0.031347804 -0.15317123 0.124220066 0.04855297
000030 d5 8c dc bd dc 16 48 bd e8 40 33 bd 2a f0 69 3c
       -0.10769049 -0.048849925 -0.04376307 0.014278451
000040 53 26 db 3b 70 1f de bc ea e5 d6 bd 44 9e f4 bc
       0.006687918 -0.0271146 -0.104930714 -0.029860623
000050 ad 7a 86 3d 47 31 80 bd 62 80 ce 3c 89 17 c8 3d
       0.06566367 -0.06259399 0.025207702 0.09770114
000060 fe 39 b9 3c 03 79 8b 3d 33 a7 89 3c ed 5e 8d 3d
       0.02261066 0.068101905 0.01680336 0.06902871
000070 8b 8f b3 3c 54 d7 1f 3c a3 28 99 3d f0 60 1e 3d
       0.021919033 0.009755928 0.07478454 0.038666666
000080 ba 82 0b bd 1a 96 52 3d 4f 45 fb bd 64 d6 6a 3d
       -0.034060217 0.05141268 -0.12269079 0.057333365
000090 48 ce 1b 3d 0c a8 af bd 73 2e 13 bd c7 4d cb bd
       0.038038522 -0.08576974 -0.03593297 -0.09926944
0000a0 19 66 17 3d 99 09 c5 3b a9 48 ba 3c de 72 12 bd
       0.036962602 0.006013107 0.022739725 -0.035754077
0000b0 9d c7 91 bd 82 da 24 3d 2d 5d 82 bd 33 17 70 bc
       -0.07118151 0.040247448 -0.06365428 -0.014653969
0000c0 19 ad ca 3d b3 46 e7 3d 6f 17 03 3d ae 5e 60 3d
       0.09896297 0.11292782 0.03200477 0.054777794
0000d0 78 f8 52 3d a6 10 cc 3d 1d 9a b8 bc af 67 5b 3d
       0.05150649 0.09964113 -0.022534424 0.053565677
0000e0 f9 09 be 3d 89 74 d4 bd ad c7 93 3c cd ac 7f 3d
       0.09279246 -0.1037379 0.018039549 0.062420655
0000f0 83 40 81 bd 5e 7f d4 3a 29 e8 48 3c c0 2d bb bd
       -0.06311133 0.0016212275 0.012262383 -0.091395855
000100 4f 46 82 bd 96 24 74 3d 18 68 89 bb 93 89 9c bb
       -0.063610666 0.059605204 -0.004193317 -0.0047771423
000110 14 d2 04 bd 4e c7 8a 3d 26 02 f2 3d 79 61 97 bd
       -0.03242691 0.067762956 0.11816816 -0.07391638
000120 06 ba a8 3d d5 e4 55 3d 39 90 ad 3c e9 63 9d bc
       0.08238606 0.052220184 0.021186935 -0.01921268
000130 a7 d9 57 bc 1f 74 72 3c 84 8e c8 bd 26 c9 4c 3d
       -0.013174451 0.014798193 -0.09792808 0.049996518
000140 73 23 a4 bc 1e c7 14 be 76 b5 57 3d 32 5b f6 bb
       -0.020036435 -0.14529082 0.05266329 -0.0075181955
000150 9d 1c a1 bd 1a d1 4f bc 6c b3 14 bb ae ba 49 bd
       -0.07866786 -0.012684131 -0.0022689952 -0.049250297
000160 54 bd 80 bc d1 12 2a bd bf ea 4b 3d 77 e9 3e 3d
       -0.015715279 -0.04152185 0.04978442 0.04660937
000170 eb 31 84 be 3f 5e 08 bd ce 19 c3 3c 9d ee fb bd
       -0.25819334 -0.033293005 0.023816016 -0.12301371
000180 b3 20 e7 bb e4 b8 42 bd ab a5 bb bd 5f 83 dd 3b
       -0.0070534586 -0.047539607 -0.09162458 0.0067600454
000190 50 6f 9e bc 09 26 88 bc 82 b1 73 3d f1 5c 9e bc
       -0.019340187 -0.0166197 0.059495457 -0.019331427
0001a0 f7 12 b7 3d 57 87 9e 3c 32 51 91 bc 70 e3 83 3c
       0.08939164 0.019351644 -0.017738912 0.016099662
0001b0 e2 ab fb bc 8a 04 8a 3d 1a c1 6d bd 7d c6 d2 bd
       -0.030721609 0.06739147 -0.058045484 -0.10291765
0001c0 e7 64 97 bd df f9 84 3d d7 df 0e be 0a 83 55 bd
       -0.073922925 0.06492972 -0.13952576 -0.05212692
0001d0 6a 1a eb bc 21 18 a1 bd 9d 86 03 3a fc 49 6f 3d
       -0.028699119 -0.0786593 0.00050173124 0.058420166
0001e0 a6 2a 71 3d ee 31 af 3d de d6 51 3d d4 b8 b2 3d
       0.058878563 0.08554445 0.051230304 0.087266594
0001f0 2c 55 62 3d c8 c0 5a 3c 58 3e d9 3c 25 b2 07 bd
       0.055257007 0.013351627 0.026518986 -0.033128876
000200 25 30 b9 3c 4b e4 92 3d 5e d0 d8 3c d2 75 89 bd
       0.022605965 0.0717245 0.026466545 -0.067119256
000210 a4 d4 53 bd 16 38 3f bd 8c 97 e5 bc 4c 70 bb 3d
       -0.05171646 -0.046684347 -0.028026365 0.09152278
000220 db 73 a6 bd 95 fa 3f 3c 33 d9 1d 3d df 4d f1 3c
       -0.081275664 0.011717458 0.038537215 0.029456077
000230 9b ad 4c 3b 4d 31 4c 3e 6b 90 20 3c a5 c4 3e bb
       0.0031231407 0.19940682 0.009800057 -0.0029108908
000240 8c 3b dc 3d d4 37 08 3b a6 58 08 3d 06 d8 46 3c
       0.10753545 0.002078523 0.033287667 0.012136465
000250 37 dd 72 3b 45 bb df 3c 80 c5 8f 3d d1 d4 9e bd
       0.0037058124 0.027310977 0.07020092 -0.07755435
000260 d5 9a 9f bd a9 de a0 bd a7 b9 09 3d cf 27 2b 3d
       -0.07793204 -0.07854969 0.033624317 0.04178601
000270 7c cf bf bd de 4c 4b bd f1 51 01 3d f5 da ac bd
       -0.093657464 -0.049633853 0.031572286 -0.084402
000280 22 e0 8e bd 32 88 bb 3c 65 ef 26 3d 18 d0 82 3d
       -0.06976344 0.022892091 0.04075565 0.06387347
000290 85 86 35 3e 73 e9 32 3d 49 2b 0f 3e 4e 80 9a 3d
       0.17727096 0.043679666 0.13981356 0.075440034
0002a0 4a cf 64 bd 63 f2 76 bc 12 a0 34 bd 8a dc d9 3d
       -0.05586175 -0.015072438 -0.044097967 0.106377676
0002b0 09 05 f2 bd 12 29 cb bd 1c 48 00 3d 5f ba 75 3d
       -0.11817367 -0.09919943 0.03131877 0.05999219
0002c0 62 36 82 3d 94 4e 55 bd 60 5a 93 3d d6 2c 7b bc
       0.06358029 -0.05207689 0.07194972 -0.015330514
0002d0 96 db 9b 3c d1 45 c5 bd 02 69 fa bd 78 fa b2 3d
       0.019025605 -0.09632457 -0.1222706 0.087391794
0002e0 67 b1 de bc 97 f6 52 3d 3e b4 35 bd 4f 93 37 3d
       -0.027184201 0.051504698 -0.044361345 0.04481822
0002f0 b4 66 9c bc 85 24 5a 3d 75 46 24 3b 93 05 d0 bd
       -0.019091941 0.053257484 0.002506641 -0.10157313
000300 39 c1 fc 3c cb 3b 9f bb 03 c3 72 3c 42 21 c1 bd
       0.030853854 -0.004859423 0.014817002 -0.094301715
000310 91 4f 55 3d 11 8e 58 bd 90 22 94 bd ee d5 0e 3d
       0.052077834 -0.05286986 -0.07233155 0.034871988
000320 5c 41 0b be 84 29 84 3c 37 c2 d4 3d c4 29 fd bd
       -0.13599151 0.016133077 0.10388606 -0.12361482
000330 7f 29 65 bd 50 a0 fc 3c a6 17 0c bd e0 ae 32 3c
       -0.055947777 0.030838162 -0.03420224 0.010905951
000340 42 f7 05 bb 10 d2 b8 bc 8e 0a 3f bd d5 65 ce 3d
       -0.0020441567 -0.022561103 -0.046640925 0.10078017
000350 b1 2e 19 3b 74 57 8b 3c 50 c7 5b 3d 6a 11 a6 bd
       0.0023373778 0.017009474 0.053656876 -0.0810879
000360 e8 8f ec bd 13 66 cc 3d 39 0e b7 bd 60 ce 11 bc
       -0.115508854 0.099804066 -0.0893826 -0.008899301
000370 14 69 a3 3d 51 d0 42 3c c6 22 81 3d 28 a2 d5 3d
       0.079790264 0.011890487 0.06305461 0.104313195
000380 dc 37 58 3d 12 62 54 bd d8 9d 33 3d 1d 60 f8 bc
       0.052787647 -0.05185134 0.043851703 -0.030319268
000390 b3 c5 50 3d 8f dc 77 bd 66 e0 76 3d 9a f6 a1 3d
       0.05096979 -0.060513075 0.060272597 0.07908364
0003a0 23 8b d4 bb c6 d6 83 3d 5d 12 00 3e ba 4d 90 3d
       -0.006486313 0.06437449 0.12507005 0.07046075
0003b0 15 f8 9f 3d af 93 b0 bd 51 09 7d bd 49 f7 64 3d
       0.0781099 -0.086219184 -0.061776463 0.055899892
0003c0 c9 62 1c bd d8 c1 ad bd 5c 58 4b 3c 05 df 18 3d
       -0.038180146 -0.084842384 0.012411203 0.037322063
0003d0 0a 01 c6 3d d6 1c 93 3d e7 6c c3 3b 74 cd 82 3d
       0.09668167 0.071832344 0.00596391 0.06386843
0003e0 5a 9a 0f 3c 9a eb af 3c 47 82 b6 3d 01 b6 a1 bc
       0.008764828 0.021474648 0.08911567 -0.019740107
0003f0 fe 3a cb bc 79 bc 2f 3d c8 3f c1 bb e7 12 d4 3c
       -0.024808403 0.04290435 -0.005897496 0.02588792

model.1._model.0.bias f4 [256]
000000 2a b1 08 be 70 13 a9 bd a8 6a 35 3e 3b ad d0 3c
       -0.13348833 -0.082556605 0.17716467 0.025473228
000010 82 2f 7e 3e 68 59 86 be 63 bd 04 3e ef b2 b7 be
       0.2482281 -0.26240087 0.1296287 -0.35878703
000020 15 0a 2f 3e 59 37 80 bc 01 ba 2d bd ac 47 c3 bd
       0.1709369 -0.015651392 -0.042413715 -0.09535155
000030 d8 e3 ef bd f6 95 4c be c3 58 18 3c 23 15 b0 ba
       -0.117133796 -0.1997908 0.009298506 -0.0013434034
000040 3c 6f cf 3d ec a0 a2 bd a9 84 be 3d 30 2f 0c bd
       0.10128638 -0.0794085 0.09302647 -0.03422469
000050 90 2c e9 bd 20 d2 e0 bc b2 dd 33 be 5d 14 94 bd
       -0.11385453 -0.027443945 -0.17565039 -0.072304465
000060 73 e4 8b bd 5f 47 8e 3e eb b1 06 3e 0d 61 95 3e
       -0.068306826 0.27788827 0.13153808 0.29175606
000070 63 73 48 bd e9 bc 17 bc d4 a9 52 bd 94 5d b2 bd
       -0.048938166 -0.009261348 -0.051431492 -0.08709255
000080 9b 3e 81 bb 81 ef 70 3e 36 62 16 3e 91 fe cd bc
       -0.0039442307 0.23528863 0.14685902 -0.0251458
000090 c5 00 3b 3e 23 e2 42 3d b5 86 f8 bd 4d 41 d3 bd
       0.18262012 0.047578942 -0.12135068 -0.103151895
0000a0 6d 99 9e 3d a4 1c 1d 3d 1d 6e 92 bd 42 65 31 3e
       0.077441074 0.038357392 -0.07149909 0.17323783
0000b0 0d ff 1f be 8c dd df 3d ac d3 2d 3e 55 d8 4e be
       -0.15624638 0.109309286 0.16975278 -0.20199712
0000c0 27 09 b9 bd 90 aa fe bd 8a cb 52 3d df fa 8f 3e
       -0.09034949 -0.12434876 0.05146364 0.28121087
0000d0 25 cf 75 bd 87 7b 6f 3e 82 2e 3f be 38 b5 ee bc
       -0.060012 0.23386966 -0.18670085 -0.029139146
0000e0 90 f6 84 3e a3 70 75 3c 2e 37 3b bd 0b bb 6d 3e
       0.25969362 0.014980468 -0.04570692 0.23215882
0000f0 da d4 9f 3e ac 73 c8 bd da cc 83 3c a1 fd 2c bd
       0.3121708 -0.09787688 0.016088892 -0.042234067
000100 9a 86 f6 bc ad 19 3f 3e cb a7 42 be 2c 07 25 be
       -0.03009348 0.18662138 -0.1900932 -0.16116017
000110 bd 5e 88 bd 3c 98 01 3e b8 e6 a3 3b 6f 8d ea 3d
       -0.06658695 0.12655729 0.005001869 0.114527576
000120 22 29 68 bd c6 61 83 3e 97 0c 0a 3e bb 51 0e 3e
       -0.056679852 0.25660533 0.13481365 0.13898365
000130 42 44 89 3e 02 da 2f 3c 8b 2f 04 be 8d 95 f8 bc
       0.2680989 0.010733129 -0.12908761 -0.030344749
000140 1e c1 1f be 25 d1 50 3d f1 90 39 be ec 3a 71 3d
       -0.15601012 0.050980706 -0.18121697 0.058894083
000150 6f 44 2b bd 4f 9e 07 be 3d e4 5d 3e 51 b0 f8 bd
       -0.04181331 -0.13243984 0.21669097 -0.12143005
000160 d6 72 1f 3e e3 56 21 3e de 34 38 3e 9a 1a 79 3d
       0.1557115 0.15755801 0.17988917 0.060816385
000170 68 55 ab 3e 2f 6f 82 3d ee 82 1e 3e 36 f2 aa bd
       0.33463597 0.06368863 0.15479633 -0.08346979
000180 dd 67 ae bd 76 c1 e8 bd 45 36 c3 bd 84 8d f6 bc
       -0.08515904 -0.11365025 -0.095318355 -0.030096777
000190 71 48 ba bb 63 9d 83 3d 6d e4 8c 3d 2a 9d a7 bd
       -0.005684905 0.064265035 0.06879506 -0.081842735
0001a0 6b 2e 37 bd 1c cd 96 3e 00 ee 6a be dc 6f 01 3d
       -0.044722002 0.2945336 -0.22942352 0.031600818
0001b0 33 32 74 3c 81 21 31 3e 83 b1 ec bd de a3 1a 3e
       0.014904547 0.17297937 -0.11557295 0.15101573
0001c0 2a be cb bd e0 f2 88 bd 14 27 cd bd bb 05 9e bd
       -0.0994838 -0.0668695 -0.10017219 -0.07715937
0001d0 79 94 61 be 80 69 9e 3c 8a 92 c6 3d 5f 36 11 be
       -0.22029294 0.019337416 0.09695919 -0.14180897
0001e0 74 fb 60 be cf 1f dd 3c 14 8b 35 bc 48 ce cc 3d
       -0.21970922 0.026992707 -0.011080522 0.100002825
0001f0 1b 59 f8 3c 6c 36 9a 3e de 10 2b 3e c6 e3 c9 3d
       0.030315926 0.30119646 0.16705653 0.098578975
000200 0b a0 f1 3d 18 fc 30 3e 2d 05 d8 bd c9 22 51 3e
       0.11798104 0.17283666 -0.10547862 0.20423426
000210 a5 fe 17 3d e3 99 ee 3d a9 6e 99 bb 61 3a 09 3e
       0.037108082 0.11650445 -0.004682381 0.13401176
000220 df 05 49 3e c5 4a 43 3e 99 5a 3d be e9 ec 87 3d
       0.19631146 0.19071491 -0.18491592 0.06636984
000230 80 16 ec bd 9b c8 1d 3e 62 74 68 be 65 2a 78 3e
       -0.11527729 0.15408556 -0.22700647 0.24234922
000240 e4 bf dd bd 74 44 47 b9 41 90 86 3e 05 93 f8 bc
       -0.10827616 -0.0001900362 0.26281932 -0.030343542
000250 24 41 56 3e b3 1c 5e 3d 99 16 51 be 63 e5 61 3e
       0.20923287 0.05422659 -0.20418777 0.2206016
000260 86 e8 28 3e 8b 1f 0a be e4 af 65 3e 21 db aa bc
       0.1649495 -0.13488595 0.22430378 -0.020856442
000270 29 e9 3d be bd d8 05 3e 81 c2 54 3e 86 c9 58 be
       -0.18545975 0.1307096 0.20777322 -0.21170625
000280 34 07 d8 3c a4 63 07 3c fe 64 37 3e 1b 61 99 3d
       0.026370622 0.008263502 0.17909619 0.074892245
000290 86 c9 1a bc 8f c8 03 3e c9 41 89 3e 7a b2 28 3e
       -0.009447461 0.12869476 0.26808003 0.16474333
0002a0 1c b6 4f 3c 75 0f 57 3e 23 45 9b 3e e2 07 a0 3d
       0.012677696 0.2100199 0.30326185 0.078140035
0002b0 58 d3 05 3e 44 4a 17 be 04 42 f5 bd 47 25 a1 be
       0.13068902 -0.14774424 -0.11975482 -0.31473753
0002c0 e9 dd c9 3d 73 36 4c bc c0 b5 2d be ea bb 21 be
       0.09856779 -0.012464154 -0.16963863 -0.1579434
0002d0 30 dd a6 3d 32 b6 d0 3d 07 95 8f 3e d8 5a 12 bd
       0.08147657 0.10191001 0.28043386 -0.035731167
0002e0 51 f4 6f 3e 8f dc 9e bd 7b be 28 be c8 89 4a be
       0.23433043 -0.07756912 -0.16478913 -0.19779122
0002f0 0c 40 0c bc 3c 2b ff 3d 2d 7e ac 3e a7 fb 5e bd
       -0.008560192 0.12459418 0.33690014 -0.054439213
000300 f3 10 5a bd e2 73 cf 3c 7a 00 0c 3e a9 08 f2 3c
       -0.05323882 0.025323812 0.13672057 0.029545145
000310 15 a7 58 3e a3 d5 3c be b6 19 53 3e 68 9b 4f be
       0.21157487 -0.18440871 0.20615277 -0.20274127
000320 42 40 40 be 55 07 b0 3d f4 f0 22 be a8 ff b7 3d
       -0.18774512 0.085951485 -0.15912229 0.089843094
000330 da 1c 61 be 39 69 0e 3e 1d 15 30 bd 97 e0 6c be
       -0.21983662 0.13907327 -0.042988885 -0.23132549
000340 5a 29 1b 3e 51 b1 2d 3e 67 73 b0 3d c8 ef c9 3d
       0.15152493 0.16962172 0.08615761 0.09860188
000350 ed d2 79 3c bc 8c 27 be c0 05 0b 3e e3 7b 57 3e
       0.0152480425 -0.1636228 0.13576412 0.21043353
000360 fd 78 3d 3e 2d 86 34 3d b1 6e 7a 3e e2 45 25 3d
       0.18503185 0.044073272 0.24456288 0.04034985
000370 3a b3 a6 3e 39 47 29 3e 06 24 03 be 8e 03 61 3e
       0.32558614 0.16531076 -0.1280671 0.21974012
000380 54 e8 5b bd c7 d3 9e 3e 95 eb 3a 3e 87 49 45 be
       -0.053688362 0.31020948 0.1825393 -0.1926633
000390 9c 67 7d be aa c3 31 bd 0e e8 77 3e 44 28 ce 3c
       -0.24746555 -0.04339949 0.24209616 0.025165685
0003a0 9e 4f 6d be fd 20 79 3e 83 e2 e3 3a da ea 18 3e
       -0.23174903 0.2432899 0.0017386231 0.14933339
0003b0 33 f4 1a 3e 6c e2 73 3e 1b 22 94 bd 3f a7 df bd
       0.15132217 0.23816842 -0.072330676 -0.109205715
0003c0 4f 59 51 bd 65 58 14 3e 8b 45 3d bc b4 1d af 3d
       -0.051110562 0.14486845 -0.011552225 0.08550587
0003d0 be da 9f 3d 4b da 88 3d 30 91 5d bd 21 68 5c 3d
       0.07805394 0.06682261 -0.05409354 0.053810243
0003e0 2d 8a c8 bd cb 73 29 be ca d9 67 3c 8a bd 19 ba
       -0.0979198 -0.16548078 0.014151046 -0.00058647303
0003f0 d8 8c 12 be 7a f9 06 3e 07 7e 26 3d fb f1 61 3e
       -0.1431154 0.13181105 0.040647533 0.22064964

model.1._model.2.weight f4 [256, 256]
000000 67 d7 db bb 1a cd a5 3d 5e a7 55 bd 80 36 d5 3b
       -0.0067090276 0.08095761 -0.052161567 0.006506741
000010 47 5b 7c bd c5 ea 83 bd 50 78 e0 3c 79 af 01 be
       -0.061610486 -0.06441263 0.02740112 -0.12664594
000020 fe 0d 20 3d e4 25 14 bc 54 0f ae bc f6 bd 68 3c
       0.039075844 -0.009042237 -0.021247543 0.0142054465
000030 40 f7 a2 3d 79 da 0f 3c 44 57 fc 3c 05 eb 3c 3d
       0.079573154 0.008780115 0.03080333 0.04612257
000040 6f 14 23 bd fa 3d 6b 3d 6e c4 42 38 0b 43 73 3d
       -0.03981441 0.057432152 4.6436144e-05 0.05939011
000050 70 43 ac bd da cb 49 bc b0 b8 32 bd 5b 31 e7 3b
       -0.084113 -0.012316668 -0.043633163 0.007055444
000060 44 93 0f bc 44 31 6f bd 53 cc 0c bd 71 3b f3 3c
       -0.008763138 -0.058396593 -0.034374546 0.02969143
000070 43 79 63 3d 2a 0e fc bc 1d 57 b2 3c 6f 83 be bd
       0.055535566 -0.030768473 0.021770054 -0.09302413
000080 0e bd 17 bd c6 a3 6d bd 68 6b c4 3d 2c a1 85 3c
       -0.03704553 -0.058017515 0.095907986 0.016312204
000090 e9 fe 82 bd 8c 88 82 bd 41 d4 db bc 01 55 84 bd
       -0.063962765 -0.063737005 -0.026834609 -0.06461526
0000a0 de c0 5f 3d 95 f3 28 bd 5f d7 ca 3c 47 f7 fa bc
       0.05462729 -0.041247923 0.0247609 -0.03063549
0000b0 44 3f 8f bd ac 02 32 bd 8e 08 18 bd e6 d2 6b 3a
       -0.06994489 -0.04345958 -0.037117533 0.0008995965
0000c0 e3 4a 0b bd df 12 3d bd 73 d6 7d 3d 44 44 2f 3d
       -0.034006964 -0.046160575 0.061972093 0.042789713
0000d0 ab d8 11 3b 80 10 73 bd f0 3f 9f 3d 7e 9f 88 bd
       0.0022254388 -0.059341908 0.07775867 -0.06671046
0000e0 79 30 7a bc 59 7c f8 bc 21 88 35 bd 68 4c d8 ba
       -0.015270346 -0.030332731 -0.044319276 -0.0016502263
0000f0 4b d2 09 bd 91 03 23 bd a2 10 b4 3c 04 5c dc bc
       -0.033647817 -0.039798323 0.021980587 -0.026899345
000100 16 5d 17 bc b6 a4 ae bd 0c fa 62 bb 1a a8 ce bc
       -0.009238502 -0.0852751 -0.0034633903 -0.025226641
000110 89 37 06 bd 05 4d 48 bd fb bb 19 bd 9d 80 8f 3c
       -0.032767806 -0.048901577 -0.037532788 0.017517382
000120 fa 9e 39 bd 72 11 8b 3d 8e 09 3b 3d bd 81 0e bd
       -0.045317627 0.06790437 0.04566341 -0.034791697
000130 14 08 f7 3b c8 c9 17 bc 3c 04 38 3c 38 e6 11 bb
       0.007538805 -0.009264417 0.011231478 -0.0022262465
000140 69 7a ac 3b 9a 7f 0a ba 6c 30 13 bd 42 00 40 bd
       0.005263616 -0.00052832963 -0.03593485 -0.046875246
000150 f6 26 9e ba c2 ce 7c bc 0d 74 20 3d b2 57 90 bc
       -0.0012066055 -0.015430154 0.039173175 -0.017619941
000160 6f 9f 19 bc 60 2d 27 3c 6a 16 21 3c a8 32 f2 3c
       -0.009376391 0.010203689 0.009832004 0.02956517
000170 a0 ff 81 bc 02 55 6e 3d b4 fc 56 bd 36 52 4e bd
       -0.015868962 0.05818654 -0.05248709 -0.05037137
000180 a2 da 84 bd 51 63 9f 3b 24 6c 56 bd 78 ed 91 bd
       -0.064870134 0.0048641344 -0.052349225 -0.07125372
000190 70 7a 59 3d 05 76 66 bd 9d d4 99 3c 89 47 04 bc
       0.05309528 -0.056264896 0.01877814 -0.008073696
0001a0 ba 62 2d 3d 47 69 0f 3d 11 01 3f bd 4f 34 f2 bd
       0.04233048 0.03501251 -0.046631876 -0.11826383
0001b0 12 44 1b bd 3d 06 96 3d 8d 73 1e bd fe c2 3f bd
       -0.037906714 0.073254086 -0.038684417 -0.04681682
0001c0 a8 3e 84 3d 11 9e 0a bd d0 aa 42 bd 98 02 93 3d
       0.06457263 -0.03384215 -0.04752618 0.07178229
0001d0 bb 72 8a bc 6c d8 21 bd f7 be e9 3c f4 69 1d 3d
       -0.01690041 -0.039513037 0.028533442 0.038431123
0001e0 28 27 53 3a e0 b9 a0 bc 40 ff 3b bd 50 cd 90 bc
       0.0008054846 -0.019619882 -0.045897722 -0.017676026
0001f0 a8 bc f0 3c f4 cf 4d bd 91 07 b0 bb 5e 5c be bd
       0.029386833 -0.050247148 -0.0053719957 -0.092949614
000200 30 49 26 bd 44 ce 32 3d cc 19 00 3d da 4c 83 bc
       -0.04059714 0.04365374 0.0312746 -0.016027857
000210 c5 d3 7f 3d b9 46 f7 bc 5f 39 9f bd 04 2d 0f 3d
       0.06245782 -0.03018509 -0.077746145 0.03495504
000220 76 e9 c3 3b 3c 4a 54 3c 85 fe 55 3c 2f 3d 07 3b
       0.0059787584 0.012957152 0.0130611705 0.0020635833
000230 13 e3 4b bc d1 82 c4 3b b8 e9 fc 3c a6 5e 9d 3c
       -0.012444275 0.00599704 0.030873165 0.019210171
000240 81 9c 7e 3d 91 9d 72 3c 11 84 a7 bc cf 4c b0 3c
       0.062160973 0.014808075 -0.020448716 0.021521
000250 d7 9c 4a 3d 40 f3 28 bd 1d 5c 16 bd bb 47 d9 3c
       0.04946598 -0.041247606 -0.03670894 0.026523462
000260 4b 96 ea bc 8e 7e 1e bd 1b 19 17 3d 9d 79 f0 3c
       -0.028636118 -0.03869491 0.036889177 0.029354865
000270 aa d4 0d be af 27 82 bc 24 b6 85 3d 79 71 bc 3d
       -0.13850656 -0.015888063 0.06528881 0.09201331
000280 9b aa 87 bc 75 11 06 bd 12 e7 96 bc 43 00 84 3d
       -0.016560843 -0.032731492 -0.01842073 0.064453624
000290 a3 5f 03 bd 11 61 a9 3c 25 86 34 bc 4d 85 8b 3d
       -0.03207363 0.020676168 -0.011018311 0.068125345
0002a0 7f fa fc bc c6 24 53 bd 69 13 3e 3b 35 13 6a 3d
       -0.030881165 -0.05154874 0.0029003269 0.057147224
0002b0 97 2a e7 3d 52 6c 82 3c 68 0b 98 bd b0 ba b2 3c
       0.1128742 0.015920792 -0.074240506 0.021817535
0002c0 22 f4 1e bc ca 49 19 bd b0 37 a7 3c 9d 3d 6e 3d
       -0.0097017605 -0.037423886 0.020412296 0.058164228
0002d0 e1 ba 78 bd 99 3d cb 3c 40 4f a9 bc 08 2f 89 3c
       -0.060725097 0.024809645 -0.020667672 0.016746059
0002e0 59 c0 a8 3c d9 e8 f5 bb de a7 ba ba 83 b9 56 bd
       0.020599531 -0.0075045642 -0.0014240702 -0.05242301
0002f0 a2 10 4e 3d 09 f1 ca bd 1d 03 4e bc 85 54 06 3d
       0.05030883 -0.09909255 -0.012573984 0.032795448
000300 48 22 93 bc 7e 0c 13 3d 42 92 9d bc 1f c2 02 bd
       -0.017960683 0.035900585 -0.01923478 -0.03192341
000310 d9 0c 01 bd 40 31 48 bd 71 3d 70 bd 8a 19 81 bd
       -0.031506393 -0.048875093 -0.058652345 -0.06303699
000320 c2 9b bc bb 38 18 13 bd 7f 3d 7a 3d 21 34 7f bd
       -0.0057558725 -0.03591177 0.061093803 -0.062305573
000330 90 0c 17 3d b1 a8 8b 3d 75 51 89 3d 50 55 0e 3c
       0.036877215 0.06819285 0.0670499 0.008687332
000340 c3 19 4d bd 4c cd e7 3c 8c a7 22 bc be cb 11 bd
       -0.050073396 0.028296135 -0.009927642 -0.035594694
000350 1b 22 c9 bb b4 df 94 3c 60 c3 a2 bc 53 01 3f 3d
       -0.006138099 0.018173076 -0.019868553 0.046632122
000360 7a 1d 0d 3c 64 87 26 3d 80 54 63 bd 6c 9e 89 3c
       0.008612985 0.040656462 -0.055500507 0.016799174
000370 bc 6d 07 3d 48 9a 3c bd 9c 7c 15 bd 11 da 22 3d
       0.033063635 -0.04604557 -0.03649579 0.039758746
000380 ea a5 80 3c ff 98 50 3d 5d 14 4a bd 5c f8 c6 3d
       0.015704114 0.05092716 -0.049335826 0.097153395
000390 cc a2 10 3d 0e e0 99 bc 78 28 bc bb ba f4 dd bc
       0.035311505 -0.018783595 -0.005742129 -0.027094234
0003a0 df d4 84 bd 2c bb 01 bd a7 33 15 ba 5c f9 80 bd
       -0.064859144 -0.03167264 -0.0005691596 -0.062975615
0003b0 c0 49 d1 3c a8 c2 77 bd 37 bf ec 3c 9d 4a 8b 3b
       0.025547862 -0.060488373 0.028899772 0.004250838
0003c0 f1 c4 38 bd fa 75 71 3d e6 40 7a bb 30 3a 7e 3d
       -0.045109693 0.0589504 -0.0038185655 0.06206721
0003d0 a1 52 04 3d 65 f7 72 3d 59 a7 a0 bb 96 b5 3f 3d
       0.032305364 0.059317965 -0.004902762 0.046804033
0003e0 44 d6 0d 3d ae 93 36 3c 84 7d 3b 3e 83 d1 f2 bc
       0.034628168 0.011143608 0.18309599 -0.029640919
0003f0 dc 5f 84 3d 48 39 11 3d 72 91 46 bd 94 a2 6d 3d
       0.06463596 0.03545502 -0.04847855 0.058016375

model.1._model.2.bias f4 [256]
000000 ad 59 0a 39 81 8e 4b bd 8f 05 99 bd e9 73 c4 bd
       0.00013194112 -0.04969645 -0.07471763 -0.095924206
000010 8f 93 b2 3d ac e3 84 3d 23 52 03 3e eb 9a 85 3c
       0.08719551 0.064887375 0.12824301 0.016309222
000020 37 02 a1 bc 92 4e 9a 3c fc 1d ca 3b 83 6a 97 bd
       -0.019654376 0.018836293 0.006168125 -0.073933624
000030 d1 8d 8d bd 69 e4 1f 3e 48 3d 5e bd 12 f7 09 bd
       -0.06911815 0.15614475 -0.05425766 -0.03368289
000040 22 a4 38 3d 4d c5 64 bd 30 ad 2a bc e8 79 56 bc
       0.045078404 -0.055852223 -0.010417268 -0.013090588
000050 dc 82 04 3d f5 e2 cc 3d 4c 7f aa 3c 1f 7e a5 3d
       0.03235136 0.10004226 0.020812653 0.08080696
000060 da 54 25 3d e0 76 2c be 70 76 c7 bc de de 7d 3d
       0.040364124 -0.16842222 -0.024348468 0.06198012
000070 76 f5 6c bd 43 40 7b 3d a9 d6 92 bc db 60 d1 bd
       -0.057851277 0.06134058 -0.017924624 -0.10223552
000080 5a 80 f0 3d 7b bb e7 3d d4 e4 1a 3e ed 24 0a be
       0.11743231 0.11315056 0.15126354 -0.13490649
000090 b8 24 05 be 86 a2 c7 3c 0b 7b 0b 3c 74 79 1d bd
       -0.13002288 0.02436949 0.008513222 -0.038445905
0000a0 a1 bc a2 3c 85 34 52 bd 18 d6 e9 bd da 83 42 bc
       0.019865336 -0.051319618 -0.11417788 -0.011872256
0000b0 0d 0d 72 3d ff 0f a8 3d ad ac 82 3d c5 d3 b8 3d
       0.059094477 0.08206176 0.063805915 0.09024767
0000c0 0d 01 9e bd 86 38 94 3d 82 7a 9b bd fd 8b 7e bd
       -0.07715044 0.072373435 -0.07591726 -0.062145222
0000d0 26 84 ee 3d ea f0 fb 3d f0 57 b0 bd 07 b1 4b bd
       0.11646299 0.1230181 -0.08610523 -0.049729373
0000e0 ef 8c 8f 3b 71 80 b6 3d 5d 26 fb bc 1d 4e 76 3d
       0.0043808143 0.08911217 -0.030657941 0.06013309
0000f0 60 84 c9 3d 12 cb a0 3c 78 5d 3e bd 93 79 d4 bd
       0.09839702 0.019628081 -0.046475857 -0.10374751
000100 61 ce 08 3e 1b 1f dd bd ee 24 a9 bd 07 9e 53 bd
       0.13359977 -0.107969485 -0.08258997 -0.05166438
000110 cc 10 cf 3d 9e db 88 bd 82 a1 3f 3b 7f 81 15 3d
       0.101106256 -0.06682514 0.0029240553 0.03650045
000120 84 1a 70 3d fc 44 26 bc b4 5e a9 bd 3f 04 df 3b
       0.058619037 -0.010148283 -0.08270016 0.006805926
000130 9c af a9 bd c1 ae e6 3d fc 31 20 3e 40 97 56 3d
       -0.08285448 0.112638004 0.15644068 0.052390337
000140 08 91 6a 3d 21 5e f3 3d 6b e3 ad bc 36 a0 ea 3a
       0.05726722 0.11883188 -0.021226605 0.001790053
000150 8d ea 6a bc b5 05 7b bd 4f db 03 bd c9 ac d8 3c
       -0.014338148 -0.06128474 -0.03219157 0.026449578
000160 01 46 9e bd 7a bd 87 3d 51 bb a4 bc 4f 40 a5 bc
       -0.07728196 0.06627937 -0.02010885 -0.020172266
000170 9e d2 0c bd 76 df 0d 3d 84 fd 43 3d 75 97 ac 3d
       -0.034380548 0.034636937 0.047849193 0.08427326
000180 19 78 a5 bc f8 39 a9 bb 87 84 76 3e 79 72 ac bc
       -0.020198869 -0.005164381 0.24073993 -0.021050679
000190 98 06 f9 3d 06 2d 11 3e 94 69 d0 bd 24 39 69 bc
       0.12159461 0.14177331 -0.101763874 -0.014234815
0001a0 c1 fe bc 3d 10 60 6f 3c ad 7a 2c bd 60 c2 e4 3d
       0.09228278 0.014610305 -0.04210918 0.111698866
0001b0 38 92 9f bd 59 cd d2 bb db 33 3c 3d ae 6b 91 3d
       -0.07791561 -0.0064331708 0.04594789 0.071006164
0001c0 39 7e e0 3c 72 93 af bc b7 fc 74 bd 8c 1b df 3d
       0.027403938 -0.021432612 -0.05981132 0.10893926
0001d0 05 48 27 bd f2 06 d6 3d 87 3e b5 bd 31 e1 e1 3d
       -0.040840168 0.104505435 -0.08849817 0.1102928
0001e0 8d 48 04 3d 96 f2 e7 bd 0c 51 4e be aa d4 27 3d
       0.032295752 -0.113255665 -0.20148104 0.040974297
0001f0 d2 ab 9d bd 3f f4 65 3d 49 b1 0a 3e 13 5e 4e bd
       -0.07698788 0.056141134 0.13544191 -0.050382685
000200 99 bb c4 bc dd 85 82 bb 85 9e a2 3d 7e 42 1f bd
       -0.024015235 -0.003983243 0.079403915 -0.03888177
000210 ff e7 08 3d c9 95 8b 3d 5a 0b 00 3e 9b e8 00 3d
       0.033424374 0.068156786 0.1250433 0.03147183
000220 03 d1 8e 3a ae ea 28 bd fd dd a3 ba 28 23 51 3d
       0.001089603 -0.041239433 -0.0012502071 0.05105892
000230 e2 bb 89 bd dd f8 1a be 8f b5 04 3e 43 2c cb bd
       -0.06725289 -0.15133996 0.12959884 -0.09920552
000240 85 3f 9b 3d a0 8f ea bc 36 31 83 bd 83 33 1d 3d
       0.07580475 -0.028632939 -0.064058706 0.038379204
000250 90 bd 86 3c f7 f3 29 3b 41 ef bf bd 89 11 e1 3d
       0.016447812 0.0025932768 -0.09371806 0.10989673
000260 f5 4e cb 3c cc 40 1b 3e 79 fa 8d 3d fa 9a 46 bd
       0.024817923 0.15161437 0.069325395 -0.04848764
000270 d1 7e 5a bd ed aa af 3c 57 71 07 be 92 54 56 bd
       -0.053343598 0.021443808 -0.1322683 -0.052326746
000280 59 e4 52 bb ff 05 d5 3d 71 45 d7 3d 5a 6e d1 bc
       -0.0032179563 0.10401534 0.10511292 -0.025565315
000290 a3 f9 33 3d 24 43 4b 3d 53 06 cb bc fc 45 c5 bd
       0.043939244 0.049624577 -0.024783289 -0.09632489
0002a0 cf a0 a3 3c 86 c1 73 3d c1 37 2e bd c1 ac 92 3d
       0.01997414 0.05951073 -0.04253364 0.071618564
0002b0 d5 8f b1 bb bc 4a 28 bd 69 97 18 3e a8 9a 82 3d
       -0.0054187574 -0.041086897 0.14901508 0.063771546
0002c0 7d 55 9b bd 15 6a 14 bd 5b e8 d4 3c 40 ac ad bc
       -0.07584665 -0.03623398 0.025989702 -0.0212003
0002d0 9b 97 6f 3c 6c f8 97 3d be 75 9f 3d 13 40 8d bd
       0.014623548 0.074204296 0.077861294 -0.06896987
0002e0 24 bd 5d 3c b0 ec 89 bc e4 a4 cb 3c 53 06 14 3e
       0.013533864 -0.016836494 0.0248589 0.14455537
0002f0 62 c3 93 bc 49 ae a6 bd b3 58 21 3c 66 32 fb bd
       -0.018037502 -0.08138711 0.009847808 -0.12265472
000300 cf dc 27 bd 5a b9 0a 3d d8 1b 1a bd d9 f0 f2 3d
       -0.040982064 0.03386817 -0.03762421 0.11862344
000310 e7 f4 94 3d cd 95 4e bd 19 56 3c 3d 45 cb 36 3d
       0.07273274 -0.05043583 0.045980547 0.044627447
000320 eb 37 0f 3d a4 f5 3a bd 5b e6 8e bb 22 c1 83 3d
       0.034965437 -0.045644417 -0.0043609566 0.064333215
000330 39 57 88 bd 4f e6 20 3c c4 38 73 3d 83 9f 8d bd
       -0.066572614 0.009820535 0.059380308 -0.0691519
000340 0e 22 02 bd 08 cc c9 3c 9c 7d da bd c1 82 0e 3e
       -0.03177076 0.024633422 -0.10668489 0.13917066
000350 22 27 d3 3b 0a a6 76 bd a7 61 0b 3e 70 e7 48 3c
       0.006443874 -0.06021694 0.1361147 0.01226221
000360 d3 84 16 be 44 9a f7 bc 22 26 8f bd 79 51 78 bd
       -0.14699106 -0.030224927 -0.06989695 -0.060624573
000370 59 59 3a 3e 24 ce 05 bd 07 a3 d7 bc 89 26 7c 3c
       0.18198146 -0.032667294 -0.026322855 0.015390047
000380 33 cc 01 3e 05 3b 16 3e 16 d1 6f 3d ac 1d 91 bd
       0.12675552 0.14670952 0.05854901 -0.070857376
000390 70 f0 de 3c ba c1 4d bd e2 8a 0d 3d fd e5 0e 3e
       0.027214259 -0.05023358 0.034556277 0.13954921
0003a0 b6 ce dd 3d 15 40 98 3d 9a 40 0b bd 26 89 01 bd
       0.108304426 0.07434098 -0.033997156 -0.031624936
0003b0 bc 48 36 3c 0e c8 5a bd 74 6b f0 3d 7d 2b ce bc
       0.01112574 -0.053413443 0.11739245 -0.025167221
0003c0 5f 7a 6b bc 86 26 5c bc 2d 4c 01 3e c7 27 f5 3d
       -0.014372437 -0.013436919 0.12626715 0.119704776
0003d0 c7 8c c4 3d 01 f6 0b 3d 28 78 4e bd be ae 95 3d
       0.09597164 0.034170154 -0.05040756 0.0730872
0003e0 2f 5f 4b 3d 0b dc 16 3d 40 a6 82 3d 47 ae 13 3e
       0.04965132 0.036830943 0.06379366 0.1442195
0003f0 ab 14 8c 3c 47 04 66 3d 61 31 16 be 6f 6a 87 ba
       0.017099699 0.056156423 -0.14667274 -0.0010331402

model.1._model.4.weight f4 [256, 256]
000000 ec d7 94 3d e9 82 bc 3c c6 fe c1 bc 25 a6 b1 3c
       0.07267746 0.023011642 -0.023681056 0.02168567
000010 32 a5 09 bd d6 ed 38 bc cd 5b 73 3c 5b 16 b1 ba
       -0.03360481 -0.011287173 0.01485343 -0.0013510691
000020 d5 c5 50 bd 11 64 69 3d 85 63 4f bd a0 ab 00 bc
       -0.050969917 0.056980196 -0.05063202 -0.007853419
000030 8d 79 3e bd d2 df 2b 3d be 74 06 bd af 4d d9 3c
       -0.04650264 0.0419615 -0.032826178 0.0265263
000040 4b ee 19 3d 93 60 12 bd d1 94 75 3d 78 3d 3e bd
       0.03758077 -0.03573663 0.059956376 -0.04644534
000050 45 1b c7 bc 07 43 2e 3d bb c5 70 bc 97 60 8a 3d
       -0.024304995 0.04254439 -0.01469558 0.06756704
000060 e0 ac a2 b8 9b 05 16 bc c1 72 99 3d e2 e4 63 3d
       -7.7569624e-05 -0.00915661 0.07492591 0.0556382
000070 8f 4e 92 3b ea eb d2 3c 6d 1b f0 bc bd dd b0 3c
       0.0044649313 0.025747258 -0.029309953 0.021590108
000080 dc d9 91 bc 04 c0 48 bc f7 7b 25 bc 6c 9f 35 3d
       -0.017804079 -0.012252811 -0.010100356 0.04434149
000090 77 0a a6 bc 8f 24 14 3d a1 76 64 3d c4 4e 5b bb
       -0.020268662 0.036167677 0.055777196 -0.0033463696
0000a0 db 97 ad 3d 63 48 9a bb 74 1d 51 bd 1d ff 22 3d
       0.0847623 -0.004708336 -0.05105348 0.039794076
0000b0 55 e0 ad bc d3 d5 f6 3c 44 b0 cf 3b 1d 7c 5f bc
       -0.021225134 0.030131256 0.006338151 -0.013640431
0000c0 9f e9 6e bd 37 5c 34 3d ec 95 3f bd ac b3 c5 bc
       -0.058328267 0.044033255 -0.046773836 -0.024133526
0000d0 11 2f 2b 3d 1f db 07 3d 5d 20 24 3d 05 ea 16 3d
       0.041792933 0.033167955 0.040069927 0.036844272
0000e0 a7 95 90 bc d8 a9 fe 3c 94 f7 66 3c 4f c1 c4 bc
       -0.017649485 0.031086847 0.014097113 -0.024017958
0000f0 7f 64 bd bc 49 af e8 3b 01 f6 05 3d 5d 85 72 bc
       -0.02311921 0.0071009737 0.03270531 -0.014802304
000100 d9 32 b4 bc fd 1c b5 bd b2 5f 5e bc 12 64 91 bd
       -0.021996902 -0.0884342 -0.01357262 -0.07099165
000110 53 28 88 3d a3 46 6d 3d 95 da a3 bd 6e f2 90 3d
       0.06648316 0.057928693 -0.080006756 0.0707749
000120 7e 8d 11 3d 4d 36 c0 bc 2f 7d fe 3c a6 e7 74 3c
       0.035535328 -0.023463393 0.031065552 0.014947807
000130 d8 0c 72 3d 2d 65 0c 3c 8a bc 28 3d 34 bb 9d 3d
       0.05909428 0.008569044 0.04119543 0.07701722
000140 b6 62 14 bc b8 a2 81 bd 4a fd 85 3d 33 5f cd bc
       -0.009056738 -0.06329864 0.06542452 -0.025069809
000150 7f 6f 9c bc 36 a0 51 3d ec 56 88 bd 0a fe 02 bd
       -0.019096134 0.05117818 -0.06657204 -0.03198055
000160 27 74 63 3d 61 81 89 bd 9f c2 59 bd 19 a6 0a 3c
       0.055530693 -0.0671413 -0.05316412 0.008462452
000170 d7 d9 76 bd d2 86 3a 3d 52 ea 82 3d e4 bf b5 bc
       -0.060266342 0.04553873 0.06392349 -0.022186227
000180 d1 27 42 3d 85 91 b6 3c 84 87 5a bd 78 93 da bb
       0.047401253 0.022286186 -0.053351894 -0.0066704117
000190 7c dd c0 ba 81 a0 25 3d 0e c1 16 bc 5c 30 f0 bc
       -0.0014714445 0.04043627 -0.009201301 -0.029319935
0001a0 3b b9 8b bd dd f2 06 bd 01 96 5f bd 19 06 29 3d
       -0.06822439 -0.032946456 -0.054586414 0.04126558
0001b0 c4 9f 00 bc 11 54 63 bd 3f 57 90 bd 0b 48 b6 3c
       -0.007850591 -0.055500094 -0.07047891 0.02225115
0001c0 1e 05 ef bc 72 69 85 bd a1 ba ad bc 50 ac 2a 3d
       -0.029177245 -0.06514253 -0.021207156 0.041668236
0001d0 78 d1 f7 bc 0f 0f 3c bc 99 d0 86 3c d8 65 fe 3c
       -0.03025125 -0.0114782 0.016456889 0.031054422
0001e0 2e 85 e5 bc eb a5 5c 3d 36 f0 11 3e b8 bc ba bc
       -0.028017607 0.05386917 0.1425179 -0.022795066
0001f0 fc 78 32 3d 8c 40 47 bb 1a 28 4c bd 56 69 30 3b
       0.04357241 -0.0030403463 -0.04984293 0.0026918254
000200 65 df 50 3d 46 03 6b bd 29 b2 1f bc c3 13 d3 bc
       0.050994296 -0.05737617 -0.009747067 -0.025766259
000210 0b b6 eb 3c 81 0a db 3c cf 59 10 3d 8c 98 88 bc
       0.028773328 0.026738407 0.0352419 -0.016674303
000220 a3 5c 4d bd 76 55 10 3d 57 7f 77 3d a1 3c f0 bc
       -0.050137173 0.035237752 0.060424175 -0.029325785
000230 42 72 9a bc 36 cb 3c 3c 74 17 a0 3d 5c 04 aa bc
       -0.01885331 0.011523059 0.07816973 -0.020754032
000240 cc 9c ad 3c 8b 7b c1 3b 08 be 23 bc fe 95 99 3d
       0.02119293 0.00590462 -0.009994037 0.07499312
000250 f2 53 81 3b af 43 c2 3c 5e bb 22 3d ea b4 9c 3d
       0.0039467746 0.023713915 0.03972947 0.07651694
000260 74 be 4e 3d d8 f3 47 bd e6 d1 97 3d c4 a2 e3 bb
       0.0504746 -0.048816532 0.07413082 -0.0069468934
000270 89 2b aa bd ee 16 9b 3c 8f 59 3e 3c 08 89 a5 bb
       -0.08309085 0.018931832 0.011618032 -0.005051736
000280 16 ec 8a bd 6d 25 d7 bc 65 eb 0f 3d 2d 77 06 bd
       -0.06783311 -0.026262963 0.0351366 -0.0328285
000290 fe 0f 12 bd 62 20 71 bc e7 eb 3d 3d 41 48 4b 3d
       -0.035659783 -0.014717193 0.046367552 0.049629454
0002a0 7c 09 a6 bb af b6 a6 3b 45 a5 c8 bc bb f3 7d 3d
       -0.0050670486 0.0050876956 -0.02449287 0.062000018
0002b0 44 32 ea 3c f1 37 fd ba 6f d7 89 bc 9c 4a 37 bd
       0.028588422 -0.001931904 -0.01682636 -0.044748887
0002c0 09 ea 21 3d cf 17 51 bc ee 6b 77 3d 85 a2 89 bd
       0.039529834 -0.012762024 0.060405664 -0.06720451
0002d0 fb 6a bf bc aa df e3 3c 32 9b 25 bd 15 82 03 3b
       -0.023366442 0.027816612 -0.04043121 0.0020066549
0002e0 9e 31 f2 3c 70 e1 7d 3c 81 19 68 bd ec 5a 0c bd
       0.029564675 0.015495643 -0.056664947 -0.034266397
0002f0 e3 21 45 3d 75 0f 06 3c fb 06 8c 39 40 c6 5a ba
       0.04812802 0.008182396 0.00026708082 -0.00083455816
000300 42 58 39 3d d8 33 61 bc 35 41 6f bd 7b fa a5 bc
       0.045250185 -0.013745271 -0.058411796 -0.02026104
000310 1a f8 4d bd 19 29 46 3c 42 68 3b 3d a4 ae 56 bc
       -0.050285436 0.012094759 0.045753725 -0.013103161
000320 02 2e bc 3c f9 66 46 bd 6d 4b 88 3c 2f 28 13 3d
       0.022971157 -0.048438046 0.016637528 0.035926994
000330 7b 95 43 3d 2a af 92 3c 7b 27 dd bc 6b 0a d7 3c
       0.047749978 0.01790579 -0.026996365 0.026250085
000340 11 c3 e7 3a 8f 1e 45 3d a9 4d 2d bc 4a 83 66 bd
       0.0017682036 0.048124846 -0.010577598 -0.05627755
000350 25 27 fb 3c 18 63 b5 bc 84 3d 71 bb 50 b7 b8 3d
       0.030658314 -0.022141978 -0.0036810348 0.09019339
000360 93 32 5f 3d 5c 14 f2 3c 70 e4 7d bc e1 83 51 3d
       0.05449159 0.029550724 -0.015496358 0.05115116
000370 11 6d 06 3d 00 19 4d bd 3c 2d 06 bd 49 f9 66 3d
       0.032818858 -0.05007267 -0.032757983 0.05639008
000380 e2 38 00 3c 71 fb ae 3b bf 54 c1 bc 0b c9 0a 3d
       0.007826062 0.0053400327 -0.02359998 0.033883136
000390 c3 e1 57 bd 52 cf 03 bd bc 34 95 bd 63 e7 4f 3c
       -0.052705538 -0.032180138 -0.07285449 0.012689444
0003a0 be 0a 93 3d 6a 0c 27 bd d7 1c 5c bc d6 f3 e0 bb
       0.07179783 -0.040783323 -0.01343461 -0.006865005
0003b0 e6 05 15 3d 30 5b 9d bc 89 d8 e4 3b 0a e5 1d bd
       0.03638258 -0.01920852 0.006983821 -0.038548507
0003c0 e7 ff 41 bb 52 a0 67 bd d8 ff 1e 3d 82 59 b1 3d
       -0.0029601993 -0.056549378 0.03881821 0.086596504
0003d0 77 fe 81 bd 82 fc 1b 3c 80 3c 40 3b 93 fa d1 ba
       -0.063473634 0.009520652 0.0029332936 -0.0016020112
0003e0 ee d8 b2 3b c2 29 d8 3c 70 c6 71 3d e9 20 82 3d
       0.005457989 0.0263871 0.059027135 0.06353933
0003f0 7f 45 51 3d 43 4c 39 3c 03 53 38 bd d2 3f 45 3c
       0.051091667 0.011309686 -0.04500104 0.012039142

model.1._model.4.bias f4 [256]
000000 fa 18 56 3c 79 51 85 3d 98 a3 da 3d ad ac a1 3b
       0.013067478 0.0650968 0.10675734 0.0049339146
000010 a8 ff 2a 3d 33 29 71 3c fd 1b 10 bd 3d c7 a0 3b
       0.04174772 0.014719295 -0.03518294 0.0049065636
000020 dc cf de 3d e0 e9 60 3c 62 ea 40 3d b0 37 b3 3d
       0.1087949 0.013727635 0.047098525 0.08750856
000030 2b 6f 49 bc 76 a7 84 bd 1d c6 1a 3d 57 17 a9 3d
       -0.012294571 -0.06477253 0.03778659 0.08256405
000040 bb 37 b7 bb b8 26 12 3d 06 84 f8 3d 62 57 7a 3d
       -0.0055913604 0.035681456 0.121345565 0.06111849
000050 88 f2 d2 3c ad c8 aa 3c 36 4d d1 3c dd 03 57 bd
       0.025750414 0.020847643 0.025549512 -0.05249392
000060 c1 da 08 3e 21 db 1a 3e 3e 10 06 3e cf 85 2d 3e
       0.13364698 0.15122654 0.13092133 0.16945575
000070 dc 7a fd 3d 1d 52 ae 3d 13 99 f0 3c 6c 9e 3d bd
       0.12376949 0.085117556 0.029369866 -0.04629366
000080 82 d0 b3 3c 58 37 b0 3d 3d f2 37 3c b0 24 67 bc
       0.02195001 0.08604306 0.011227188 -0.014107868
000090 a8 9c f5 3d 96 44 1b 3b 2b 56 92 bb fc 52 10 3d
       0.119927704 0.0023692003 -0.0044658384 0.03523539
0000a0 04 d3 83 bb 62 8c e4 bc 51 df 29 bd 8e 84 f7 3d
       -0.0040229578 -0.027898971 -0.041472737 0.1208583
0000b0 2e ed 32 3d 37 cc 42 3d c5 ee 8b 3d a9 81 aa 3d
       0.043683223 0.047558036 0.06832651 0.08325512
0000c0 79 d5 97 3d e0 c8 b2 3d 22 6f 93 3d c3 92 f4 3c
       0.074137636 0.0872972 0.07198931 0.029855138
0000d0 44 0e a0 3d 11 bb 94 bb 6d 7a 98 3c d2 e8 73 bc
       0.07815221 -0.0045389016 0.018613065 -0.014887052
0000e0 7b 8d 25 bd 7e c6 65 3d 50 f0 02 3d 24 d4 b1 3c
       -0.04041813 0.0560975 0.03196746 0.021707602
0000f0 6d 19 e8 3c 1e 2f da 3d 89 55 21 3d 34 98 23 3e
       0.028332436 0.10653518 0.039388213 0.1597603
000100 52 bf 65 3c ad 55 f2 3d ea 73 64 bd 70 6d a2 3c
       0.014022665 0.118327476 -0.055774607 0.019827574
000110 0e 3e 02 3d a9 ce 2b 3e c1 28 6c 3c 3e 7d 23 3e
       0.03179746 0.16778053 0.014414013 0.15965745
000120 57 f3 9a 3c 97 c7 27 3d 06 24 02 3b b3 7b 9b bb
       0.018914862 0.040961828 0.0019857897 -0.0047449707
000130 a8 ed 59 bb 17 68 c3 3c 72 1e 37 3d ad 84 95 bc
       -0.0033253226 0.023853345 0.04470677 -0.018251741
000140 2f e0 cd 3d 67 c3 5d 3d 2f 56 2c 3b 56 e9 d9 bc
       0.10052525 0.05414143 0.0026296487 -0.026600521
000150 6a 5e d3 3d 99 31 a7 3d 7d bb e4 3d 76 16 34 3e
       0.103207424 0.08163757 0.11168573 0.17586693
000160 3d 99 5c 3d a4 23 52 3d 36 71 06 3e 6f 44 d2 3d
       0.053857077 0.05130352 0.13129124 0.10266959
000170 c5 d4 cf 3d 33 1b ad 3c 0d 18 30 3d 90 81 7a 3d
       0.101480044 0.021131134 0.042991687 0.061158717
000180 61 30 80 3d 49 44 86 bc ad b8 30 3e a6 50 f4 3d
       0.062592275 -0.016389983 0.17257948 0.11929445
000190 10 92 77 3d 22 78 ec 3d f0 68 46 bd dd 66 bc 3c
       0.06044203 0.11546351 -0.04843992 0.022998268
0001a0 61 bc e8 3c 36 68 b8 3c 8c 9a 86 bd 73 32 f2 3c
       0.028410139 0.02251063 -0.06572446 0.029565072
0001b0 5c 2b 56 bd 8d 04 42 bd 99 0d 81 3d c0 4a 58 3e
       -0.052287444 -0.04736762 0.06301422 0.21122265
0001c0 05 b2 ff 3c c6 d3 c3 3d aa ab 17 bd c5 51 0f 3e
       0.031212816 0.09561877 -0.037028946 0.13996036
0001d0 03 a9 f1 3c f5 2b bb 3d 98 b9 df bc 03 fe 19 3e
       0.029499536 0.091392435 -0.027310178 0.15038304
0001e0 ea 57 ce 3c a1 ce 05 3d c3 37 ab 3c 9a 21 9b 3d
       0.025188405 0.03266776 0.020900613 0.07574768
0001f0 53 70 c1 3d f9 42 10 3e 03 95 38 bb ca 1d b1 3d
       0.09445252 0.14088048 -0.002816499 0.0864826
000200 a0 ea a4 3c d8 97 70 3d d3 7e 8a 3d 19 eb 37 3d
       0.02013141 0.05873856 0.06762471 0.04490194
000210 68 6e 67 3c 9e 53 89 3d 13 2d f3 3d 07 20 92 3d
       0.014125444 0.06705402 0.118738316 0.07135015
000220 a2 0a 22 bd 42 77 ce 3c 2e fd 4a 3c 53 15 dc bc
       -0.03956092 0.025203351 0.012389464 -0.026865637
000230 8c 6f 74 bd 32 76 1a 3d f2 4b ee bb 3d fd 55 3d
       -0.059676692 0.037710376 -0.007272237 0.05224346
000240 29 e7 ea 3d 1d 06 b3 3c 79 48 66 bd f2 d4 0a bd
       0.114698716 0.021853501 -0.05622146 -0.033894487
000250 69 bc 3e bd 0d 8a a7 3d 41 79 8a 3c 8f 8a 8d 3d
       -0.0465664 0.08180628 0.016903521 0.069111936
000260 df 48 05 3e 2a 24 81 bd 7c 21 d9 b9 cb 04 a0 3d
       0.1301608 -0.06305726 -0.00041414413 0.07813414
000270 f2 99 cf 3d 06 e7 df bc 35 cb 5a 3d 13 e4 91 bc
       0.101367846 -0.02733184 0.05341645 -0.01780895
000280 08 51 8b 3d 06 d1 57 3d d3 04 db bd b3 62 e4 3c
       0.06802565 0.052689575 -0.106942795 0.027879095
000290 57 5a 03 3d 57 d6 c7 3c 79 9c 32 3d 1c 27 da 3c
       0.032068577 0.024394197 0.043606255 0.026629977
0002a0 2c 9f cb 3c 88 b1 0e bd b3 07 fb 3d a1 51 53 3d
       0.024856173 -0.034837276 0.12257328 0.05159152
0002b0 4e ba d6 bc 6f c7 4c 3c f5 3e b7 bc d7 92 17 3e
       -0.026211884 0.012498721 -0.022368887 0.14802109
0002c0 ec d4 0c 3c c0 aa 82 bd 36 20 3c 3d f9 27 7a 3d
       0.008595686 -0.06380224 0.045929156 0.061073277
0002d0 f6 59 2a 3d 2a 77 7a 3d 5e 48 e0 3d fd ef e8 3d
       0.0415897 0.0611488 0.10951303 0.11373899
0002e0 b0 30 ea 3d dc 5e ae 3d 80 72 78 3d fe 10 35 3d
       0.11435068 0.08514187 0.06065607 0.04420566
0002f0 23 33 22 b9 3a 32 72 3d 36 bd 0b bd c3 a0 83 3d
       -0.00015468574 0.05912993 -0.034115992 0.06427147
000300 35 06 61 bd 2c 28 dc 3d 2a b2 f0 bc b0 dd dc 3d
       -0.05493756 0.1074985 -0.02938183 0.10784471
000310 8c 88 60 3d a8 0d cb 3c 93 92 f8 3d 5f 7d 2e 3d
       0.05481772 0.024786785 0.12137332 0.042600032
000320 c8 aa f2 3d 2c 08 c8 3d 56 13 8f 3d f7 cb 3e 3c
       0.1184898 0.09767184 0.0698611 0.011645309
000330 98 d0 d2 3c 6d bb 08 3d 33 93 a1 3c 2c 39 27 3d
       0.02573423 0.03338187 0.01972351 0.040826008
000340 c5 d7 9c 3c 23 bd 0a 3d 9e bc 92 3d bc 80 2f 3d
       0.019145856 0.03387178 0.07164882 0.04284738
000350 22 b5 4f 3d fa de 1c 3d 87 eb 41 3d 36 3c d8 3c
       0.05070985 0.038298585 0.047343757 0.026395898
000360 cf 6f 85 bd 4b b3 a3 3d 71 c4 2e 3e 6f d1 84 bc
       -0.065154664 0.07993182 0.17067124 -0.016213147
000370 74 d2 be 3d 59 58 1e 3c f3 08 bc 3c 7a 27 cb bc
       0.093174845 0.009664618 0.022953486 -0.024799097
000380 8a f5 8a bc 73 b8 e4 3c 89 d7 e5 bb e7 91 ac 3d
       -0.016962785 0.027919983 -0.007014219 0.08426266
000390 6f a6 86 3d 7b a3 44 3d 84 5c f7 3d ca 30 31 3d
       0.065747134 0.04800747 0.12078193 0.04325942
0003a0 84 60 d4 3d 5a ee 34 bd 78 1e 23 3e 10 40 2a bd
       0.103699714 -0.044172622 0.15929592 -0.041565
0003b0 57 3e e4 3c 9f c6 8a 3d 58 3f c2 bd 7f 6c 65 3d
       0.027861757 0.06776165 -0.09484738 0.056011673
0003c0 f1 f0 94 bc 49 c8 ee 3d 43 d6 02 3e 11 cf 2a bd
       -0.018181296 0.11659295 0.12777047 -0.04170138
0003d0 3a 3b 16 bd 61 9b 89 3d d4 1a f3 bc 92 a2 4a 3d
       -0.036677577 0.06719089 -0.029675879 0.049471445
0003e0 11 2f c7 3d 87 ff 7e bc 63 03 f7 3d ec 37 2d 3d
       0.09725774 -0.015563852 0.12061193 0.04228966
0003f0 2c bd 6f bc 9e 59 90 3d f1 94 7e 3d 90 1e 41 3d
       -0.014632504 0.07048343 0.06215376 0.047148287

model.1._model.6.weight f4 [256, 256]
000000 d4 f1 0a 3b 43 2e 7b 3d 56 3e f6 3c bd e6 1e bb
       0.002120127 0.061323415 0.030059021 -0.0024246417
000010 7c 54 76 3d 63 65 1f bd b5 94 d6 3b 8d 96 cc 3a
       0.060139164 -0.03891505 0.006548489 0.0015608832
000020 03 8e d9 bb dd 0f 4c 3b a3 e4 94 bc ca 88 c1 bb
       -0.0066392436 0.0031137385 -0.018175429 -0.005906199
000030 3e ba a5 bc 7a ca 36 3d 23 24 c3 bc 21 48 ab bb
       -0.020230409 0.04462669 -0.023820942 -0.0052271043
000040 cb 8e 15 bd 76 60 e0 3c 38 64 f0 bc 72 a3 c3 38
       -0.03651313 0.027389746 -0.029344663 9.328769e-05
000050 0d d2 17 3d 78 00 fc bc af f7 a5 bb eb 69 82 bd
       0.037065554 -0.030761942 -0.0050649266 -0.063678585
000060 5f d0 c5 3c 29 85 e5 3c 94 8a 34 3c b9 4d e6 3b
       0.02414721 0.028017597 0.011019368 0.007028308
000070 42 95 0c 3d 82 6d 6c bd 58 9f 21 bc 0e 64 d4 3b
       0.03432203 -0.057721622 -0.009864651 0.006481654
000080 ea dd 5e 3c aa a7 60 3d 34 51 1a 3c 2a cd 54 3d
       0.013602713 0.054847397 0.009418774 0.051953472
000090 06 cb 0b bc fb 5e e3 3c d7 42 e9 3b 41 c2 73 3c
       -0.008532291 0.027755251 0.0071185636 0.014877857
0000a0 f9 3d 46 3d a9 ed 07 bd bf 71 44 3c 2c 5b d7 bc
       0.048398945 -0.033185635 0.01199001 -0.026288591
0000b0 26 7f 02 3d d3 bd 75 3b 67 34 39 3b 07 81 3b 3d
       0.03185954 0.0037497177 0.0028259994 0.045777347
0000c0 14 c4 1d 3d 60 11 53 3d d2 4a 90 3c 27 1d b0 3b
       0.038517073 0.051530242 0.017613802 0.005374569
0000d0 b7 29 17 bd ab dd 2c bd 3e a5 36 3d a7 71 62 3d
       -0.036905017 -0.042203587 0.04459118 0.05528417
0000e0 49 11 ee 3c d8 11 c5 3b 4d ac 02 3d 6d 55 ff 3c
       0.029060977 0.00601409 0.0319026 0.031168664
0000f0 f5 a3 2d bd 44 7a e6 3c c4 7d 4c 3d d7 07 17 bd
       -0.04239269 0.028134473 0.049924627 -0.03687271
000100 3d cf b0 bd 83 6c bc 3c 5c c2 ef 3c 3c 36 2d 3d
       -0.086332776 0.023000961 0.029267482 0.04228805
000110 c8 04 e0 3c 8e cb 90 3d a6 f2 67 3d 1b 67 8b ba
       0.02734603 0.07070075 0.056627892 -0.0010635586
000120 30 00 a4 bd fa 9f 29 3d a7 86 33 bc 71 0e 9a 3b
       -0.08007848 0.04141233 -0.010957397 0.0047014286
000130 9e 6f d3 3c 0d f4 f9 3c b0 b7 09 3e 99 63 43 3b
       0.02581006 0.03051188 0.13448977 0.0029814004
000140 29 20 5d 3d 55 e2 22 3b f0 98 d4 3c 1a 5d 0b bc
       0.05398575 0.0024854143 0.025951833 -0.008506084
000150 15 be 6f bc 7d af 85 3c 86 ef 4d bc c6 85 b9 bc
       -0.014632721 0.01631903 -0.012569314 -0.022646796
000160 eb c6 49 3d 0a ba 30 3c 5f 3d e8 bb a7 89 2a 3b
       0.04926197 0.010786543 -0.007087394 0.0026021989
000170 79 d6 10 bb 72 2c 0e bd 19 16 8a bc 87 d6 23 bd
       -0.0022100492 -0.034710355 -0.01685624 -0.03999951
000180 e3 69 54 3d 42 97 cc bb 57 c9 1f bd 62 3a 96 3c
       0.051858794 -0.0062436173 -0.039010372 0.018338386
000190 1d c5 22 bd 37 1a 07 bd 8e 37 0d bc 9e 62 fc 3c
       -0.039738763 -0.032983985 -0.008619202 0.030808743
0001a0 69 05 1e bc 63 14 bb 3a 83 cc e0 bb 61 b5 87 3d
       -0.009644845 0.0014273043 -0.006860317 0.06626392
0001b0 6b f4 2c 3d 24 f1 a6 3d af c1 cd bb 2c 81 b6 3d
       0.042225283 0.08151463 -0.0062791924 0.08911356
0001c0 8a a9 0f bd f4 12 04 3d e8 74 de bd 4a 80 3d bc
       -0.035073794 0.032244638 -0.10862142 -0.011566231
0001d0 dc b7 81 bd 52 55 f0 ba 9a 0b 37 3d eb 12 9d 3c
       -0.063338965 -0.0018335974 0.0446888 0.01917406
0001e0 2b b7 c1 3a 05 87 9f 3c 8d bf 6b bc f2 7b 6d 3d
       0.001477932 0.019473562 -0.014388931 0.05797953
0001f0 db a1 b4 bb 63 95 0e 3d 54 78 fe 3c 16 7f 52 3d
       -0.0055124587 0.034810435 0.031063236 0.05139073
000200 81 74 1d 3d e3 5b b4 bb 8a 01 51 bd 49 af 67 3d
       0.038441185 -0.005504118 -0.05102686 0.05656365
000210 c9 d8 85 bd a3 d9 5a 3d 33 8b 63 3d a3 09 0f bd
       -0.06535489 0.05343021 0.055552673 -0.0349213
000220 37 d0 12 bd 94 76 19 3c fe e8 81 bc 14 67 13 bd
       -0.0358431 0.00936665 -0.01585817 -0.035986975
000230 9e ae ac 3c 5f 53 20 3d 26 22 f9 ba f8 a2 2c 3c
       0.021079358 0.03914201 -0.0019007369 0.010536902
000240 3b bd 78 3c 05 c6 b5 bd 78 84 2d bd 76 78 17 bd
       0.015181835 -0.0887566 -0.04236266 -0.036980115
000250 21 b2 1a bd b3 79 11 bd bc 2a 71 bc 99 7a a4 3c
       -0.037767533 -0.035516452 -0.014719661 0.02007799
000260 65 c5 3e bb dc 15 83 bc 36 ac 46 bd 8a 96 98 3c
       -0.0029109356 -0.016001634 -0.048504077 0.01862647
000270 1f 0c 02 bd 75 c8 08 3d 2c 6c 1a bd 28 98 74 3d
       -0.03174984 0.033394296 -0.037700817 0.05971542
000280 b1 4e d3 3c ca c6 d8 3c e0 12 02 3d 00 19 85 bb
       0.025794359 0.026461978 0.03175628 -0.004061818
000290 c6 1a c8 bc e9 e8 e0 3c 93 83 00 3d 53 15 86 bd
       -0.02442683 0.02745481 0.03137548 -0.06547036
0002a0 3f a3 c6 bd 2d 0f a0 bb e0 69 1f bc da 83 43 3c
       -0.096991055 -0.0048846216 -0.009729832 0.011933291
0002b0 de 5d da 3c 70 35 e5 bd 8a ff a1 3d f4 37 6d 3d
       0.026656087 -0.11191833 0.07910068 0.05791469
0002c0 c0 71 67 3d 54 13 15 3c d5 fd 05 3d 20 37 26 bd
       0.056504965 0.009098846 0.032712776 -0.040579915
0002d0 b6 f4 f4 bb 6b 81 a9 3d c0 46 33 3d 74 3e 01 3d
       -0.007475461 0.08276638 0.043768644 0.0315537
0002e0 5f e3 5a bd d9 d6 25 bd 85 f6 77 3d 8f c2 06 3c
       -0.053439494 -0.040488098 0.060537834 0.008225097
0002f0 f1 61 4c 3d 87 ea 1c 3d dd 70 ed 3c a7 d7 bd 3c
       0.04989809 0.0383096 0.028984481 0.02317412
000300 85 89 c2 bc aa 17 71 bd 09 a3 9f bc 4b 69 08 3d
       -0.023747215 -0.05886046 -0.01948692 0.03330354
000310 d2 f6 dc 3b 75 c6 19 bc 6a b8 5b 3a 77 71 44 bd
       0.0067432905 -0.009385695 0.0008381667 -0.04795977
000320 80 f5 49 3d 84 fa 57 bb ef b9 25 3b 61 94 ee 3c
       0.049306393 -0.0032955715 0.0025287827 0.029123487
000330 5a 23 12 bd 1a b1 15 bd fc ed 2d bc 88 98 55 3d
       -0.035678245 -0.03654585 -0.010615822 0.05214742
000340 19 be 29 bd b6 b0 98 3d 06 2b b6 3b 21 b1 b8 3c
       -0.041441057 0.0745558 0.005559328 0.0225454
000350 ed cd bf bc f0 d6 50 3d 0d df 6a 3d 1c 58 58 3d
       -0.023413623 0.05098623 0.057341624 0.052818403
000360 a5 03 61 bc 2c ba 8a 3d 4b 23 e8 3c 30 57 f8 3c
       -0.013733779 0.06773791 0.028337141 0.030315012
000370 2c ad ac 3d 11 ff 98 3b 32 70 c1 bd 8b dc 5d bd
       0.084314674 0.004669078 -0.09445228 -0.054165404
000380 7e d5 b3 bd f9 57 a0 3c ff c5 5a bd ab e5 a1 bc
       -0.08780955 0.019573199 -0.05341148 -0.019762835
000390 93 08 c7 3b f9 3f 98 3c a6 14 53 bd 17 26 06 3d
       0.00607402 0.018585192 -0.051533364 0.03275117
0003a0 e2 43 38 bc a3 6f 69 bc 8c 8b 53 3c 7e c2 b2 bb
       -0.011246653 -0.014247808 0.012911689 -0.005455314
0003b0 8f 1a bc bc c5 a4 0e be a8 9e 9c 3d 45 f4 60 3c
       -0.022961883 -0.13930042 0.07647449 0.013730113
0003c0 52 7f b9 bd d6 ec 7b bd d7 2e 6b 3d 15 7e 17 3d
       -0.090574875 -0.06150516 0.057417717 0.036985476
0003d0 33 3d 25 bc 73 6a ca ba 71 2f 7b bd cc a2 6f bd
       -0.010085392 -0.0015443101 -0.06132454 -0.058504865
0003e0 af 95 ae 3c 53 35 da bd 62 a1 47 3d 9c 80 00 3d
       0.02131161 -0.10654702 0.04873789 0.03137265
0003f0 7f b3 f6 3c 64 00 1f 3d 26 1e b9 bd b9 d0 66 3d
       0.030114887 0.038818732 -0.090389535 0.056351397
