saved_models/sde/sde_dis_swa_ERCOT_tws.pt (torch, 870215 bytes, 9 tensors)

module.model.1._model.0.weight f4 [256, 72]
0.09851036 0.070776604 -0.08032643 -0.0556209 -0.028300054 -0.06435899 -0.087120146 0.08480263
-0.027299322 -0.15289716 0.124576665 0.045319885 -0.107135996 -0.04801798 -0.048402213 0.013657583
0.0069390796 -0.024934417 -0.1048906 -0.029761404 0.06778571 -0.06251788 0.024266595 0.099391885
0.021687025 0.066787176 0.0176842 0.0693037 0.020648425 0.01015758 0.075814486 0.037279185
-0.03390161 0.05149878 -0.12443867 0.057360727 0.03800747 -0.08903746 -0.03587647 -0.09908906
0.034686536 0.0043841805 0.023112051 -0.03734741 -0.073046885 0.040310707 -0.06492968 -0.014852459
0.099191636 0.11388237 0.032174498 0.054935988 0.05191458 0.10104683 -0.022601498 0.053645942
0.094524816 -0.10417961 0.01812514 0.060608782 -0.062246762 0.001173802 0.0136463605 -0.09158207
-0.064750195 0.06200793 -0.0043881764 -0.00612487 -0.03765607 0.067716114 0.11840693 -0.0695164
0.08345756 0.052886132 0.022659076 -0.018639257 -0.0144986585 0.014012831 -0.09781243 0.049964387
-0.020452933 -0.14548664 0.05208248 -0.00571097 -0.07842182 -0.01365703 -0.0021257345 -0.04965865
-0.017395966 -0.04569901 0.048884552 0.046301242 -0.2595433 -0.03393538 0.025137309 -0.12222474
-0.005964381 -0.04718663 -0.09214013 0.006744779 -0.019649554 -0.017005801 0.0590018 -0.021083394
0.08889122 0.019474396 -0.018948825 0.014726243 -0.030508356 0.06813283 -0.059732422 -0.10267613
-0.072180316 0.06415502 -0.13849671 -0.050079424 -0.027933996 -0.07830983 0.00094207365 0.059664987
0.05844246 0.084589265 0.05223829 0.08593075 0.05301083 0.014099546 0.02580753 -0.033480164
0.02263818 0.07097406 0.028514909 -0.06912777 -0.05255174 -0.04387191 -0.030158795 0.09179652
-0.079861544 0.011770507 0.03867764 0.03093962 0.003931061 0.1996214 0.009981941 -0.0039373823
0.10796748 0.0022537094 0.03166231 0.010878051 0.00297747 0.025988683 0.06834311 -0.07783488
-0.073825866 -0.07905513 0.03438031 0.040450975 -0.09237113 -0.049368497 0.027756048 -0.08228946
-0.07023522 0.029152256 0.0422275 0.06329627 0.17711748 0.04390695 0.1375686 0.07382362
-0.05634223 -0.014545657 -0.045505766 0.10552029 -0.11826651 -0.10080584 0.030843351 0.0586209
0.063192174 -0.051315594 0.07170266 -0.015003584 0.019321067 -0.096809186 -0.12115918 0.08767292
-0.02678566 0.05214887 -0.04403274 0.04519141 -0.019959737 0.05300407 0.0014340507 -0.10016893
0.031022828 -0.005913887 0.015604711 -0.094226114 0.05300261 -0.05452128 -0.072684765 0.036978275
-0.13738988 0.016266625 0.10417975 -0.12002406 -0.05592613 0.03244715 -0.034772724 0.010230574
0.0001776014 -0.019640904 -0.046816222 0.10236035 -0.0005659396 0.016224561 0.05414139 -0.07459017
-0.11651246 0.09947656 -0.08931491 -0.009724663 0.07896841 0.013942046 0.061819144 0.10420804
0.05671648 -0.05239664 0.04488829 -0.03206957 0.050619498 -0.060796782 0.05999738 0.07862628
-0.0074539343 0.06878068 0.12513363 0.06998791 0.080799945 -0.08656828 -0.062300514 0.057164382
-0.039086062 -0.08436036 0.012053994 0.035969812 0.09663614 0.07053006 0.006346804 0.06405542
0.0074210553 0.021736551 0.08769728 -0.020646956 -0.025470058 0.044059798 -0.005747932 0.024757378
00000000: cdbf c93d 53f3 903d 2f82 a4bd bed2 63bd
00000010: 84d5 e7bc a5ce 83bd 0c6c b2bd 00ad ad3d
00000020: d4a2 dfbc 1391 1cbe 0d22 ff3d 58a1 393d
00000030: 1e6a dbbd 80ae 44bd 6641 46bd 0ec4 5f3c
00000040: 3861 e33b 4343 ccbc e2d0 d6bd 30ce f3bc
00000050: 3cd3 8a3d 6009 80bd bdca c63c f98d cb3d
00000060: fda8 b13c b7c7 883d 75de 903c 19ef 8d3d
00000070: e326 a93c fa6b 263c a044 9b3d 0fb2 183d
00000080: 6adc 0abd 62f0 523d b4d9 febd 15f3 6a3d
00000090: b9ad 1b3d 4659 b6bd 35f3 12bd 35ef cabd
000000a0: 7813 0e3d 2ca9 8f3b 7c55 bd3c 99f9 18bd
000000b0: 9b99 95bd d71c 253d daf9 84bd ba57 73bc
000000c0: fc24 cb3d 293b e93d 68c9 033d 8f04 613d
000000d0: 62a4 543d a4f1 ce3d c726 b9bc d9bb 5b3d
000000e0: 3a96 c13d 1f5c d5bd 2c7b 943c ea40 783d
000000f0: 76f6 7ebd 42da 993a fc94 5f3c 618f bbbd
00000100: c09b 84bd 07fc 7d3d b1ca 8fbb 22b3 c8bb
00000110: 403d 1abd bfae 8a3d 557f f23d 9d5e 8ebd
00000120: cceb aa3d 219f 583d 879f b93c 5bb1 98bc
00000130: c88b 6dbc 1396 653c e251 c8bd 75a7 4c3d
00000140: e98c a7bc 73fa 14be 7054 553d 1723 bbbb
00000150: 9f9b a0bd bcc1 5fbc e84f 0bbb de66 4bbd
00000160: fc81 8ebc e32e 3bbd 2b3b 483d 5fa6 3d3d
00000170: dce2 84be d3ff 0abd c2ec cd3c f750 fabd
00000180: db70 c3bb c546 41bd f7b3 bcbd 4f03 dd3b
00000190: 1af8 a0bc c04f 8bbc dfab 713d 15b7 acbc
000001a0: 9a0c b63d c588 9f3c 913a 9bbc 5746 713c
000001b0: a9ec f9bc 3a89 8b3d fca9 74bd dd47 d2bd
000001c0: 46d3 93bd b563 833d 15d2 0dbe 1520 4dbd
000001d0: d6d5 e4bc e760 a0bd 7ef5 763a 4663 743d
000001e0: 5c61 6f3d 233d ad3d d1f7 553d 76fc af3d
000001f0: e221 593d c801 673c 506a d33c 7f22 09bd
00000200: b473 b93c d95a 913d 1998 e93c dc92 8dbd
00000210: 7e40 57bd 08b3 33bd 940f f7bc d0ff bb3d
00000220: 738e a3bd 16d9 403c 726c 1e3d 1675 fd3c
00000230: 21d0 803b 8d69 4c3e 4c8b 233c 2805 81bb
00000240: 0e1e dd3d f8b2 133b 57b0 013d da39 323c
00000250: a821 433b 38e6 d43c 79f7 8b3d e567 9fbd
00000260: 0432 97bd a8e7 a1bd 5ed2 0c3d ecaf 253d
00000270: 132d bdbd 9f36 4abd a760 e33c 6087 a8bd
00000280: 7cd7 8fbd b6d0 ee3c bef6 2c3d 7aa1 813d
00000290: 495e 353e c6d7 333d c8de 0c3e d730 973d
000002a0: 1cc7 66bd e850 6ebc 4164 3abd 061b d83d
000002b0: b635 f2bd 4b73 cebd 32ab fc3c 781c 703d
000002c0: e66a 813d 4d30 52bd d8d8 923d 98d1 75bc
000002d0: 3747 9e3c e543 c6bd 4e22 f8bd dc8d b33d
000002e0: 9a6d dbbc 0e9a 553d ad5b 34bd a11a 393d
000002f0: 9a82 a3bc cc1a 593d c2f6 bb3a 5e25 cdbd
00000300: 9623 fe3c 48c9 c1bb e7aa 7f3c 9ff9 c0bd
00000310: 4419 593d b551 5fbd c0db 94bd 8876 173d
00000320: efaf 0cbe 9641 853c 315c d53d 2dcf f5bd
00000330: cc12 65bd 4ee7 043d d86d 0ebd 239e 273c
00000340: 833a 3a39 f6e5 a0bc 5ec2 3fbd 4ea2 d13d
00000350: 905b 14ba 5fe9 843c 5dc3 5d3d bbc2 98bd
00000360: 169e eebd 5eba cb3d bcea b6bd 3154 1fbc
00000370: 31ba a13d 2e6d 643c 1236 7d3d 066b d53d
00000380: 8a4f 683d dc9d 56bd c9dc 373d 625b 03bd
00000390: 6456 4f3d 0c06 79bd d0bf 753d d106 a13d
000003a0: 2240 f4bb e3dc 8c3d 0823 003e d255 8f3d
000003b0: 717a a53d b64a b1bd d32e 7fbd 3325 6a3d
000003c0: b518 20bd 20c5 acbd 1e7e 453c 1555 133d
000003d0: 2be9 c53d 1072 903d daf8 cf3b 7d2f 833d
000003e0: 532c f33b da10 b23c a29a b33d ce23 a9bc
000003f0: 95a6 d0bc 0c78 343d 2659 bcbb fccf ca3c

module.model.1._model.0.bias f4 [256]
-0.1337878 -0.08145028 0.17732896 0.023678137 0.24428637 -0.26043501 0.12721217 -0.35842362
0.17101434 -0.015899276 -0.041660458 -0.09632762 -0.11729065 -0.19855484 0.009010807 -0.0009860084
0.10091883 -0.08027048 0.09397292 -0.035075266 -0.11491635 -0.025515955 -0.17374374 -0.07405045
-0.06868484 0.2776841 0.13219394 0.28910968 -0.04955793 -0.00976036 -0.051227458 -0.0846327
-0.0050874804 0.2341164 0.14572105 -0.025854373 0.18256336 0.050023586 -0.12306858 -0.10344255
0.07604537 0.038327318 -0.070174344 0.17249568 -0.15498686 0.10803432 0.17195933 -0.20052373
-0.092722684 -0.12431165 0.05160626 0.28046516 -0.05926689 0.23361778 -0.1865608 -0.027623862
0.25944042 0.015100727 -0.045526877 0.23097797 0.31206372 -0.09863504 0.017268898 -0.043697223
-0.03026549 0.1863837 -0.19042997 -0.16022724 -0.0661224 0.12733693 0.0050673494 0.11567894
-0.052020118 0.25487325 0.13320729 0.14087959 0.2681629 0.01117883 -0.12679553 -0.02950133
-0.15642916 0.04976766 -0.1802771 0.05817647 -0.03945185 -0.13333865 0.21533723 -0.120859765
0.15455724 0.15972076 0.18018955 0.059686158 0.33482504 0.059521746 0.15289775 -0.08345598
-0.08282866 -0.11301077 -0.095449544 -0.029486459 -0.006997414 0.06446658 0.06839398 -0.08114519
-0.04636248 0.2938299 -0.2299009 0.030441603 0.014794875 0.17146628 -0.11472009 0.14995746
-0.09778649 -0.06707633 -0.101330206 -0.078744836 -0.22272539 0.018732468 0.09671012 -0.14251897
-0.21741189 0.026121864 -0.009695401 0.09946039 0.03063336 0.3005558 0.1660996 0.09752047
0.11694375 0.17219338 -0.10444657 0.20417143 0.0375607 0.11592017 -0.005720244 0.13442537
0.19625458 0.19128048 -0.18242759 0.06658593 -0.113082305 0.15297596 -0.2276301 0.2417467
-0.1068627 -0.0059008272 0.26332274 -0.029268013 0.20913574 0.053808946 -0.20395151 0.22209333
0.16882652 -0.1351686 0.22466172 -0.019967383 -0.1832615 0.12989587 0.2076691 -0.21166293
0.02703103 0.0070103765 0.1797835 0.07680432 -0.009483375 0.12784266 0.26809165 0.16319615
0.0115602575 0.21051365 0.30138525 0.077912495 0.12981762 -0.14813626 -0.11994962 -0.31396085
0.09724589 -0.009329818 -0.17118414 -0.15485503 0.08041582 0.10165914 0.2782631 -0.033664778
0.2339173 -0.07691958 -0.16577815 -0.1982403 -0.00908621 0.12353823 0.33510205 -0.05413975
-0.053040773 0.028479852 0.135903 0.027328582 0.21248445 -0.18376775 0.20285474 -0.20172654
-0.18958217 0.08457864 -0.15753579 0.087973766 -0.21855563 0.1391399 -0.043754473 -0.232019
0.15174909 0.17096655 0.086280815 0.100153305 0.01574843 -0.16445939 0.13306352 0.21100476
0.18541962 0.042788845 0.2433362 0.040813886 0.32376915 0.16575602 -0.1275503 0.21918294
-0.054142177 0.30795455 0.18206564 -0.19188152 -0.24997658 -0.04475669 0.24140571 0.025621481
-0.23119849 0.24251428 0.002657083 0.14903401 0.15120004 0.23599029 -0.07390381 -0.11127925
-0.049506035 0.14418943 -0.010324331 0.08602727 0.077827565 0.066925064 -0.054168984 0.05243327
-0.09922448 -0.16557823 0.01407567 -0.00012856207 -0.14343308 0.13115248 0.03910714 0.21936378
00000000: abff 08be 68cf a6bd b995 353e a7f8 c13c
00000010: 3526 7a3e bd57 85be e843 023e 4d83 b7be
00000020: 621e 2f3e 333f 82bc 28a4 2abd 6a47 c5bd
00000030: 1536 f0bd f651 4bbe 10a2 133c f43c 81ba
00000040: 88ae ce3d d964 a4bd e074 c03d 15ab 0fbd
00000050: 4359 ebbd d606 d1bc e1e9 31be c3a7 97bd
00000060: a3aa 8cbd 9c2c 8e3e d95d 073e 2f06 943e
00000070: 42fd 4abd ebe9 1fbc e2d3 51bd e953 adbd
00000080: e1b4 a6bb 36bc 6f3e e637 153e 8dcc d3bc
00000090: e4f1 3a3e 88e5 4c3d 610b fcbd b0d9 d3bd
000000a0: adbd 9b3d 1bfd 1c3d 91b7 8fbd b5a2 303e
000000b0: e0b4 1ebe 1941 dd3d 1b16 303e 1856 4dbe
000000c0: 64e5 bdbd 1b97 febd 1661 533d 2199 8f3e
000000d0: d7c1 72bd 8039 6f3e cb09 3fbe 704b e2bc
000000e0: 60d5 843e 0a69 773c 647a 3abd 7d85 6c3e
000000f0: d1c6 9f3e 2b01 cabd 8177 8d3c dcfb 32bd
00000100: 55ef f7bc 5edb 3e3e 1300 43be 9c12 24be
00000110: 2e6b 87bd 9d64 023e 020c a63b 15e9 ec3d
00000120: 0c13 55bd bf7e 823e 7e67 083e bd42 103e
00000130: a64c 893e 6927 373c b0d6 01be c6ac f1bc
00000140: f72e 20be 2dd9 4b3d 8f9a 38be 734a 6e3d
00000150: 4398 21bd ed89 08be 5d81 5c3e 5385 f7bd
00000160: 4144 1e3e d78d 233e 9c83 383e 7979 743d
00000170: 306e ab3e 13cd 733d 3a91 1c3e f8ea aabd
00000180: 13a2 a9bd 3172 e7bd 0d7b c3bd 968d f1bc
00000190: 904a e5bb 0e07 843d 2512 8c3d 732f a6bd
000001a0: 95e6 3dbd df70 963e 246b 6bbe ab60 f93c
000001b0: 3466 723c db94 2f3e 5ef2 eabd 738e 193e
000001c0: 4944 c8bd 515f 89bd 3686 cfbd f944 a1bd
000001d0: 2012 64be d574 993c f50f c63d 7ef0 11be
000001e0: 39a1 5ebe 85fd d53c 76d9 1ebc e4b1 cb3d
000001f0: d0f2 fa3c 73e2 993e 0316 2a3e d0b8 c73d
00000200: 3480 ef3d 7653 303e 15e8 d5bd 5112 513e
00000210: 40d9 193d 8e67 ed3d e270 bbbb cea6 093e
00000220: f6f6 483e 08df 433e 4cce 3abe 345e 883d
00000230: b297 e7bd bba5 1c3e dd17 69be 728c 773e
00000240: d5da dabd ba5b c1bb 3dd2 863e 79c3 efbc
00000250: ae27 563e c566 5c3d aad8 50be 6f6c 633e
00000260: dce0 2c3e a369 0abe b90d 663e a392 a3bc
00000270: e7a8 3bbe 6c03 053e 35a7 543e 2bbe 58be
00000280: 2e70 dd3c 4db7 e53b 2a19 383e 954b 9d3d
00000290: 2860 1bbc 30e9 023e 4f43 893e e41c 273e
000002a0: 3c67 3d3c e490 573e 2b4f 9a3e 9690 9f3d
000002b0: e9ee 043e 08b1 17be 25a8 f5bd 7abf a0be
000002c0: da28 c73d 18dc 18bc e54a 2fbe 5192 1ebe
000002d0: 0db1 a43d ab32 d03d 8078 8e3e 14e4 09bd
000002e0: 0488 6f3e 0388 9dbd bfc1 29be 81ff 4abe
000002f0: 54de 14bc 9d01 fd3d 7f92 ab3e a4c1 5dbd
00000300: 4841 59bd 944e e93c 282a 0b3e 31e0 df3c
00000310: 8695 593e 9d2d 3cbe 27b9 4f3e 6791 4ebe
00000320: d421 42be 9137 ad3d 1051 21be 972b b43d
00000330: 0ccd 5fbe b17a 0e3e e437 33bd 6496 6dbe
00000340: 1d64 1b3e db11 2f3e ffb3 b03d 2d1d cd3d
00000350: da02 813c 0b68 28be ce41 083e a211 583e
00000360: a4de 3d3e 5b43 2f3d 202d 793e 762c 273d
00000370: 12c5 a53e f2bb 293e 8c9c 02be 7e71 603e
00000380: 30c4 5dbd 38ac 9d3e 6a6f 3a3e 977c 44be
00000390: dcf9 7fbe ca52 37bd 0f33 773e 24e4 d13c
000003a0: 4cbf 6cbe aa55 783e 7522 2e3b 5f9c 183e
000003b0: 2fd4 1a3e 70a7 713e e15a 97bd 60e6 e3bd
000003c0: d7c6 4abd 65a6 133e 6227 29bc 112f b03d
000003d0: 0f64 9f3d 0210 893d 4ce0 5dbd 45c4 563d
000003e0: 3436 cbbd 578d 29be a49d 663c 9ece 06b9
000003f0: 1fe0 12be d64c 063e cf2e 203d e6a0 603e

module.model.1._model.2.weight f4 [256, 256]
-0.0069099944 0.07615307 -0.049158588 0.003481203 -0.060874913 -0.05922771 0.026625855 -0.11386119
0.030697277 -0.0104712425 -0.014832329 0.013980621 0.07775008 0.00016339675 0.03139061 0.04551949
-0.038100768 0.056838818 -0.0011730093 0.05668321 -0.07061492 -0.01745411 -0.039619897 0.006959253
-0.010959584 -0.058546882 -0.034724787 0.032012787 0.05399505 -0.029124413 0.021464339 -0.07893562
-0.032628566 -0.054284595 0.08928827 0.011455153 -0.06566403 -0.06442867 -0.031847347 -0.062021773
0.055595897 -0.04276896 0.021402342 -0.030263279 -0.06432583 -0.040335033 -0.037166115 0.00021679238
-0.028379122 -0.04288294 0.061497632 0.04302574 0.0021983718 -0.058695212 0.073038325 -0.059232615
-0.0145836575 -0.030408148 -0.04359365 -0.0032561682 -0.033172492 -0.04679654 0.020981064 -0.034423996
-0.009033035 -0.08012229 0.0048658387 -0.027036969 -0.02404262 -0.05085894 -0.03899037 0.017278584
-0.045214985 0.069767594 0.04054221 -0.0341925 0.006826499 -0.0094028255 0.009894575 0.0027147536
0.0033341364 0.0017615762 -0.034975097 -0.048583835 0.00051585876 -0.016363982 0.03481466 -0.017912483
-0.014097318 0.007791079 0.011376886 0.03219174 -0.016011711 0.051717807 -0.05200481 -0.043406464
-0.06649647 0.0037277152 -0.051646538 -0.07099508 0.053337045 -0.05588076 0.019642027 -0.0033730953
0.039470494 0.035874393 -0.04863364 -0.1051518 -0.027724164 0.07138799 -0.029511739 -0.04827984
0.06404426 -0.03610197 -0.047630556 0.06623973 -0.016853377 -0.039539263 0.026655473 0.03508107
0.00029309827 -0.017046962 -0.044078976 -0.018699907 0.028692435 -0.051921993 -0.0043674125 -0.0888092
-0.04113764 0.044024438 0.030350434 -0.0136964535 0.062047143 -0.037299287 -0.07345881 0.034543082
0.006703801 0.013050612 0.018535696 0.0040236916 -0.01736715 0.0014312228 0.03120342 0.023422513
0.053201716 0.012831938 -0.017874015 0.023194892 0.049733505 -0.025465975 -0.033047717 0.029478861
-0.028811686 -0.036883205 0.03871736 0.027966809 -0.12243592 -0.006950442 0.06581483 0.08650817
-0.017112019 -0.039759006 -0.018215131 0.06377501 -0.029417701 0.022957845 -0.011130976 0.058694996
-0.031492315 -0.051449418 0.0026579052 0.060113125 0.105228506 0.012930284 -0.07400143 0.023564706
-0.012024238 -0.032279626 0.020385116 0.053156503 -0.058929123 0.022527013 -0.02100521 0.01769227
0.0203565 0.002753418 -0.0033030831 -0.04548224 0.047605485 -0.09330327 -0.013384568 0.032684572
-0.022708945 0.03564767 -0.021976402 -0.03752033 -0.031077085 -0.05052807 -0.057095043 -0.059898425
-0.0057320944 -0.03721516 0.06330768 -0.059227288 0.037094552 0.069280475 0.06568274 0.013631253
-0.050289728 0.028543534 -0.012379523 -0.03627298 -0.0032770804 0.015733453 -0.01516194 0.04695316
0.009102106 0.032020517 -0.054530274 0.015150143 0.033338398 -0.047158346 -0.035769824 0.04348351
0.009174061 0.052331712 -0.050161596 0.09332938 0.03658961 -0.025987761 -0.008728365 -0.027067361
-0.059037652 -0.031225746 -0.0013122375 -0.06315629 0.02412313 -0.058304023 0.029746346 -0.00035905535
-0.044317417 0.05999107 -0.003518096 0.062224586 0.029253876 0.05815133 -0.0066302046 0.046753593
0.035707366 0.015168337 0.16992185 -0.02876038 0.06628273 0.033857044 -0.04570333 0.05555461
00000000: 3c6d e2bb 24f6 9b3d 845a 49bd e524 643b
00000010: f957 79bd c198 72bd 771e da3c 0e30 e9bd
00000020: db78 fb3c 938f 2bbc 4c03 73bc f90e 653c
00000030: 6f3b 9f3d 7b55 2b39 7193 003d a572 3a3d
00000040: 8d0f 1cbd d2cf 683d a9bf 99ba a72c 683d
00000050: 8e9e 90bd ecfb 8ebc 7948 22bd 720a e43b
00000060: d48f 33bc dbce 6fbd 943b 0ebd d71f 033d
00000070: ea29 5d3d 5296 eebc fbd5 af3c 00a9 a1bd
00000080: 88a5 05bd 8659 5ebd c5dc b63d 65ae 3b3c
00000090: dd7a 86bd 2ef3 83bd 5d72 02bd 8b0a 7ebd
000000a0: 86b8 633d 812e 2fbd f753 af3c b2ea f7bc
000000b0: 43bd 83bd 5936 25bd 7f3b 18bd c352 6339
000000c0: 557b e8bc 06a6 2fbd f1e4 7b3d c23b 303d
000000d0: 8f12 103b 646a 70bd 1e95 953d e69d 72bd
000000e0: 4bf0 6ebc 821a f9bc 418f 32bd 7065 55bb
000000f0: e1df 07bd bbad 3fbd 7be0 ab3c 2d00 0dbd
00000100: 4bff 13bc 2817 a4bd 9d71 9f3b a27c ddbc
00000110: 07f5 c4bc 7751 50bd 5eb4 1fbd d18b 8d3c
00000120: 5933 39bd 50e2 8e3d 970f 263d 6f0d 0cbd
00000130: d3b0 df3b 4f0e 1abc db1c 223c 02ea 313b
00000140: 8781 5a3b b0e4 e63a 0c42 0fbd d8ff 46bd
00000150: b23a 073a c20d 86bc d199 0e3d 33bd 92bc
00000160: 70f8 66bc 4f4c ff3b 1e66 3a3c 7cdb 033d
00000170: fe2a 83bc 0dd6 533d ff02 55bd faca 31bd
00000180: 4d2f 88bd af4c 743b 528b 53bd de65 91bd
00000190: f277 5a3d 39e3 64bd 51e8 a03c 260f 5dbb
000001a0: d0ab 213d 07f1 123d 1134 47bd d459 d7bd
000001b0: c91d e3bc de33 923d 9ac2 f1bc 15c1 45bd
000001c0: a329 833d a9df 13bd 4218 43bd b2a8 873d
000001d0: 1810 8abc ecf3 21bd 945c da3c 2bb1 0f3d
000001e0: fcaa 9939 12a6 8bbc 288c 34bd 8c30 99bc
000001f0: 660c eb3c 28ac 54bd 831c 8fbb 99e1 b5bd
00000200: f17f 28bd f852 343d 79a1 f83c 1767 60bc
00000210: 2525 7e3d 23c7 18bd 9371 96bd 0c7d 0d3d
00000220: 8fab db3b 3cd2 553c 2cd8 973c 2cd9 833b
00000230: 8e45 8ebc de97 bb3a 519e ff3c 92e0 bf3c
00000240: 0bea 593d 0d3d 523c 876c 92bc 3703 be3c
00000250: 5cb5 4b3d 059e d0bc 0b5d 07bd a77d f13c
00000260: 7c06 ecbc d812 17bd 1896 1e3d a61a e53c
00000270: afbf fabd 89c0 e3bb edc9 863d 322b b13d
00000280: 812e 8cbc 57da 22bd e637 95bc 799c 823d
00000290: 64fd f0bc 1712 bc3c b25e 36bc 2a6a 703d
000002a0: 16fe 00bd a0bc 52bd 4030 2e3b 2e39 763d
000002b0: 0b82 d73d 8bd9 533c 108e 97bd c50a c13c
000002c0: 4f01 45bc a437 04bd b0fe a63c a2ba 593d
000002d0: aa5f 71bd 928a b83c 1e13 acbc 61ef 903c
000002e0: adc2 a63c b072 343b 8a78 58bb 964b 3abd
000002f0: f8fd 423d c915 bfbd f24a 5bbc 42e0 053d
00000300: 1c08 babc 4b03 123d db07 b4bc ebae 19bd
00000310: 5f95 febc 86f6 4ebd 7edc 69bd 0d58 75bd
00000320: 4bd4 bbbb ec6e 18bd 75a7 813d 5098 72bd
00000330: 75f0 173d ece2 8d3d ac84 863d 9e55 5f3c
00000340: 9afc 4dbd 21d4 e93c 7cd3 4abc fa92 14bd
00000350: 49c4 56bb 71e3 803c c969 78bc f551 403d
00000360: 0021 153c f227 033d 235b 5fbd 4e38 783c
00000370: d88d 083d 1c29 41bd 6183 12bd c41b 323d
00000380: cd4e 163c c759 563d 3f76 4dbd 7923 bf3d
00000390: fdde 153d 49e4 d4bc 6b01 0fbc 5fbc ddbc
000003a0: 77d1 71bd 23cd ffbc 62ff abba 1658 81bd
000003b0: df9d c53c 33d0 6ebd 9cae f33c 983f bcb9
000003c0: 2e86 35bd 32b9 753d db8f 66bb 35df 7e3d
000003d0: d3a5 ef3c 1730 6e3d 3042 d9bb b280 3f3d
000003e0: e341 123d 9e84 783c feff 2d3e e39a ebbc
000003f0: 3dbf 873d afad 0a3d 6a33 3bbd 3b8d 633d

module.model.1._model.2.bias f4 [256]
0.0006907071 -0.049492504 -0.075257055 -0.096217334 0.08690482 0.06431445 0.12885565 0.016090441
-0.019764584 0.01898159 0.005700984 -0.07410224 -0.06947931 0.15647995 -0.0542532 -0.033588916
0.044980414 -0.05608698 -0.012083582 -0.012723943 0.032075107 0.10005008 0.020757481 0.08112026
0.041 -0.1684799 -0.02437889 0.06296624 -0.057851277 0.061782688 -0.01781858 -0.10179709
0.117608935 0.112591736 0.15080574 -0.13510297 -0.12945534 0.024744233 0.007354974 -0.038774066
0.020103611 -0.05217683 -0.11378066 -0.011784834 0.059354965 0.08178764 0.063342646 0.09066061
-0.077401005 0.07290751 -0.07527034 -0.062234007 0.116989665 0.1224933 -0.08577259 -0.049490523
0.005384938 0.0889042 -0.030570712 0.06087497 0.098218076 0.019669946 -0.046544798 -0.104323715
0.13359442 -0.1085462 -0.08276192 -0.051332824 0.10073722 -0.06686212 0.002933677 0.036716286
0.059467908 -0.009490634 -0.082891196 0.006870505 -0.083324306 0.11229246 0.15606679 0.05195879
0.05838974 0.11876293 -0.02103997 0.0016435222 -0.014338148 -0.060342137 -0.03175777 0.026694668
-0.076527216 0.06635336 -0.020340296 -0.019276338 -0.03427136 0.034729313 0.04719298 0.08512608
-0.020230044 -0.0049895104 0.24026862 -0.020662785 0.12136665 0.14196795 -0.102479905 -0.01336923
0.09229144 0.013846691 -0.041744366 0.1115089 -0.07830367 -0.0055950116 0.04625191 0.07096523
0.028267078 -0.021625586 -0.05981132 0.10972671 -0.040840168 0.10469118 -0.08796898 0.11107456
0.032379787 -0.11279448 -0.20212683 0.041635133 -0.07667743 0.056657486 0.13582744 -0.050743554
-0.023914583 -0.0042796633 0.0790736 -0.039019316 0.03326996 0.06857262 0.12553366 0.031813644
0.00097215397 -0.0413141 -0.0017608843 0.050952874 -0.066493794 -0.15117235 0.12976363 -0.09964168
0.07616619 -0.028653923 -0.06397395 0.03854138 0.016765304 0.0030433317 -0.09423514 0.11104036
0.025163686 0.15178105 0.06942746 -0.048260555 -0.05378576 0.022320244 -0.13263188 -0.053089608
-0.0023028252 0.10393993 0.10513448 -0.025109267 0.04347408 0.049888313 -0.024672061 -0.09663232
0.0198381 0.059074655 -0.04232686 0.07284714 -0.0054846625 -0.040689025 0.14891909 0.064071685
-0.0755506 -0.03623398 0.026053697 -0.021688847 0.014848022 0.07394367 0.07761051 -0.06889117
0.015093658 -0.016990656 0.024679445 0.14433135 -0.015397968 -0.08192971 0.009875835 -0.12278726
-0.040132426 0.03345884 -0.037732 0.11882716 0.07283367 -0.049579624 0.046558984 0.04444588
0.034260765 -0.046951942 -0.005078547 0.06378862 -0.06667912 0.010090534 0.059724927 -0.06947618
-0.032492872 0.024423266 -0.10683282 0.13917352 0.0064150575 -0.06097978 0.13589962 0.012188768
-0.14828143 -0.030547975 -0.070044786 -0.060624573 0.18072498 -0.033404697 -0.026559379 0.015097921
0.12588967 0.14716613 0.058593076 -0.07134751 0.027263239 -0.049633976 0.03411161 0.13949062
0.10884608 0.07463141 -0.03383476 -0.032592084 0.010334924 -0.053413443 0.117855564 -0.024657974
-0.014400342 -0.013237929 0.12670778 0.119890496 0.09670449 0.033983868 -0.05040756 0.07250471
0.04937156 0.036776826 0.06315566 0.14437346 0.018683327 0.05613636 -0.14676781 -0.0010015031
00000000: 9210 353a a7b8 4abd 5f20 9abd 980d c5bd
00000010: 27fb b13d 4bb7 833d bcf2 033e 1ad0 833c
00000020: 56e9 a1bc 487f 9b3c 52cf ba3b eac2 97bd
00000030: 2b4b 8ebd 483c 203e 9a38 5ebd 8894 09bd
00000040: 623d 383d 76bb 65bd 37fa 45bc 1678 50bc
00000050: 3061 033d 0ee7 cc3d 980b aa3c 6122 a63d
00000060: 9eef 273d ff85 2cbe 3db6 c7bc 72f4 803d
00000070: 76f5 6cbd d80f 7d3d 45f8 91bc fe7a d0bd
00000080: f4dc f03d 7f96 e63d d26c 1a3e 6f58 0abe
00000090: f18f 04be 6bb4 ca3c fe01 f13b 8ed1 1ebd
000000a0: 54b0 a43c 5fb7 55bd d605 e9bd 2d15 41bc
000000b0: 311e 733d 4780 a73d cab9 813d 45ac b93d
000000c0: 6b84 9ebd 8850 953d 5627 9abd 16e9 7ebd
000000d0: 4798 ef3d c4dd fa3d 8aa9 afbd 93b6 4abd
000000e0: 2274 b03b 6813 b63d 6e6f fabc 0858 793d
000000f0: 8f26 c93d de22 a13c c2a5 3ebd aca7 d5bd
00000100: facc 083e 784d debd 157f a9bd 5e42 52bd
00000110: 514f ce3d 02ef 88bd ef42 403b d163 163d
00000120: 9f94 733d 9b7e 1bbc dcc2 a9bd f921 e13b
00000130: efa5 aabd 97f9 e53d f9cf 1f3e bdd2 543d
00000140: 142a 6f3d fb39 f33d 045c acbc 746b d73a
00000150: 8dea 6abc 5129 77bd 6f14 02bd c7ae da3c
00000160: 4dba 9cbd 45e4 873d b1a0 a6bc 69e9 9dbc
00000170: 2060 0cbd 5340 0e3d 6d4d 413d 9556 ae3d
00000180: 7ab9 a5bc 0c7f a3bb fa08 763e 0045 a9bc
00000190: 148f f83d 0c60 113e fce0 d1bd 9d0a 5bbc
000001a0: 4b03 bd3d 3bdd 623c 24fc 2abd c75e e43d
000001b0: ad5d a0bd 5c56 b7bb a572 3d3d 3856 913d
000001c0: 5c90 e73c 2428 b1bc b7fc 74bd 66b8 e03d
000001d0: 0548 27bd 5468 d63d 1529 b4bd 0f7b e33d
000001e0: aba0 043d cb00 e7bd 56fa 4ebe 9a89 2a3d
000001f0: 0e09 9dbd ae11 683d 5916 0b3e 79d8 4fbd
00000200: 84e8 c3bc 6b3c 8cbb 57f1 a13d b8d2 1fbd
00000210: 1546 083d cd6f 8c3d e58b 003e 064f 023d
00000220: 26d8 7e3a f938 29bd 79cd e6ba f6b3 503d
00000230: e62d 88bd edcc 1abe c2e0 043e f010 ccbd
00000240: 05fd 9b3d a2bb eabc c604 83bd 91dd 1d3d
00000250: 6457 893c a272 473b 5afe c0bd 2169 e33d
00000260: 1324 ce3c 7e6c 1b3e fc2f 8e3d dcac 45bd
00000270: 754e 5cbd f2d8 b63c a7d0 07be 7d74 59bd
00000280: ffea 16bb 75de d43d bf50 d73d f3b1 cdbc
00000290: e011 323d b057 4c3d 101d cabc 2ae7 c5bd
000002a0: 8383 a23c 44f8 713d ee5e 2dbd e230 953d
000002b0: afb8 b3bb 89a9 26bd 3f7e 183e 0438 833d
000002c0: 46ba 9abd 156a 14bd 906e d53c cfac b1bc
000002d0: 1e45 733c c76f 973d 42f2 9e3d d016 8dbd
000002e0: 644b 773c fd2f 8bbc 8c2c ca3c 99cb 133e
000002f0: c247 7cbc c4ca a7bd 41ce 213c e377 fbbd
00000300: e661 24bd 230c 093d df8c 1abd a75b f33d
00000310: d229 953d 0114 4bbd a2b4 3e3d e20c 363d
00000320: 0455 0c3d ae50 40bd f169 a6bb 9ca3 823d
00000330: 108f 88bd c452 253c 20a2 743d 8749 8ebd
00000340: 3f17 05bd 4d13 c83c 2acb dabd 8183 0e3e
00000350: 6735 d23b efc5 79bd 4529 0b3e 66b3 473c
00000360: 16d7 17be bf3f fabc a473 8fbd 7951 78bd
00000370: f80f 393e 5dd3 08bd 0e93 d9bc 455d 773c
00000380: 39e9 003e b8b2 163e 4bff 6f3d a51e 92bd
00000390: 2857 df3c ff4c 4bbd 9eb8 0b3d a1d6 0e3e
000003a0: b2ea de3d 5ad8 983d 5196 0abd 477f 05bd
000003b0: d053 293c 0ec8 5abd 425e f13d 85ff c9bc
000003c0: 69ef 6bbc e6e3 58bc afbf 013e 2689 f53d
000003d0: 010d c63d ab32 0b3d 2878 4ebd 597d 943d
000003e0: d539 4a3d 4ca3 163d c157 813d a3d6 133e
000003f0: c70d 993c 3def 653d 4d4a 16be de44 83ba

module.model.1._model.4.weight f4 [256, 256]
0.07036197 0.022825325 -0.023037735 0.022343295 -0.034393 -0.0112326 0.015593197 -0.0017879804
-0.05043817 0.055976037 -0.05225675 -0.0071048806 -0.046819676 0.041240513 -0.03274372 0.0263788
0.038700618 -0.035421863 0.05991851 -0.04624246 -0.023903167 0.04150815 -0.014560432 0.0683907
-0.00061451364 -0.008341112 0.07541349 0.05410804 0.0044649313 0.025327964 -0.029371727 0.020789135
-0.017646562 -0.012117751 -0.010728364 0.045424346 -0.021558974 0.036461532 0.054868203 -0.003892778
0.084237166 -0.004718689 -0.051126063 0.03941938 -0.02185666 0.030628266 0.0065348893 -0.013491877
-0.057671256 0.042875495 -0.046576176 -0.025408382 0.04220772 0.033510037 0.040331747 0.038637787
-0.016738195 0.03218084 0.014651879 -0.02348002 -0.022454781 0.005630163 0.032627076 -0.015107513
-0.023435535 -0.08814611 -0.01292673 -0.06989561 0.065994136 0.057686348 -0.07958424 0.069960825
0.037316557 -0.021965422 0.03272055 0.015697012 0.05955389 0.008287485 0.041627742 0.07851789
-0.008042678 -0.06383694 0.064722 -0.025039036 -0.019096134 0.05108797 -0.0670136 -0.030351069
0.05608568 -0.06881704 -0.053395905 0.008359206 -0.05885559 0.046461158 0.063389264 -0.02229112
0.04655906 0.023978421 -0.05396003 -0.0062599536 -0.0015177814 0.04118743 -0.009954144 -0.030179158
-0.0681358 -0.032881666 -0.05318091 0.04134603 -0.007997448 -0.055620357 -0.07066075 0.022073502
-0.02930056 -0.06388875 -0.021207156 0.041845586 -0.03025125 -0.011260986 0.017469186 0.030216312
-0.02653728 0.05442419 0.1427762 -0.023147488 0.042903543 -0.0039590355 -0.050120987 0.0026325465
0.052509744 -0.058791228 -0.009783197 -0.026821846 0.029866358 0.026318291 0.035263192 -0.016136738
-0.050836988 0.034813877 0.059987824 -0.029303482 -0.018380007 0.012393578 0.07732109 -0.020950308
0.021603663 0.006620216 -0.009246565 0.07493963 0.0037094601 0.02410303 0.03997234 0.07487306
0.05067538 -0.048476398 0.07417667 -0.0063163596 -0.08286455 0.018023008 0.011444477 -0.005601003
-0.06800115 -0.026905399 0.034767743 -0.03263401 -0.03595102 -0.014176348 0.04529648 0.050261788
-0.0065582837 0.004536687 -0.025124583 0.061794326 0.028447414 -0.0023105792 -0.015498849 -0.046036504
0.040730286 -0.012762024 0.060253836 -0.06602909 -0.023880783 0.02750011 -0.03981895 0.0013345762
0.0293171 0.015034137 -0.05672066 -0.034634214 0.047985826 0.007927803 -0.0002983975 -5.7998106e-05
0.041978993 -0.013232213 -0.057685982 -0.019500695 -0.04990074 0.011424778 0.043222286 -0.012528492
0.022708293 -0.04853687 0.016478091 0.035615303 0.04814905 0.018871421 -0.027370987 0.025629912
0.0015262759 0.048725937 -0.011014156 -0.05537123 0.030475814 -0.022456145 -0.0020949824 0.08907862
0.05421476 0.029494684 -0.01513489 0.05115116 0.033277556 -0.049138773 -0.03259475 0.055472095
0.0079255365 0.0053402567 -0.02273056 0.03538447 -0.051755086 -0.03278789 -0.07178253 0.012959567
0.071266554 -0.040609583 -0.013442551 -0.006934366 0.036926698 -0.01920852 0.007379515 -0.03773744
-0.0021067795 -0.056830313 0.03766354 0.086713105 -0.062346663 0.01095359 0.0029332936 -0.0014723213
0.0054014125 0.02620235 0.059263226 0.063479595 0.051901925 0.01070739 -0.044986088 0.0127178775
00000000: f019 903d 2dfc ba3c a2b9 bcbc 4909 b73c
00000010: addf 0cbd f008 38bc 9c7a 7f3c ab5a eaba
00000020: 4198 4ebd 2147 653d 2d0b 56bd 0fd0 e8bb
00000030: fdc5 3fbd d0eb 283d 471e 06bd 5a18 d83c
00000040: 8a84 1e3d 8416 11bd 1d6d 753d bc68 3dbd
00000050: 93d0 c3bc 7304 2a3d e18e 6ebc 6c10 8c3d
00000060: 5017 21ba 29a9 08bc 6372 9a3d 64a0 5d3d
00000070: 8f4e 923b 977c cf3c fa9c f0bc fa4d aa3c
00000080: 868f 90bc 8889 46bc 05c6 2fbc e10e 3a3d
00000090: 729c b0bc b058 153d 7bbd 603d fa1d 7fbb
000000a0: 8984 ac3d 3b9f 9abb 9069 51bd 3776 213d
000000b0: bd0c b3bc 21e8 fa3c a022 d63b 090d 5dbc
000000c0: b238 6cbd 379e 2f3d a9c6 3ebd 3d25 d0bc
000000d0: 01e2 2c3d d241 093d e732 253d a842 1e3d
000000e0: 8a1e 89bc 0ed0 033d 6f0e 703c 2c59 c0bc
000000f0: 17f3 b7bc 3b7d b83b f8a3 053d 8185 77bc
00000100: e1fb bfbc f385 b4bd a3ca 53bc 6e25 8fbd
00000110: ef27 873d 8548 6c3d 10fd a2bd 9f47 8f3d
00000120: 3fd9 183d d4f0 b3bc fc05 063d 0597 803c
00000130: c8ee 733d 3bc8 073c da81 2a3d fdcd a03d
00000140: 70c5 03bc f1bc 82bd f88c 843d aa1e cdbc
00000150: 7f6f 9cbc 9f41 513d 6d3e 89bd cea2 f8bc
00000160: 19ba 653d f3ef 8cbd aab5 5abd 0df5 083c
00000170: 8f12 71bd 0e4e 3e3d 3bd2 813d de9b b6bc
00000180: b7b4 3e3d 656e c43c 3105 5dbd 4c20 cdbb
00000190: 4bf0 c6ba 27b4 283d b516 23bc 483a f7bc
000001a0: c88a 8bbd edae 06bd 3ad4 59bd 745a 293d
000001b0: ba07 03bc 2cd2 63bd 95b6 90bd 7dd3 b43c
000001c0: ba07 f0bc 1bd8 82bd a1ba adbc 4766 2b3d
000001d0: 78d1 f7bc 0080 38bc 8a1b 8f3c 3388 f73c
000001e0: b664 d9bc e6eb 5e3d ed33 123e cd9f bdbc
000001f0: a0bb 2f3d ccba 81bb aa4b 4dbd cd86 2c3b
00000200: 7514 573d 12cf 70bd b449 20bc 7db9 dbbc
00000210: 4baa f43c 7599 d73c 2370 103d 3131 84bc
00000220: 723a 50bd ff98 0e3d cbb5 753d db0d f0bc
00000230: ab91 96bc 6f0e 4b3c 855a 9e3d fb9f abbc
00000240: 2afa b03c 66ee d83b e87e 17bc f379 993d
00000250: 6a1a 733b b873 c53c 09ba 233d 0c57 993d
00000260: fd90 4f3d 308f 46bd f0e9 973d 77f9 cebb
00000270: e4b4 a9bd fda4 933c 9e81 3b3c 9e88 b7bb
00000280: 3044 8bbd b668 dcbc 9f68 0e3d 3dab 05bd
00000290: 6041 13bd ea43 68bc cd88 393d 4edf 4d3d
000002a0: dfe6 d6bb 7da8 943b 12d2 cdbc 0c1c 7d3d
000002b0: 8d0a e93c 166d 17bb e2ee 7dbc c690 3cbd
000002c0: cdd4 263d cf17 51bc bacc 763d 423a 87bd
000002d0: a2a1 c3bc e947 e13c 3219 23bd f2ec ae3a
000002e0: 6a2a f03c be51 763c ec53 68bd 9bdc 0dbd
000002f0: c98c 443d 9ee3 013c 3c72 9cb9 fe42 73b8
00000300: 2af2 2b3d edcb 58bc 2348 6cbd ecbf 9fbc
00000310: b864 4cbd fe2e 3b3c da09 313d 4e44 4dbc
00000320: be06 ba3c 99ce 46bd 10fd 863c 5ae1 113d
00000330: f037 453d 3d98 9a3c 1f39 e0bc d2f5 d13c
00000340: 520d c83a d994 473d b874 34bc f1cc 62bd
00000350: 6aa8 f93c f3f5 b7bc f94b 09bb da6e b63d
00000360: 4c10 5e3d d69e f13c 54f8 77bc e183 513d
00000370: 0c4e 083d bd45 49bd 1382 05bd b536 633d
00000380: 1cda 013c 52fd ae3b 7035 babc 4eef 103d
00000390: 24fd 53bd 984c 06bd b802 93bd 5d54 543c
000003a0: 33f4 913d 3c56 26bd 253e 5cbc ae39 e3bb
000003b0: 7340 173d 305b 9dbc dccf f13b 9392 1abd
000003c0: e511 0abb e7c6 68bd 1645 1a3d a496 b13d
000003d0: 375f 7fbd b076 333c 803c 403b e8fa c0ba
000003e0: 55fe b03b 50a6 d63c ffbd 723d 9701 823d
000003f0: 1d97 543d 0c6e 2f3c 5543 38bd a55e 503c

module.model.1._model.4.bias f4 [256]
0.013226677 0.06475648 0.107229024 0.005165081 0.042317152 0.015130387 -0.035476986 0.004838492
0.10914456 0.014531051 0.047890842 0.08772468 -0.012395681 -0.06474362 0.037557863 0.0822911
-0.0055991667 0.035426162 0.12092657 0.06118601 0.026112257 0.020758769 0.025629677 -0.051796548
0.13329166 0.15128809 0.13070352 0.16903591 0.12325893 0.08535027 0.031955358 -0.046390254
0.021958334 0.08584545 0.011880643 -0.014717916 0.119800694 0.003106492 -0.003480382 0.03530415
-0.00416488 -0.028212918 -0.041472737 0.1208884 0.04430128 0.04734164 0.075083345 0.08268293
0.0740624 0.08785307 0.07209995 0.03011034 0.078337274 -0.0048556123 0.018554017 -0.01466759
-0.04070856 0.055506896 0.0327341 0.021935973 0.028590431 0.10684744 0.038705166 0.15945518
0.0138068665 0.11840986 -0.055774607 0.01956105 0.031907976 0.16868776 0.0142450705 0.15989648
0.018752253 0.040871035 0.0022407977 -0.0046498757 -0.0020994511 0.023879899 0.04486319 -0.018666819
0.10079591 0.054554306 0.0025596726 -0.026066547 0.10353103 0.081352375 0.1108981 0.17583333
0.05416977 0.051165678 0.13097191 0.103457056 0.10052918 0.021859236 0.042550765 0.06138205
0.06256952 -0.0151247885 0.17287268 0.11917987 0.060562406 0.11550426 -0.048452653 0.023009356
0.02886505 0.022907436 -0.06498007 0.028802015 -0.052287444 -0.047208097 0.06291743 0.21172136
0.031165259 0.09541194 -0.036804542 0.1398489 0.02968135 0.09176277 -0.027372034 0.1501246
0.025667239 0.032951966 0.021222852 0.07525585 0.09457651 0.14076656 -0.0020788535 0.086646155
0.019983733 0.05909737 0.06811982 0.04424398 0.014213663 0.06673414 0.118595995 0.071578376
-0.03916635 0.02538921 0.012573183 -0.026292428 -0.059676692 0.037262604 -0.007178906 0.05209284
0.114613816 0.021887815 -0.05625669 -0.03410161 -0.04714719 0.08223328 0.012294668 0.068413116
0.12899287 -0.06294371 -0.00069225323 0.07759142 0.101349264 -0.0272048 0.052933704 -0.017534142
0.067914866 0.05280993 -0.10706097 0.028365629 0.03157747 0.024294367 0.043290224 0.026502136
0.024806345 -0.034837276 0.1224005 0.051427506 -0.025982589 0.01227845 -0.02229675 0.14794928
0.008664208 -0.06380224 0.045788836 0.06049102 0.04135389 0.061532125 0.10992163 0.11448597
0.11641111 0.085282065 0.06082496 0.044443462 -0.00045281852 0.06527482 -0.03409679 0.06340352
-0.05502883 0.10737425 -0.02938183 0.11139582 0.05527632 0.025306644 0.121707864 0.042634547
0.11859683 0.09742689 0.069425434 0.011632753 0.025784852 0.03411194 0.020293932 0.041091826
0.018220013 0.03425162 0.071498565 0.042976856 0.05117495 0.038298585 0.04748236 0.02672056
-0.06489038 0.07996169 0.1703969 -0.0159024 0.09370699 0.009849639 0.023249436 -0.025027607
-0.017401723 0.02839102 -0.0070170145 0.08519915 0.0651557 0.047683083 0.12074802 0.04348338
0.10287657 -0.04412908 0.15845054 -0.041565 0.028265031 0.068155244 -0.09445635 0.055012234
-0.018432917 0.11695588 0.12773295 -0.04170138 -0.036390044 0.06628132 -0.029387029 0.049810387
0.096700385 -0.015303682 0.12051672 0.04213987 -0.01419674 0.07056035 0.062315647 0.046868615
00000000: b4b4 583c 0c9f 843d e49a db3d d73f a93b
00000010: c054 2d3d 71e5 773c 5150 11bd 368c 9e3b
00000020: 2f87 df3d a513 6e3c 3029 443d ffa8 b33d
00000030: 4117 4bbc 4e98 84bd 46d6 193d 3c88 a83d
00000040: 3779 b7bb 061b 113d 59a8 f73d 2e9e 7a3d
00000050: 5fe9 d53c 4b0e aa3c 54f5 d13c 9e28 54bd
00000060: 9c7d 083e 44eb 1a3e 25d7 053e c017 2d3e
00000070: 2e6f fc3d 1fcc ae3d 9fe3 023d b503 3ebd
00000080: f7e1 b33c bdcf af3d 07a7 423c 6a23 71bc
00000090: 115a f53d 4a96 4b3b 1f17 64bb 169b 103d
000000a0: 8c79 88bb c71e e7bc 51df 29bd 5694 f73d
000000b0: 4275 353d 4fe9 413d 4cc5 993d ab55 a93d
000000c0: 07ae 973d 4fec b33d 23a9 933d f6a9 f63c
000000d0: 4b6f a03d d41b 9fbb 98fe 973c 5550 70bc
000000e0: 05be 26bd 335b 633d 3114 063d 12b3 b33c
000000f0: 7b36 ea3c d5d2 da3d 4f89 1e3d 3848 233e
00000100: 3236 623c de80 f23d ea73 64bd 7f3e a03c
00000110: f0b1 023d 7cbc 2c3e 2864 693c e7bb 233e
00000120: 539e 993c 6368 273d 59da 123b fc5d 98bb
00000130: f296 09bb c79f c33c 77c2 373d 28eb 98bc
00000140: 166e ce3d 5674 5f3d 2ec0 273b 8389 d5bc
00000150: 1408 d43d 139c a63d 8b1e e33d a70d 343e
00000160: 1fe1 5d3d 1a93 513d 801d 063e 4be1 d33d
00000170: 3ee2 cd3d 2412 b33c b649 2e3d bf6b 7b3d
00000180: 7324 803d f6cd 77bc 8905 313e 9314 f43d
00000190: 4910 783d 7f8d ec3d 4a76 46bd 1e7e bc3c
000001a0: 6676 ec3c 60a8 bb3c 4514 85bd 34f2 eb3c
000001b0: 5c2b 56bd 475d 41bd dbda 803d 7ccd 583e
000001c0: 494e ff3c 5667 c33d 5cc0 16bd 8d34 0f3e
000001d0: 4d26 f33c 1fee bb3d 513b e0bc 43ba 193e
000001e0: 1a44 d23c a4f8 063d 8cdb ad3c bd1f 9a3d
000001f0: 54b1 c13d 1c25 103e 603d 08bb 8a73 b13d
00000200: edb4 a33c 1510 723d 6782 8b3d 2d39 353d
00000210: 6ce0 683c e9ab 883d 75e2 f23d af97 923d
00000220: e56c 20bd 08fd cf3c c0ff 4d3c 3863 d7bc
00000230: 8c6f 74bd aca0 183d 073d ebbb 4d5f 553d
00000240: a6ba ea3d 134e b33c 6a6d 66bd 21ae 0bbd
00000250: 691d 41bd ec69 a83d 936f 493c 2d1c 8c3d
00000260: b516 043e a2e8 80bd 5478 35ba 40e8 9e3d
00000270: 3490 cf3d 9adc debc 03d1 583d c3a3 8fbc
00000280: f316 8b3d 3a4f 583d c842 dbbd 095f e83c
00000290: 6157 013d fb04 c73c 1751 313d 021b d93c
000002a0: ad36 cb3c 88b1 0ebd 1dad fa3d a6a5 523d
000002b0: 70d9 d4bc 8d2b 493c ada7 b6bc 0480 173e
000002c0: 53f4 0d3c c0aa 82bd 138d 3b3d 6fc5 773d
000002d0: b262 293d 1c09 7c3d 971e e13d 9f77 ea3d
000002e0: f368 ee3d 5da8 ae3d 9823 793d 590a 363d
000002f0: 4668 edb9 ceae 853d 13a9 0bbd b4d9 813d
00000300: e965 61bd 08e7 db3d 2ab2 f0bc 7e23 e43d
00000310: 6c69 623d e14f cf3c f941 f93d 90a1 2e3d
00000320: e5e2 f23d c087 c73d ec2e 8e3d 4d97 3e3c
00000330: c13a d33c f6b8 0b3d 763f a63c e74f 283d
00000340: 2342 953c 6d4b 0c3d d76d 923d 8008 303d
00000350: d39c 513d fade 1c3d dd7c 423d 13e5 da3c
00000360: 3fe5 84bd f4c2 a33d 867c 2e3e c045 82bc
00000370: 73e9 bf3d 6160 213c 9a75 be3c b206 cdbc
00000380: 0f8e 8ebc 4994 e83c fcee e5bb e47c ae3d
00000390: 5a70 853d 564f 433d bd4a f73d a11b 323d
000003a0: f3b0 d23d b2c0 34bd dc40 223e 1040 2abd
000003b0: 118c e73c fa94 8b3d 5572 c1bd 8254 613d
000003c0: a100 97bc 9086 ef3d 6dcc 023e 11cf 2abd
000003d0: ba0d 15bd 80be 873d 11bd f0bc fa05 4c3d
000003e0: da0a c63d 4bbc 7abc 78d1 f63d db9a 2c3d
000003f0: 7299 68bc f281 903d b13e 7f3d 4ef9 3f3d

module.model.1._model.6.weight f4 [256, 256]
0.0031489744 0.061717667 0.029492954 -0.002085803 0.06041541 -0.039097402 0.0051554507 0.0002598378
-0.0069541186 0.0024399937 -0.018127078 -0.0063646627 -0.0202373 0.04518721 -0.023200575 -0.005300264
-0.036018044 0.027326625 -0.029380484 -0.00057384616 0.036964383 -0.029487617 -0.004220389 -0.06409801
0.02445444 0.022228135 0.011600466 0.006448576 0.033032484 -0.057894114 -0.0100526055 0.006223179
0.013398498 0.053574346 0.009314476 0.052023325 -0.008464508 0.026982091 0.0045343307 0.015155095
0.046795502 -0.0330568 0.01199001 -0.025904218 0.029984342 0.0033731286 0.0019904461 0.045698315
0.038548317 0.05237526 0.017783858 0.0086119 -0.037435852 -0.041741222 0.044421945 0.055365507
0.029639537 0.006399007 0.024743 0.03121256 -0.04282198 0.027941646 0.04976963 -0.03725693
-0.082865775 0.021653108 0.029267482 0.0401024 0.026722617 0.071120076 0.057087272 -0.0016060619
-0.080096625 0.041725796 -0.011120022 0.0037344259 0.024590638 0.029979367 0.13315937 0.002401094
0.053873494 0.0015367167 0.02387274 -0.007837235 -0.014360645 0.016670674 -0.012181123 -0.022820756
0.049310777 0.009891566 -0.0072028292 0.0025732296 -0.0018454067 -0.036598146 -0.016476663 -0.040111512
0.051088437 -0.008096131 -0.040563535 0.018064091 -0.039770134 -0.033758923 -0.0096159475 0.03047973
-0.009747126 0.0015854369 -0.007046907 0.06574609 0.042225283 0.077696934 -0.0065829996 0.09006103
-0.03516651 0.031920366 -0.10778564 -0.011559795 -0.06316079 -0.0015311118 0.044737875 0.01877311
0.0008320001 0.01750943 -0.014709968 0.057347506 -0.0047558323 0.03452068 0.03144634 0.048746455
0.03716235 -0.0055401167 -0.051728703 0.055528544 -0.06286627 0.05355477 0.055107463 -0.036749158
-0.029527403 0.008695052 -0.01612624 -0.035469852 0.021079358 0.03669794 -0.00045170213 0.01059127
0.015851885 -0.08533997 -0.04273406 -0.03653785 -0.038068842 -0.0366415 -0.016522927 0.020634538
-0.0029511044 -0.014450087 -0.048458662 0.018294593 -0.031781793 0.031417906 -0.037241716 0.05979665
0.025830515 0.026384935 0.032498077 -0.0038324362 -0.024143094 0.029471554 0.031611186 -0.06386497
-0.09733021 -0.0048846216 -0.010303096 0.011809867 0.027155142 -0.10921209 0.07566728 0.05715681
0.054878682 0.009098846 0.031862006 -0.035512775 -0.0075027486 0.084885195 0.043574445 0.031271312
-0.05366056 -0.04074024 0.05970255 0.008280168 0.048734527 0.037090156 0.025949556 0.022905815
-0.024434635 -0.05934813 -0.01948692 0.03072315 0.0051411046 -0.009687433 -0.0020982693 -0.04811392
0.04879251 -0.0031736877 0.003319545 0.029162724 -0.035087205 -0.038178504 -0.010856725 0.05245395
-0.04162291 0.07269798 0.0057817996 0.021919994 -0.024183137 0.05098623 0.057704125 0.055223767
-0.014614038 0.06664565 0.02775998 0.029813798 0.08291342 0.0040541184 -0.09484841 -0.05378891
-0.08793065 0.019942792 -0.05380487 -0.020835178 0.005994696 0.018025005 -0.04975915 0.03173912
-0.011196274 -0.014258255 0.013214548 -0.005455314 -0.020531135 -0.13963357 0.07443401 0.013080154
-0.08910375 -0.061914597 0.056889653 0.036985476 -0.0123447245 -0.0012173423 -0.061875068 -0.058660027
0.021353716 -0.10564559 0.04790752 0.030493077 0.02982031 0.0382288 -0.085615546 0.055703327
00000000: 065f 4e3b aacb 7c3d 359b f13c f8b1 08bb
00000010: 2676 773d 9924 20bd 0eef a83b d73a 8839
00000020: 60df e3bb 4de8 1f3b 3d7f 94bc a98e d0bb
00000030: b2c8 a5bc 3916 393d 220f bebc d6ad adbb
00000040: a887 13bd 16dc df3c 57af f0bc 2a6e 16ba
00000050: f767 173d 0490 f1bc 304b 8abb d145 83bd
00000060: ae54 c83c c717 b63c e20f 3e3c 944e d33b
00000070: 124d 073d 6122 6dbd afb3 24bc cfeb cb3b
00000080: 6085 5b3c c670 5b3d be9b 183c 6916 553d
00000090: b8ae 0abc 8c09 dd3c b994 943b 134d 783c
000000a0: a4ac 3f3d 9166 07bd bf71 443c 1535 d4bc
000000b0: b9a1 f53c b50f 5d3b 2572 023b 282e 3b3d
000000c0: d7e4 1d3d 7187 563d 74af 913c ed18 0d3c
000000d0: 5656 19bd d8f8 2abd c9f3 353d f1c6 623d
000000e0: 9dce f23c c3ae d13b d5b1 ca3c 7cb1 ff3c
000000f0: 1a66 2fbd e1e5 e43c 3ddb 4b3d b99a 18bd
00000100: 88b5 a9bd dc61 b13c 5cc2 ef3c 6a42 243d
00000110: 64e9 da3c 67a7 913d 58d4 693d 7f82 d2ba
00000120: b309 a4bd abe8 2a3d c130 36bc 45bd 743b
00000130: 4e72 c93c 4a97 f53c ee5a 083e ac5b 1d3b
00000140: 74aa 5c3d a86b c93a c490 c33c bf67 00bc
00000150: e948 6bbc f090 883c 5593 47bc 98f2 babc
00000160: 19fa 493d 3c10 223c b605 ecbb a1a3 283b
00000170: 93e1 f1ba f0e7 15bd 11fa 86bc f84b 24bd
00000180: 1c42 513d a2a5 04bc f325 26bd 25fb 933c
00000190: 02e6 22bd cc46 0abd 358c 1dbc a0b0 f93c
000001a0: 69b2 1fbc 6fce cf3a bee9 e6bb e3a5 863d
000001b0: 6bf4 2c3d 921f 9f3d 34b6 d7bb eb71 b83d
000001c0: c20a 10bd eebe 023d b8be dcbd 4b65 3dbc
000001d0: 725a 81bd 96af c8ba 103f 373d 11ca 993c
000001e0: 951a 5a3a f06f 8f3c 1402 71bc 38e5 6a3d
000001f0: d0d6 9bbb 8e65 0d3d e1cd 003d 5daa 473d
00000200: 8c37 183d de89 b5bb 7ae1 53bd e671 633d
00000210: 08c0 80bd 3f5c 5b3d 5db8 613d 4986 16bd
00000220: 74e3 f1bc b175 0e3c 2d1b 84bc d648 11bd
00000230: 9eae ac3c 9450 163d 6fd2 ecb9 0287 2d3c
00000240: d0db 813c b9c6 aebd e909 2fbd b6a8 15bd
00000250: 13ee 1bbd 6615 16bd 175b 87bc c309 a93c
00000260: 5167 41bb 0fc0 6cbc 977c 46bd 8bde 953c
00000270: a02d 02bd 10b0 003d c58a 18bd 55ed 743d
00000280: 849a d33c 3825 d83c b41c 053d 9c29 7bbb
00000290: bdc7 c5bc 546e f13c bb7a 013d a3cb 82bd
000002a0: 1055 c7bd 2d0f a0bb 51ce 28bc 2c7e 413c
000002b0: 7674 de3c 97aa dfbd 72f7 9a3d 421d 6a3d
000002c0: 78c8 603d 5413 153c bc81 023d d875 11bd
000002d0: 9ed9 f5bb 4ad8 ad3d 1e7b 323d 5916 003d
000002e0: 2dcb 5bbd 3ddf 26bd a98a 743d 8ba9 073c
000002f0: db9d 473d d9eb 173d 2a94 d43c faa4 bb3c
00000300: 252b c8bc 0617 73bd 09a3 9fbc 1eaf fb3c
00000310: b676 a83b 0ab8 1ebc 1e83 09bb 1a13 45bd
00000320: a8da 473d a5fd 4fbb b98c 593b aae6 ee3c
00000330: 9ab7 0fbd 1061 1cbd 68e0 31bc f4d9 563d
00000340: c97c 2abd aee2 943d 4075 bd3b 8f91 b33c
00000350: b71b c6bc f0d6 503d 295b 6c3d 5132 623d
00000360: b86f 6fbc 847d 883d e668 e33c 113c f43c
00000370: 83ce a93d 69d8 843b e23f c2bd c351 5cbd
00000380: fc14 b4bd 115f a33c 7f62 5cbd 89ae aabc
00000390: 286f c43b 2da9 933c 40d0 4bbd e100 023d
000003a0: 9470 37bc 759b 69bc d581 583c 7ec2 b2bb
000003b0: e930 a8bc 1afc 0ebe dc70 983d 244e 563c
000003c0: 077c b6bd 299a 7dbd 2005 693d 157e 173d
000003d0: 8741 4abc 3b8f 9fba b670 7dbd 7f45 70bd
000003e0: fded ae3c b75c d8bd ad3a 443d 9ecc f93c
000003f0: b949 f43c cd95 1c3d 3457 afbd 2c29 643d
