saved_models/cnn/cnn_gen_ERCOT_tws.pt (torch, 56402 bytes, 12 tensors)

model.0.weight f4 [384, 24]
00000000: fa5d e1bc 34bd 7fbd e788 193e a191 113e
00000010: add5 073d 5b42 da3c ac7c 053e 6119 7c3c
00000020: 56fb 31be 736e 7ebe 4b0b 053b b090 3e3d
00000030: 10e4 b53e 03f1 5cbe 17fd 9cbd ac8c 9dbb
00000040: ccd2 883e e032 413e 7cb3 ce3c 347e 27bb
00000050: 97dd 6bbd 3592 fe3b 8879 90bd 3ca1 c83e
00000060: 3156 33be e5fc 1a3e 4ee0 56be d86c 82bd
00000070: 3336 59bb b469 833e c102 a4be 876f a03d
00000080: 3b46 d83d 6a23 51bd e7fa 3e3e 09aa 6bbd
00000090: 89b2 dc3d 0b95 b63d d4e1 21bd 41f4 13be
000000a0: 1718 e6bc 61f1 883d c270 ebbd 0aba 323c
000000b0: ce7b 753c 8a88 04bd 91cc f3bd 0f1a 333e
000000c0: a0a3 d7bc 2e43 1fbe 9706 123e f6e6 da3c
000000d0: a050 a6bd 7371 8fbd 84af 0d3d dd4c d73c
000000e0: 42f3 b6bd 7d7a 8e3e 0002 82bc e33b 32be
000000f0: ca5e 933d a0d6 483c 6d85 65bd 8aa1 263e
00000100: eaaf e0bd 15bf febd 3179 f23d bc41 2fbe
00000110: 5f53 423d b991 f03d f47e 793e f7b4 533d
00000120: 9649 a93a 2f30 14bc 710d 263d 2642 783e
00000130: 5f8c 23be e678 033e c7c2 1c3d f3b8 913c
00000140: 3d34 46be 8e08 333e de78 85be 6a3c 50bd
00000150: 5f6a 37be c7e6 8cbe a7b7 0d3e 3480 d43d
00000160: e26a 0cbe f95f 03bd dcb8 abbc f10f 5dbc
00000170: a4c6 823d 232b d3bd d9e2 3e3e 6eee fe3d
00000180: f4e5 b1bb c13a 8abd a70d f23d 6ba2 803d
00000190: 1d23 6ebd 6880 ebbc 5cab c1bc 3782 d2bd
000001a0: 73d1 86bd f73b 0bbd d084 f83d 5702 173d
000001b0: 25c5 2dbe e3b1 393c da25 85bd 2d96 e8bc
000001c0: e978 693d 0b49 4b3e 9432 253e 8208 95bd
000001d0: 8991 02be dd3d a5bd ac10 eabd cf37 e63d
000001e0: a773 75bd a71c d13c a97e 3abd a27e c7bb
000001f0: 5a2d e73d c1bb 213e b7d7 75bd 8c40 8ebe
00000200: 70ae e8bd 54ed 32bd 660f 22bd 6f1e 99bc
00000210: be42 493e c1de f63d 6c8c 013e 7cf1 2a3d
00000220: cd33 09be 60a6 043e dd47 05be 661b 573d
00000230: 3999 05be d782 ce3d 0452 233d bedd 88bb
00000240: e7b1 67be 0a7f 003e 7333 153d 75f8 f73d
00000250: 4f5b 9cbd 4c15 b6bd 0a32 813c ef27 10be
00000260: 8d58 0bbd 0af5 0a3e 4443 a53e 1709 96bd
00000270: 37c5 113e 18a6 bb3d 855a 0dbe 07e2 42be
00000280: 7f5b 08be f6be 46bc 723b b2bd 66e4 1c3c
00000290: 0961 99bd f535 1e3e 3236 7e3e 3705 013e
000002a0: 207e 16be c7c2 aabd 392a 03bc b08e e1bd
000002b0: cacb 07be 1308 f8bc 1532 123e 2de5 e0bd
000002c0: 60e2 0c3e 4363 e83d 2b24 38be dd50 6fbc
000002d0: 17a2 963d a47a 233e 8371 1abe 7ea2 1dbe
000002e0: 9ed0 24bd e00b 0a3d d5c4 12be 42cb fe3d
000002f0: 3687 113c 4863 283d 00d6 a2bd ddbc 3ebe
00000300: a6cf bcbd 793a dabc f215 75bd cee2 093e
00000310: a77c 463e afed 273e 4fdb bf3d ae2b cbbc
00000320: 39c9 dbbd 2f3d 05bd db78 03be 62ed 453d
00000330: 5316 003e dbce 01be a2d9 8fbd 79a4 d8bd
00000340: c411 903d 6419 113e 393b 44be 5a3e 1fbe
00000350: 91cc 523b 9adc 8abd 4cfc 53be 2d18 46be
00000360: b450 f9bc b599 8abd 995c 663e b7a6 d8bd
00000370: 60b5 76be 0a0a 1abe 0723 f83d 4e18 fe3d
00000380: dda0 edbd 05f8 3f3e b551 18be bc94 5ebe
00000390: d11d 77be 0e10 78be 64aa 423c 72c6 5a3e
000003a0: 3168 0f3d b3c8 2fbe bd20 cf3d 8a0a 86bd
000003b0: c9ea 623e aff6 9d3c 87d7 db3d 81ae 863e
000003c0: 5003 b2bd f8bf 153e 7d40 17be be75 e9bd
000003d0: 5828 3c3d b463 0bbe 1d3e f03c c609 87bc
000003e0: a011 e9bd ba45 85bd 77ac 23be 22e3 39bd
000003f0: e4f0 2bbe cd8c ff3c fb27 23bd e124 3cbc
-0.027510632 -0.062436298 0.1499363 0.1421571 0.03316276 0.026642969 0.1303584 0.01538691
-0.17381033 -0.2484682 0.002030092 0.046524704 0.3552556 -0.21576314 -0.076654606 -0.004808029
0.26723325 0.18867064 0.02523207 -0.00255574 -0.05758437 0.007768894 -0.0705443 0.39185512
-0.17513348 0.15135534 -0.20984003 -0.063684165 -0.0033143878 0.25666583 -0.3203335 0.07833772
0.105602704 -0.051059164 0.18650399 -0.057535205 0.107762404 0.089151464 -0.039522007 -0.14448644
-0.028087659 0.066866644 -0.11496116 0.010908613 0.014983131 -0.032356776 -0.11904252 0.1749041
-0.02632314 -0.15552971 0.14260326 0.026721459 -0.08120847 -0.070040606 0.034591213 0.026281768
-0.089331165 0.27827826 -0.015870094 -0.17405657 0.07195814 0.012258202 -0.056035448 0.1627256
-0.10971053 -0.1243879 0.11839522 -0.1711492 0.04744279 0.117465444 0.24364835 0.051686253
0.0012915607 -0.009044691 0.040540162 0.24243984 -0.15971516 0.12839088 0.03827169 0.017788386
-0.19355865 0.17483732 -0.26068777 -0.050838865 -0.17911671 -0.2751982 0.13839589 0.10376015
-0.13712648 -0.03207395 -0.020962171 -0.01349257 0.06385544 -0.10310962 0.18641223 0.124478206
-0.005429024 -0.06749488 0.1181901 0.06280979 -0.058138955 -0.028747752 -0.02364128 -0.10278743
-0.06582918 -0.033992734 0.12134707 0.036867466 -0.16969736 0.011333915 -0.0650136 -0.028391922
0.057000075 0.19852082 0.16132575 -0.07277013 -0.1275083 -0.0806844 -0.11428961 0.112411134
-0.059924748 0.025526358 -0.04553095 -0.006088094 0.11287947 0.15794279 -0.060020175 -0.2778362
-0.11361396 -0.043683365 -0.039565466 -0.01869127 0.19654366 0.12054206 0.12651223 0.041734204
-0.13398667 0.12954092 -0.13015695 0.052516364 -0.13046731 0.100835495 0.039873138 -0.0041768244
-0.22626458 0.12548462 0.03642602 0.12107936 -0.07634603 -0.08890781 0.01577093 -0.14077733
-0.034019995 0.13570037 0.32277882 -0.073259525 0.14235388 0.09162539 -0.13804062 -0.19031535
-0.13316153 -0.01213049 -0.087027445 0.009575939 -0.07489211 0.1545027 0.24825361 0.12599646
-0.1469655 -0.08337932 -0.008005672 -0.110135436 -0.13261333 -0.030277288 0.14276917 -0.10981212
0.1375823 0.11347058 -0.17982547 -0.014606682 0.07355135 0.15964752 -0.15082364 -0.15394017
-0.040238015 0.03370273 -0.14332898 0.12441112 0.008882334 0.041110307 -0.079509735 -0.18626733
-0.09219293 -0.02663921 -0.05983538 0.13465425 0.19383489 0.16399263 0.09368002 -0.024801102
-0.107317396 -0.032529052 -0.12839071 0.04832209 0.12508516 -0.12676565 -0.07023932 -0.10578246
0.070346385 0.14169842 -0.19163217 -0.15551129 0.0032165388 -0.06780358 -0.20701712 -0.1934516
-0.03043399 -0.067675985 0.2249626 -0.10578673 -0.24092627 -0.15042892 0.12116056 0.124069795
-0.11602948 0.18746956 -0.14874919 -0.21736425 -0.24132468 -0.24224874 0.011881445 0.21364763
0.035011474 -0.17166404 0.10113666 -0.06544979 0.22159876 0.019282667 0.10734468 0.2630501
-0.08692038 0.14624012 -0.14770694 -0.11399411 0.045936912 -0.13612252 0.029326493 -0.016484153
-0.11380315 -0.0650744 -0.15983759 -0.045382626 -0.16791111 0.031195069 -0.03983305 -0.011483402

model.0.bias f4 [384]
00000000: dc89 a2be 74b3 3d3e 121c 01bc dcb1 d8bc
00000010: ca10 9a3d 8a34 033d 4387 24be b8bd 853e
00000020: 563a 203e 1b69 803d a134 3e3e 33ac 30be
00000030: 1f98 f3bd 81b2 113e e30e ec3d aa4c 50be
00000040: b574 8ebe 04a9 b2be b7fc acbe ab4c 09be
00000050: b995 21bd 6da0 a43d bf94 a4bd 315b ba3d
00000060: 445e cfbd c471 0a3e b6b4 e33c 2582 083e
00000070: 2f6e ffbd fd53 a9be 9d71 913e 31c4 10be
00000080: 56fa 123a 63d6 413e 85bf a63d dd36 883e
00000090: aa3e e93b 3265 893d e5c1 8d3e 6101 633d
000000a0: d6ad 1a3d e846 443e 3e66 363e 4f48 4bbe
000000b0: e598 59be 5347 1a3e 3ac4 e63d 85f4 ccbe
000000c0: 731b 383e 7779 c23e 8be2 033e 5352 493c
000000d0: 2439 74be d599 7abc 59f8 dcbd b411 2b3e
000000e0: bf81 a53e 48f6 7ebe aa71 503e 8ef7 de3c
000000f0: c429 143c 4cee 963e 4454 983e 0255 4b3e
00000100: feb2 53bd 7d16 40be 5ec1 1abb bd23 82bd
00000110: 69cf a1be a645 82be 9ca6 c33d cf51 603e
00000120: 817f bdbe 4c8c 50be c3ae 673d e27f 113e
00000130: 6886 87be fdae e8bd 0b47 38bd f0fd 6ebe
00000140: c433 3ebd a1d8 b3bc 2256 813e 777e 113e
00000150: 8ffd 373e 7891 d03e 17a3 9a3e 2805 1f3e
00000160: ed8b 02be 77f3 e43c 2722 a6bd 9ea4 123d
00000170: a122 dfbc 4aa5 d23d 92fe 9e3d a250 6dbe
00000180: 703b 913e 6cac 72be 9094 b0be 284a 683c
00000190: 847d 023e 70db a8be 7834 e0bd 03a8 473b
000001a0: 757c acbc 4add 713e d369 9ebd 26f6 703e
000001b0: e9de 9fbd a9c9 843e e3bb fa3d 39cf 363e
000001c0: 9192 9e3d 7aca 7c3d a80d 623e d468 2c3c
000001d0: e291 6a3e c3a8 3dbd 05fa b63e 6e26 c03d
000001e0: 2c25 313c 8d79 fd3c 9620 a5bd c924 033e
000001f0: a0c5 f33d c05a da3d 0492 393e 40f8 b73d
00000200: 8993 393e 9437 af3d 1d55 343e ca30 063d
00000210: 4d9b 383d f2eb 80be 1bb8 2fbc bb6e aa3b
00000220: 0faa 843d c76a 19be 5636 013c 5d68 9f3d
00000230: 788e 5cbe 2e51 d13d 9793 8f3d f9b5 46bd
00000240: 1997 183c cb23 ad3d c5e8 0bbe c23c 8e3c
00000250: 487d cd3d 33a3 f53d af44 653d 37de 32be
00000260: a163 91be a964 9abd 5659 8cbe 122f 663d
00000270: f50a 91be 16c0 07be 96f3 99bd bcb9 82be
00000280: 81f8 b83c 8ec1 153d 3492 81bd 9c20 7e3e
00000290: b2c4 a33d 0149 36bd 98fd ce3d 232c 843e
000002a0: 2012 a4be 9178 4cbe 20a5 6c3d 1340 d03d
000002b0: 2535 5ebe 317e dcbd d911 68be c0b2 eabd
000002c0: 8b7e 623e a098 993b 4776 c73d 3cbd b83d
000002d0: 91d1 babd 4368 883d 7a81 983d 8886 393d
000002e0: bfc2 463e df07 823e a90d 613d 4139 55be
000002f0: fc88 56be e932 bf3c 2489 ea3c bff6 1ebe
00000300: 890c 553e 318c 373e 0739 88be 7a54 d9bb
00000310: d47d 0cbe 4dff 21be 2527 52be 95a9 393d
00000320: c73b ae3c c846 8f3c d9e4 b13d 0480 7f3d
00000330: 8878 8b3d e55d db3d 3976 803e d8de fabb
00000340: 22dd 313e d258 5bbd e738 84be e061 193c
00000350: dfae 47bd e4c7 203e f6a3 773e f688 0dbd
00000360: d0f2 d4be 5770 9dbd 2a94 9b3e cd6c 423e
00000370: ad7e ffbd e279 58bd 7dd9 753e 4341 17bd
00000380: afda 273e 1135 a7ba 9ce8 4a3e 621a c8bd
00000390: 041f 83be e56d 3abe 5a1d b8bd a954 92be
000003a0: c905 8cbd 5ece 8abe 525a 86bd 97f3 96bc
000003b0: 3188 003e 5719 9f3d 8cee dabd c3d0 c83c
000003c0: f507 923e e9fd aa3e 0023 a53e 34a0 c83d
000003d0: bd0d 05be 5527 4a3e 2f30 acba f0f9 78be
000003e0: a253 dbbd 0355 6bbe 2120 c1bb 2f2e 5cbc
000003f0: 4e62 81be d9c2 7abe 54fd 49be 5b76 20be
-0.31745803 0.18525487 -0.007880228 -0.026451997 0.075227335 0.032032527 -0.16067223 0.26121306
0.15647253 0.06270047 0.18574764 -0.17253189 -0.11894249 0.1422825 0.11526277 -0.20341745
-0.27823415 -0.34894574 -0.33786556 -0.13408153 -0.039449427 0.08038411 -0.080361836 0.09099425
-0.101254016 0.1351996 0.02779613 0.13330896 -0.12472188 -0.3307189 0.28406993 -0.14137341
0.0005606761 0.18929438 0.08141998 0.26604357 0.007118066 0.067087546 0.27686992 0.055421237
0.03776344 0.19167674 0.1781244 -0.19851802 -0.21249731 0.1506627 0.11267896 -0.40030304
0.17979221 0.37983295 0.12879388 0.012287694 -0.23849922 -0.0152954655 -0.10789556 0.16705972
0.3232555 -0.24898636 0.2035586 0.027217653 0.009043161 0.2947868 0.2975179 0.19856647
-0.051684372 -0.18758579 -0.002361379 -0.06354473 -0.31603554 -0.25443763 0.095532626 0.21906208
-0.3701134 -0.20366019 0.05656315 0.1420894 -0.2646973 -0.11361501 -0.044989627 -0.23339057
-0.046436086 -0.021953883 0.25261027 0.14208399 0.17967819 0.40735984 0.30202553 0.1552931
-0.1274869 0.027948124 -0.08111983 0.035801522 -0.027238192 0.10285433 0.07763399 -0.2317529
0.2836566 -0.23698586 -0.34488344 0.0141778365 0.12743193 -0.32979918 -0.109475076 0.0030465133
-0.02105544 0.23619571 -0.07735028 0.23531398 -0.078061886 0.25935104 0.12242868 0.17852487
0.07742799 0.061716534 0.22075522 0.01052304 0.22907212 -0.04630352 0.35737625 0.0938233
0.010812085 0.030941749 -0.08062856 0.12807001 0.11902928 0.106618404 0.18122107 0.08982897
0.18122686 0.085555226 0.17610593 0.032761373 0.04506998 -0.25180012 -0.0107250465 0.0052011884
0.064777486 -0.14982139 0.00788649 0.077835776 -0.21538723 0.10220562 0.070105724 -0.048513386
0.009313368 0.084540926 -0.13663013 0.017362956 0.10033661 0.119940184 0.055973705 -0.1746758
-0.28396323 -0.07538731 -0.27411908 0.056197233 -0.28328672 -0.13256869 -0.075171635 -0.2553233
0.022579433 0.03656154 -0.06326714 0.24817127 0.07996501 -0.044503216 0.10106963 0.25814924
-0.32045078 -0.19967867 0.057774663 0.10168471 -0.2169996 -0.107662566 -0.22663058 -0.11459875
0.22118585 0.004687384 0.097393565 0.090204686 -0.09122003 0.06660511 0.07446571 0.045294315
0.19410227 0.2539663 0.054944668 -0.20822622 -0.20950693 0.023339706 0.028629847 -0.15523814
0.20805563 0.17924573 -0.26606008 -0.006632385 -0.13719875 -0.15820046 -0.20522745 0.04532774
0.021268738 0.017489806 0.08686227 0.062377945 0.06810099 0.10711268 0.25090197 -0.0076559596
0.17369512 -0.053551503 -0.25824663 0.009361714 -0.048750754 0.15701252 0.2418364 -0.034554444
-0.415915 -0.07687443 0.30386478 0.18986817 -0.12475333 -0.05285061 0.24008746 -0.036927473
0.16392015 -0.0012756904 0.19815296 -0.09770657 -0.256096 -0.18205984 -0.08989973 -0.28580216
-0.06837041 -0.2711057 -0.06560196 -0.0184267 0.12551953 0.07768505 -0.106900305 0.024513608
0.28521696 0.33396843 0.32253265 0.09796181 -0.12993522 0.19741566 -0.0013136918 -0.24314094
-0.10709311 -0.22981648 -0.0058937226 -0.013438745 -0.25270313 -0.24488391 -0.19725543 -0.15670149

model.2.weight f4 [16, 16, 3]
00000000: 9850 07be 9b81 adbd f9bb e73c 48a0 f33c
00000010: ad83 57be 6948 4f3e 97e3 3dbe af82 3dbd
00000020: 9cea 2e3e 6d12 16be 2690 1bbd e2a7 81bd
00000030: c840 aa3d 339c d23b 0f7e 29be 6d35 1d3e
00000040: 4a17 443d 8090 4ebd f122 933c cfef 893e
00000050: 90be 673d 5fd3 f6bd 4e73 173e 6632 53be
00000060: df42 86bd 8e9c ea3c 214d d8bd 9afa 17be
00000070: fdf0 d0bd 6ca3 e8bd a4c6 ca3d 4771 e7bc
00000080: 1397 0abe ce7f 213e 66d2 3b3e e996 493c
00000090: 72be 2f3e 0bd5 18be 0586 6dbd fb11 063d
000000a0: 377b efbd 0634 aabc 4fc5 b4bd 3fc7 ce3d
000000b0: 118b 42bc bff5 443d c604 0bbd 58f6 e03d
000000c0: 2020 173d f56d e0bd 34d7 3ebd d59c 5ebd
000000d0: 1c92 db3d 4931 f0bb ceeb 633e 3425 603d
000000e0: a05f babd e0af f43c bdfb b0bd 3db9 c8bd
000000f0: c969 283a b5f5 86be 45da 20be 19ee b33d
00000100: 1329 2dbe 712a 1dbe 9464 f13b dcd4 20be
00000110: de3b a23c bf0d d13d d7bb dfbb fa5b 9a3d
00000120: 15a5 733d c6e4 43bd b750 88bd a69e 453e
00000130: edef 34be 6d1c 9dbd f7d8 35bd ce14 1ebd
00000140: 4d7b b13e 8d64 f53d 18cf a33d cf28 e33d
00000150: 4d96 e5bd 10dc fbbd d40d 233d e8c7 e63d
00000160: e1cd b93d b3ff 1abe fe21 1d3e 995b b9bd
00000170: 0f90 b33d a83f f03d b153 8b3d f631 fd3d
00000180: 46c0 38bb 68de 063e ef91 4b3e c2d5 acbc
00000190: 2dce 0dbc 6356 94bd 37c9 e4bc 0e63 c73d
000001a0: 9da4 f43c d54b 103e c2ee da3d 7678 533d
000001b0: 35ce 54bc eaf6 133e d3d3 2b3e bdd7 d03c
000001c0: 9aba 53be c0ac 57be b832 e93a 9e41 51bd
000001d0: 1147 8fbe 84ba 87bc 4df1 4c3d 9795 303e
000001e0: d650 7dbd cd62 0fbe bb7f eb3c 8709 75bd
000001f0: 1a95 6d3d 055b 533e f712 c9bd 49d1 9c3d
00000200: bbc5 5cbe cbb1 67bd 9981 823d 9397 37be
00000210: 5e62 c83d 952e 15bc 591a a0bd 0dc0 063d
00000220: 6a58 8abd b464 97bd ef76 b3bd ed68 703d
00000230: fcab f63d 0144 e13d ad5e a93c 4890 8abc
00000240: d0c3 403e 0833 f33d ec53 d33d a944 0ebc
00000250: 9e12 0abe c8f0 13bd f55c b83d cd32 f33d
00000260: 24f4 c83d ed4a 2d3e 2492 783c a530 403e
00000270: 14d2 37bd eeaf 29be 0a07 433d 394c 27be
00000280: d72a 2abe fcf0 013e 5aea c2bd 27dc 233c
00000290: 156a 73bd 148a 023e 2109 f4bd 0b57 adbd
000002a0: ceee fb3a 27de ec3d 82e0 853d 76c7 423e
000002b0: c7f2 5c3e 7bc3 c53d 771f 8d3d 134a 23be
000002c0: 94e7 463b c223 d4bd e5b3 093e c927 1f3e
000002d0: 033f 1d3e a3e1 dbbd d4b1 a63c 1205 243d
000002e0: e18d 40be 55d4 febd 81ed cd3d db8b 053d
000002f0: ac9d 873b 6774 09bd bc3b 383d c377 c3bc
00000300: f240 d5bd 5d3c febc fc1d b1bd 30da 00be
00000310: 9c2d 303e ca3e 333c fd8c 423e 02c0 b7bc
00000320: 7536 573d ff2e 39be cd5b 36bd 5f5f 6fbc
00000330: 0a1d 6fbe b2c2 4cbd c681 ae3d c837 25be
00000340: b490 73be 4b94 173e 1253 4b3e 1a22 8cbd
00000350: 900c 4a3e 13be f5bd f41c 3cbc 3985 da3c
00000360: 6406 1c3e 6cb3 173e c07d 083e 1730 f43d
00000370: 1c1e 90bd c267 c03d 259e 3e3d 1d6f 873e
00000380: 2087 54bd e0fc 313e deda 963d afd8 d53d
00000390: 496c 42be 437a 543e 7de8 133e fa7f 5ebe
000003a0: 7ed1 8b3e 08b4 76be 5e20 02be c5a2 64be
000003b0: 0b0b 04be 2a9f 01bc 7d2a 4a3e a0ed 3b3e
000003c0: dd6b 5fbe c941 3cbe 96f2 6d3d 4eb1 9bbb
000003d0: 762b 3bbd 1a41 61bc f608 b4bd c1fa 703b
000003e0: 0d59 b9bd d029 cebd 1dca 10be 92bf 36be
000003f0: e443 d0bd e781 d0bd df1d 593d 94b7 f8bc
-0.13214338 -0.08471986 0.028287875 0.029739514 -0.21046324 0.20242466 -0.1854385 -0.046267208
0.17081684 -0.14655466 -0.037979268 -0.06330849 0.08313137 0.006427312 -0.16551994 0.15352412
0.047873773 -0.050430775 0.017960997 0.26940772 0.05657822 -0.120520346 0.14790079 -0.20624694
-0.065557234 0.028639104 -0.10561586 -0.1484169 -0.10202215 -0.11359295 0.09901169 -0.028252257
-0.13534193 0.1577141 0.1834198 0.012304046 0.17162493 -0.1492502 -0.05798914 0.03273199
-0.11693423 -0.02077676 -0.08826696 0.10096597 -0.011873976 0.048085924 -0.0339401 0.10984486
0.03689587 -0.10958473 -0.046591952 -0.054348785 0.107212275 -0.007330094 0.22257921 0.05472298
-0.0910027 0.02986902 -0.08641765 -0.098009564 0.00064244546 -0.26359335 -0.15708263 0.08785648
-0.169102 -0.15348221 0.007366726 -0.157062 0.019803938 0.102077 -0.006827812 0.075370744
0.059483606 -0.047825597 -0.0665602 0.19298801 -0.1766965 -0.076714374 -0.044396367 -0.03859406
0.34664384 0.11982069 0.079984844 0.11091768 -0.11210308 -0.12297833 0.03980811 0.11268598
0.090724714 -0.15136604 0.15344998 -0.09050674 0.08767711 0.117308915 0.06803072 0.12363045
-0.0028190776 0.13170779 0.19879888 -0.021098021 -0.008655113 -0.072430395 -0.027927978 0.0973569
0.02986365 0.14091428 0.10690071 0.051628552 -0.012988617 0.14449659 0.16780023 0.025493497
-0.20676652 -0.21061993 0.0017791605 -0.051087968 -0.27983907 -0.01656843 0.05003481 0.17244564
-0.06184467 -0.14002533 0.02874743 -0.05982354 0.058003522 0.2064019 -0.098180704 0.076571055
-0.21559803 -0.05656604 0.06372375 -0.17928915 0.09784387 -0.009105344 -0.078175254 0.032897998
-0.06755145 -0.073922545 -0.08762919 0.058693815 0.12044522 0.10999299 0.020675028 -0.016914502
0.18824697 0.11874968 0.10318741 -0.008683362 -0.13483664 -0.0361183 0.09002105 0.11874924
0.09812191 0.16923113 0.015171561 0.18768556 -0.04487808 -0.16571018 0.047614135 -0.1633767
-0.16617905 0.12689584 -0.09517355 0.010001219 -0.05942734 0.12747985 -0.11915804 -0.08463868
0.001922095 0.1156581 0.06536962 0.19021401 0.21576987 0.096564256 0.06890767 -0.15946226
0.0030350434 -0.10358383 0.1344753 0.1554252 0.15356068 -0.10736396 0.020348467 0.040043898
-0.18804123 -0.12442843 0.10055066 0.03260408 0.004138669 -0.033558276 0.044978842 -0.023860818
-0.10412778 -0.031034643 -0.08648297 -0.12583232 0.17204899 0.010940263 0.18999095 -0.022430424
0.05254217 -0.18084334 -0.04452114 -0.014610141 -0.23350921 -0.049990363 0.08520846 -0.1613456
-0.23785669 0.14802663 0.19855908 -0.06842442 0.19731355 -0.119991444 -0.011481512 0.026674854
0.15236813 0.14814538 0.1332922 0.11923235 -0.07036993 0.0939479 0.046537537 0.2645196
-0.051886678 0.1738162 0.07365964 0.1044172 -0.1898662 0.20749764 0.14444156 -0.21728507
0.27308267 -0.24092114 -0.1270766 -0.22327717 -0.12894838 -0.007911483 0.1974277 0.18352365
-0.2181849 -0.1838447 0.058092676 -0.004751361 -0.045695744 -0.013748432 -0.08790772 0.0036770555
-0.09050188 -0.10066569 -0.141396 -0.17846516 -0.10169199 -0.10181027 0.053007003 -0.030360974

model.2.bias f4 [16]
00000000: e179 3d3e f0f4 9a3d d5ec 8a3d e38e 353d
00000010: d6a0 953c 530a ee3d 4ccc ea3c d721 f63d
00000020: 1414 a73e 2e30 a73d 3a08 343d 0af0 5bbd
00000030: 2f71 acbd f129 2d3e cb5d 26bd 6b5a a03c
0.18503524 0.07566249 0.067834534 0.04432572 0.01826517 0.11623063 0.02866187 0.12018173
0.32632506 0.081634864 0.043953158 -0.053695716 -0.084200256 0.1691053 -0.04061679 0.019574365

model.4.weight f4 [16, 16, 3]
00000000: 5b5e 383d 2c6e e13c ecb6 5e3e 0682 993d
00000010: 96d1 303d fb67 edbc 01ba 803d 784a ef3d
00000020: 6d93 8fbd 2027 8fbd 537b 913d d87d 6d3e
00000030: 34ae 3fbe 4795 d0bc d2f1 bbbd 39c9 403e
00000040: 08a0 ec3d 5b1a e23d 3339 443e d623 e43d
00000050: 6d54 a53d 4251 b43c 6d0c 863c c147 a03d
00000060: 775b 3ebe 9a0e a3bd a183 053e a300 91bd
00000070: 9f02 30bb 7452 c33d cf8d 4e3e 830c 053d
00000080: ebd6 d23d 3437 113d 0040 153e 693f c13d
00000090: d1c1 6d3d 853c 13be 7aac c9bd ecff e23d
000000a0: 3813 4e3d feab e2bd 4a11 9fbc d1ba 2fbe
000000b0: 1441 6ebd 24df b7bd 32fd 31bc 25aa 2dbd
000000c0: 9f21 37bd f2d7 253e 9a36 043e 4940 7ebd
000000d0: b41b ae3c e4b9 d8bd 6c76 d2bd 0fb0 dc3d
000000e0: baf0 22bd ee37 85bd dc89 873e a959 093e
000000f0: 6dee 1bbe 8297 233e 2404 593e a3af 1e3e
00000100: 1c77 1bbe bea8 64bd 16bc ccbd a936 e4bd
00000110: d054 a5bc 154d 86bc 887c c3bc 8c92 8dbe
00000120: 1d64 00bd 8297 b63d 510c 773d f8dc 8dbd
00000130: 6532 0a3e 2b02 ef3d abdb e3bd f70e 983d
00000140: a088 583d d153 fabd 9473 cdbd 4157 fb3d
00000150: 39c1 923d 34e7 0c3d 193c 2e3e 200b 7a3e
00000160: fa95 693e 5244 563d f3eb a5bd 573d b83d
00000170: 60cf 9f3d a18b 3b3b 15e7 a33c 69fc b43d
00000180: 6dd4 d93d 16ac 02be 8615 143e 19ff 253e
00000190: 8547 ecbc c0e3 243d f82d ca3d 90ab e93d
000001a0: cee4 0fbc 7293 0c3d e1d4 963d 15c4 73bd
000001b0: 9155 463d 91cf e5bd 69df b5bd 96ee 33bd
000001c0: f536 e53d 7270 85bd 42d5 bd3d bfa1 923d
000001d0: e273 03be 6cb2 773c 8c89 1a3e d1f3 11be
000001e0: b9ea 10be c990 4e3d 39d8 12be 30dd 44bd
000001f0: aa6e ae3d 5df6 ebbc a00b 293e 1ea8 303e
00000200: 0040 273e 0d24 573d b7c0 84bd d6ba 8f3d
00000210: 84c4 47bc bf69 57bd 6c4c 173e 5bd7 96bd
00000220: 5ac9 343d 39ac edbc 06c9 b03d ec1f 543d
00000230: 49aa 093e e4e5 13bd a79f bbbd 0f08 3cbd
00000240: 4d38 7f3d cd1c 32be 9e96 85be 5dfd ec3b
00000250: fb44 923c 6445 fd3d 0e20 ccbd 3c12 cb3d
00000260: e196 073e dedb fd3b 1ccd bcbd c007 50bd
00000270: 4c30 133e ff36 d33d ca37 17bd 0544 873d
00000280: c5a9 4d3e 7ffb 083e fb0d 32ba 827a f93c
00000290: bd52 d4bd da9a a7bd 2d9c 98bc 7e26 a0bc
000002a0: 2e9a 24bd dc66 88bc 89ca 25bd 6bab 733b
000002b0: 937a 1abd 722f bc3d 8081 cabc 0d1c 643b
000002c0: 1015 babd 99f9 15bd d926 b0bd 361b 3cbe
000002d0: e0aa 4a3e c11a 423e 1b50 1c3e 916b 26bd
000002e0: 5517 f1bd b1e7 e43d c86d 4d3e 0bbd 58bc
000002f0: 8d51 afbc 078d c0bb c8d6 77bc 681d 0fbe
00000300: 7a47 b7bc 8075 c43d cc2f 163c b5ac c0bd
00000310: 60d6 72bd 9131 a6be 3d10 44be eaa5 61be
00000320: 578a 3dbe aec0 d23d 833b 533d 7710 5fbe
00000330: 8a30 4c3e 7b5e 763e af34 313e 80a9 073d
00000340: b9c0 c5bd 6200 01be 549f 063e 97a1 b03d
00000350: 4cba d33d 2488 1d3e 5aa9 adbd 5788 8abe
00000360: 4631 78bc 0e04 853c 77ae 783d 4c13 5fbe
00000370: 56ea 4dbd b045 413d aa86 febd fc30 d1bd
00000380: 577f e5bd 0a73 44bd 6b6b bebd 3145 a73d
00000390: 7cbd 33bd ff89 35be 77ce 10be 5ecf 073d
000003a0: 2b46 0f3e bd16 113e 6e33 263e d0fc d7bd
000003b0: 2282 f2bd 893a 7fbc cc56 2c3d f15d 1b3e
000003c0: 2579 a0bd b49d 90bd 2ad3 bcbd ab23 b5bc
000003d0: a98a 17be e8a8 32be 9714 f3bd 3f84 34be
000003e0: ab27 ae3d 6d1b 02bc e910 94bd 6e28 3cbd
000003f0: 0c4c be3d 0cd1 603e c35f 223e 20e8 c9bd
0.04501186 0.027518354 0.21749467 0.07495503 0.043168627 -0.028980246 0.062854774 0.11684126
-0.07010541 -0.069898844 0.071036 0.23192537 -0.18718797 -0.025461806 -0.09176983 0.1882676
0.11553961 0.11040183 0.19162445 0.11139648 0.080727436 0.022011403 0.016363347 0.07826186
-0.18589579 -0.079617694 0.13038494 -0.070801996 -0.002685703 0.09537211 0.20171283 0.032482635
0.102948986 0.035453036 0.14575195 0.09435923 0.058046166 -0.14378555 -0.098473504 0.110839695
0.050311297 -0.11067961 -0.019417424 -0.17161109 -0.058167532 -0.089781076 -0.010863589 -0.04239859
-0.044709798 0.16195658 0.12911454 -0.062073026 0.021253444 -0.10582331 -0.102764934 0.10775768
-0.039780356 -0.06504808 0.26472366 0.13413109 -0.15227671 0.15975764 0.21192986 0.15496688
-0.15182155 -0.055824988 -0.09996812 -0.11143238 -0.020182043 -0.016394177 -0.023863092 -0.2765087
-0.031345475 0.089156166 0.06031448 -0.06926912 0.13495786 0.116703354 -0.11125883 0.07424729
0.05286467 -0.12223018 -0.100318104 0.12272502 0.071657605 0.03440018 0.17015113 0.24418306
0.22811118 0.05231125 -0.08101644 0.08996075 0.078032255 0.002861716 0.02000765 0.08837206
0.1063622 -0.12760958 0.14461336 0.16210593 -0.028842697 0.04025626 0.09872049 0.11409676
-0.008782579 0.034320302 0.07364822 -0.05951317 0.048421446 -0.11221231 -0.08880503 -0.043928705
0.11192123 -0.06515588 0.09269191 0.07159757 -0.12837175 0.015118223 0.15091532 -0.14253165
-0.1415204 0.050431047 -0.14340295 -0.048062503 0.08517201 -0.028803999 0.16508341 0.17251632
0.16333008 0.052524615 -0.0648207 0.07018058 -0.012192849 -0.05259108 0.14775246 -0.073652945
0.044137336 -0.029012786 0.08632092 0.051788256 0.13443865 -0.036107913 -0.09161311 -0.045906123
0.062309552 -0.17393799 -0.26091474 0.0072323517 0.017855158 0.12366751 -0.099670514 0.09915587
0.1324115 0.0077471575 -0.09218809 -0.05078864 0.14373893 0.10313224 -0.03691844 0.066047706
0.20084293 0.13377188 -0.00067922444 0.030453924 -0.103673436 -0.081838325 -0.018629158 -0.019549605
-0.0401861 -0.01665061 -0.040476356 0.003718103 -0.037714552 0.09188737 -0.024719954 0.0034806759
-0.090860486 -0.036614988 -0.086011596 -0.18369755 0.19791746 0.18955518 0.15264933 -0.040629927
-0.11772028 0.11177004 0.2006141 -0.013228665 -0.021401191 -0.005876187 -0.015126891 -0.13976061
-0.02237295 0.09592724 0.009166669 -0.09407941 -0.059286475 -0.3245969 -0.1914682 -0.22035947
-0.18509804 0.10290657 0.051570427 -0.21783625 0.19940391 0.24059479 0.17305253 0.033120632
-0.096558996 -0.12597802 0.13146716 0.08624571 0.10338268 0.15383965 -0.08479567 -0.27057144
-0.015148466 0.016237285 0.060713258 -0.21784705 -0.05027231 0.0471856 -0.12428029 -0.10214421
-0.11205929 -0.047961272 -0.09297832 0.08167494 -0.04388188 -0.17728423 -0.1414126 0.033156745
0.1399161 0.1416883 0.16230556 -0.10546267 -0.11841227 -0.015577921 0.042074963 0.15172555
-0.078356065 -0.070613295 -0.09219964 -0.022111734 -0.14798988 -0.17447245 -0.118691616 -0.17628573
0.0850366 -0.007941109 -0.07229788 -0.045936994 0.092918485 0.21954745 0.15856843 -0.098587275

model.4.bias f4 [16]
00000000: 1a7c 7d3e cb2b c8bc 883e c1bc bd4b 513d
00000010: aa0d 2d3e da92 dc3d 83ec fa3d c7a5 623d
00000020: b8f9 803d 85ea 5bbd 04b5 19bd c7fb 0f3e
00000030: 4256 e23d f863 83bd cd8a 563e 3273 e43c
0.24754372 -0.024434945 -0.023589388 0.05109762 0.16899744 0.10770197 0.12252142 0.05533388
0.0629763 -0.053690452 -0.037526146 0.14060889 0.110516086 -0.06415552 0.20951386 0.02788696

model.6.weight f4 [16, 16, 3]
00000000: 3644 9d3c 0639 043d c593 9cbd d449 e03d
00000010: fe87 6f3d 6acd 273e 042b df3d d679 213e
00000020: 4e50 0c3c b7a7 3fbd d3c3 053e 9337 0c3e
00000030: 3750 0f3e 8466 0e3e 8180 493d 2f87 bebb
00000040: 4c16 293e e5f8 973d a497 a83d fbe5 3a3d
00000050: d0db 063e d549 883e fe1e 77bd cbfe 0abd
00000060: 2e7f 223e 61c3 01bd 1b53 633d b842 63bb
00000070: 3d8e 6dbc 0aeb 3f3e 1224 283e 4297 1ebd
00000080: 15ec 073d 3f0a 903e b792 de3d f6e1 55bd
00000090: f953 923c a679 6f3c 1883 4b3e dc25 613e
000000a0: e7a6 9c3e cc2d ad3a 74b6 cdbb 67b1 e9bd
000000b0: d11f 403e b62d e33b aae7 873e 03aa 593e
000000c0: b452 553d fbf2 183e 743c 573d 2f6e 73bd
000000d0: ae89 da3d 0512 a43d cda5 233c 1e55 363e
000000e0: f551 ec3d 2156 04be d56a 103e 9e6b eabd
000000f0: 4ca5 3c3c dc9e a5bd 1b1c 2a3e 1b45 25be
00000100: b2d7 473d 2871 5b3c c610 db3c c8c2 2b3e
00000110: cb01 203d 9704 d7bd 8331 4a3e 5086 38bc
00000120: a38c 663d 6d4c 1e3d 3d68 8a3d df01 193e
00000130: f721 473e a7a8 dabc 800e abbd b174 b23c
00000140: d547 62bd 25bc 83be c7df 42bd 2910 ebbd
00000150: ba14 d23c c810 503e 75ab 903d 8265 373e
00000160: 2592 ef3d 8fcf aa3d 939e f8bc dfea 2bbd
00000170: 2c35 26bd bab9 433e 937b 0cbd 7166 0b3e
00000180: 1a86 f23d 25da 0c3e 1fc1 ba3d 117a 583e
00000190: 1ba4 ff3d c35b 2ebe 67a9 6dbd 5252 b23c
000001a0: 6627 cfba 994c 023e 6256 aebb db56 c33d
000001b0: 878a da3c 8464 393d 552e 6b3d ba4f 2d3d
000001c0: 7a81 0abe 6965 edbd 7e92 2abc db96 283e
000001d0: c3cd 07be f419 a7bc 10dd 5ebc 4ed5 653d
000001e0: 4da5 e8bc fc36 273e 796f b6bb 0c8d 8c3d
000001f0: fd7a 70bb b8e4 0cbd 54bb 653d bd26 cd39
00000200: d4c0 e03d e32f 8bbe 991b e63c cdbc 4cbd
00000210: d67f b7bd 890b b73d 8aba 21be d364 d83b
00000220: a68e a1bd 87d8 22bd b114 e8bd 8b6b 0cbd
00000230: ca8e 983c b95d 913d f30a 1f3e cc33 bc3d
00000240: ad72 873c 07d4 5bbd bde3 503d 5ce6 41be
00000250: f2bb a9b7 87c8 ec3c babe 0c3e ba08 0c3e
00000260: c7d6 0a3d 99e9 c43d f3ce c83d 26cc 0f3e
00000270: bd16 be3b 4291 c13d 4090 313e 762f 93bc
00000280: d4c6 0bbd a2fa c13d 3a40 f23d e688 e03d
00000290: d739 943c fd22 70bd e61d 243e 589e 653d
000002a0: 4fce f4bc 861d 92bd 1965 ab3d 3023 503e
000002b0: 37fa 5c3e 7117 bd3d a82e 943c 77e5 2e3c
000002c0: 2325 5e3e cf99 debc 9f66 17be 7e09 0fbd
000002d0: 8a50 69bd 3117 a0bd 7043 2fbd 5768 9dbc
000002e0: f18d 61bd da42 c4bc acf6 413e ae36 70bd
000002f0: 915d 843e 5385 9cbc 2a91 293e 41a3 b8ba
00000300: ae17 93be 5af9 00be 40ce 9dbd 06eb e8bc
00000310: 2e6e acbd 450a 053c 1d08 2b3d 51d6 113e
00000320: 911f 0b3e 62c9 653e c5b2 223e 7238 b6bd
00000330: a134 33bb 16e7 37bd 2840 873d 1be2 353e
00000340: 7c73 3a3e df4b 1b3d 9e2c 91bc daef d53d
00000350: 33df d73d 3db6 d2bd 829d 193e c2e6 03be
00000360: 80cc 273c 72f3 a6bd 3ca2 47bd c571 c2bc
00000370: cab6 a5bd 30d4 33be 0c2a 843d d46f a43d
00000380: 5116 c53d 4ced 6a3e ad66 e83c 3620 fc3d
00000390: 0c30 52bc acef 49bd 6393 633e 55e7 39be
000003a0: d132 edbd e65a 07be 2e88 893d 122c debd
000003b0: 7ec3 d3bc f76c 113d e0cd d7bd df84 1ebd
000003c0: 0f64 b33d c0c8 083e ea7b 473d 966f 443e
000003d0: eb58 ac3d 946b 0b3e f2bc 86be 18ef 6ebd
000003e0: d4d7 28be 0cd4 1ebe 4f71 36be 01e1 27be
000003f0: 1225 f8bd 6ecc 99bc 46a4 a63d f049 b3bd
0.019197565 0.032280944 -0.07645372 0.109515816 0.0584793 0.16386953 0.108968765 0.15769133
0.008564068 -0.046790805 0.13062982 0.13693075 0.13995443 0.13906294 0.049194816 -0.005814455
0.16512412 0.0742052 0.08232048 0.045629483 0.1316979 0.2661883 -0.06033229 -0.033934396
0.15868828 -0.03168047 0.055499177 -0.0034677219 -0.014499244 0.18742004 0.1642001 -0.03871847
0.03318413 0.28132817 0.108678274 -0.052217446 0.017862307 0.014616406 0.19874227 0.21987098
0.30596086 0.0013212501 -0.0062778536 -0.1141079 0.18762137 0.0069329394 0.26543933 0.2125626
0.052080825 0.1493644 0.052547887 -0.05943125 0.106707916 0.080112495 0.00998826 0.17805907
0.115390696 -0.1292348 0.14103253 -0.114463076 0.011514019 -0.08086941 0.16612284 -0.16139643
0.048789687 0.013393678 0.026741397 0.16773522 0.03906421 -0.10498922 0.1974545 -0.011262491
0.056286465 0.038647104 0.06758163 0.1494212 0.1944655 -0.026691748 -0.08352375 0.021784158
-0.055244286 -0.2572948 -0.047576692 -0.11477692 0.025644649 0.20318902 0.07063953 0.17909816
0.11697797 0.0834037 -0.030349052 -0.041972037 -0.040578052 0.19113818 -0.034297537 0.13613297
0.11841984 0.1375509 0.09118866 0.21140315 0.124824725 -0.17027192 -0.058022883 0.021767769
-0.0015804588 0.12724532 -0.005320356 0.09538051 0.026677383 0.045261875 0.057417233 0.04231236
-0.13525954 -0.11591608 -0.010410903 0.16463797 -0.13262086 -0.020398118 -0.01360251 0.056111626
-0.028399134 0.16329569 -0.005567488 0.0686284 -0.00366944 -0.03439781 0.056086853 0.0003912951
0.10974279 -0.27184972 0.028089331 -0.049984742 -0.0895993 0.08937747 -0.15793815 0.006603816
-0.07888536 -0.039757278 -0.113320716 -0.03428225 0.018622775 0.07097954 0.1553152 0.09189567
0.016534174 -0.053669002 0.05099844 -0.18935531 -2.0233889e-05 0.028904213 0.13744631 0.13675204
0.033896234 0.09614868 0.098050974 0.1404272 0.0058010505 0.09451534 0.17340183 -0.017966967
-0.034125164 0.094716325 0.118286565 0.10963611 0.018093986 -0.058627117 0.1602703 0.05605921
-0.029883532 -0.071345374 0.08368892 0.20325923 0.21579824 0.09232987 0.018088654 0.010674826
0.21693854 -0.027172951 -0.1478524 -0.03492116 -0.056961574 -0.078169234 -0.042788923 -0.019214792
-0.055067006 -0.023957659 0.18941754 -0.058645897 0.25852636 -0.019106543 0.16559282 -0.0014086739
-0.28729004 -0.1259512 -0.07705355 -0.02843238 -0.084194526 0.008120124 0.041755784 0.14241911
0.1358626 0.22440103 0.15888508 -0.08897485 -0.0027344602 -0.044898115 0.06604034 0.17762034
0.18208116 0.037914153 -0.01772147 0.10446139 0.10540619 -0.102886654 0.1500149 -0.12880996
0.010241628 -0.08151902 -0.048738703 -0.02373589 -0.08091505 -0.17561412 0.06453332 0.08029142
0.09623397 0.22942084 0.028369272 0.12310831 -0.012828838 -0.049300835 0.22224192 -0.18154652
-0.11581958 -0.13218269 0.06715427 -0.108482495 -0.025850054 0.035504308 -0.105373144 -0.038700934
0.08759319 0.1335783 0.048702158 0.19183192 0.08415397 0.13615257 -0.2631603 -0.058333486
-0.16488582 -0.15510577 -0.17816661 -0.16394426 -0.121164456 -0.018774237 0.081368014 -0.08754337

model.6.bias f4 [16]
00000000: fcdb 143d dcf1 babd 0f49 6e3d 0ec9 603d
00000010: 12ca bcbd b36b 143e 7d82 17be bcd6 2b3d
00000020: 7733 43bd 9dae a8bd b613 d43d 74d9 2cbd
00000030: 067e 243e d9de b53d 88f1 4e3d 86a9 eb3d
0.036342606 -0.09128162 0.058175143 0.05487924 -0.09218229 0.14494209 -0.14795871 0.041952834
-0.047656503 -0.0823643 0.10355322 -0.042199567 0.16063699 0.088803954 0.05052331 0.115069434

model.8.weight f4 [16, 16, 3]
00000000: ce28 9f3a ffb3 1e3d df2d 8b3d 2c75 a83d
00000010: 8bd3 4ebe 2c32 7ebb 67ca 973d 14a4 983d
00000020: 695c 973d e64e 3cbc 1049 443e 2e5e 933b
00000030: b61e 64be 226d 7dbd 4345 7abb e334 ffbd
00000040: ecf0 ce3d 321a 04be 50d5 2bbe 60d8 5fbe
00000050: 1628 783d d9b9 2d3e 4b9a 233d 3b19 d93d
00000060: 792e e0bb d75e e23c 93df 8ebe d511 adbd
00000070: f887 033e 4505 34bd 7767 2abe 3ed8 eb3d
00000080: 6724 c1bd b686 ffbb d648 943d 34cd 083e
00000090: 32a0 4e3d 6990 343d 94d1 2f3c b372 ee3c
000000a0: c9f2 1cbd fbff 383e 9673 d4bc 83e0 b4bc
000000b0: 2edb 31be 6694 a9bd 04c1 383d f926 d63d
000000c0: cfd3 9a3d bb07 bdbc 2a8d d7bc 54b8 d0bb
000000d0: 1033 263e 8df0 243e 6a53 8d3c 21b6 02bc
000000e0: 1d1c 1f3d 8c93 513d 7a48 1e3e 0966 383e
000000f0: 6daf c33d 1e56 ce3d e26e c5bd 81b1 81be
00000100: 296a 9bbc 3cc8 9a3e 6ea6 9a3d 0147 ecbc
00000110: 5b3c 23bb 1754 803d e35c 713d 4398 2e3e
00000120: 88b0 483e 3c8e 6d3d 7421 67be 4360 253d
00000130: c334 febc 788f 44bd 88db 5cbe 59ac 00be
00000140: 3d8b dcbd d393 f03b 7c04 71bb aad5 06bd
00000150: 96d5 483e ed7f d4bd 47cd fd3d bbc2 1f3e
00000160: b1cc ff3d 2628 133e 3a1f 41b9 2791 a43d
00000170: 593a c3bd 728a 573e ab43 cabc 0aaf 4b3c
00000180: 170a 413e 2c0c 7d3e a1b6 1e3e 2c24 68bd
00000190: 12f9 c3bc b217 12bc 6227 143e e243 933e
000001a0: bbe8 313e 1f14 2c3d a608 06be 08e0 b2bd
000001b0: 8ee4 3a3e 73be 0fbd 8964 f03d 8d25 403e
000001c0: b4e8 a93d 4883 b63d c096 ccbc f6a6 27be
000001d0: 8e04 1ebe 3e3f 59bd e61f 103e 20b6 7fb9
000001e0: de89 5bbd 76bf fabd 2e04 803c ba99 11be
000001f0: 50db e7bd 50a4 16be 9433 a53d 82b9 813d
00000200: 7e06 c33d ea27 223e eb16 463e 407f f2bc
00000210: 6102 08be 8de5 01be ecbb 9c3d 4cbb f6bd
00000220: 7090 2bbe c04a 14bd 33e6 e53d f7d8 153b
00000230: 7322 6bbd 3eb0 553d eadf 6f3e 4b6f db3d
00000240: c018 e2bd 8d87 633e 947a b53d 5dec b4bd
00000250: 2fdc 5a3e 3b16 8bbc 4e81 dc3d dd90 4c3e
00000260: 62c3 dc3c 0c73 193e b3e8 8a3e a9ee d03d
00000270: 01d7 8c38 87c8 153d 32bb 243d 617b 5abe
00000280: d342 84bd df97 a83d 4f4a d73c de9d 433e
00000290: c7ac 0f3e f445 6b3e 537e 873d 4199 623c
000002a0: b676 0d3d 89c8 cc3d 4dd7 bebd 1713 28bd
000002b0: 64a7 bf3c f3dc 0fbe 7911 043e e58a 08bd
000002c0: 28f8 aabd 4457 a8bd 6bf0 11bd e41a 503d
000002d0: f38d bcbc f269 dc3c 2cbe f1bd 6f34 cc3d
000002e0: c148 25bd a1a2 a7bd 5e9a f53d 54dd 233e
000002f0: 312e 723d 2126 643a 36bf 003e a773 523e
00000300: 9b40 193e d468 dcbd ea2e e6bd c059 d73d
00000310: 18c7 973d c15c 7bbd 388d 4abd 8d38 33be
00000320: 1f32 373d 401f 8f3d 6f43 54bd f85c 8abc
00000330: 1188 b93d 35e5 07bd 3011 b5bd f246 97bd
00000340: 25cb 16be 56f7 543d 3163 a2bd 44da 93bd
00000350: b9e8 b8bc fa50 e23d 6cae aa3d 8d50 4e3b
00000360: 3a70 653e 365e 20be 39f6 883d 5eb9 013b
00000370: 3856 173e 2462 203e f826 3c3d 0fa3 b53d
00000380: 80ad 7ebd 773c 363d a4c7 d3bd 4e62 f1bb
00000390: 96cc e83d ac7b 403c df2b 843d 78d3 76bc
000003a0: b09d 53bd ad28 c83d e1c5 94bd fa0e 86ba
000003b0: 3378 8ebc f5b0 c4bd fc8f 813d d5d5 efbb
000003c0: a7a0 133e 5b4e 5a3e c5f7 393d 2760 a63c
000003d0: 292f dabc f236 473c cc55 db3d e46e ad3d
000003e0: a3c7 35bd 36a4 efbc 8ca9 503c 336b 91bd
000003f0: 4545 2f3e 1538 fd3d e4f8 833a 9e9e b23d
0.0012142898 0.038745876 0.067958586 0.08225474 -0.20197885 -0.003878723 0.07411652 0.074531704
0.07390673 -0.01149342 0.19168496 0.004497311 -0.2227734 -0.061871655 -0.0038188256 -0.12461259
0.10104546 -0.12900618 -0.16780591 -0.21859884 0.060585104 0.16965427 0.039942067 0.106005155
-0.0068414775 0.027633114 -0.2790495 -0.08450667 0.12844837 -0.043950338 -0.16641031 0.11515854
-0.09430771 -0.007798041 0.07240455 0.13359529 0.050445743 0.044083033 0.01073112 0.029107427
-0.038317475 0.18066399 -0.025934022 -0.022079712 -0.17368767 -0.08280258 0.04510595 0.10456652
0.075599305 -0.023074975 -0.02631243 -0.00636963 0.16230416 0.16107388 0.017251689 -0.007977993
0.03884517 0.051166102 0.15457335 0.18007673 0.09554944 0.10075019 -0.0964029 -0.25330737
-0.01897152 0.30230892 0.07551275 -0.028842451 -0.00249078 0.06266039 0.058926474 0.1705027
0.19598591 0.057996973 -0.22571355 0.040375005 -0.031031018 -0.047988385 -0.2156812 -0.12565745
-0.10768745 0.007341841 -0.0036776355 -0.03291861 0.19612727 -0.103759624 0.12392669 0.15601628
0.12490214 0.14370784 -0.00018417547 0.08035498 -0.09532613 0.21048906 -0.02469047 0.012431869
0.18851505 0.24711674 0.15499355 -0.05667512 -0.023922477 -0.008916782 0.14468148 0.28762728
0.17373936 0.042011376 -0.13089237 -0.08734137 0.18251249 -0.035093736 0.117379256 0.18764324
0.08296338 0.08911759 -0.024974227 -0.16372284 -0.15431425 -0.053038828 0.14074668 -0.00024386542
-0.053598277 -0.122435495 0.015626993 -0.14218798 -0.113211274 -0.14711118 0.08066478 0.06334211
0.09522723 0.15835539 0.1934468 -0.029601693 -0.13282157 -0.12685223 0.07653031 -0.12047443
-0.16754317 -0.0362041 0.11225548 0.0022864917 -0.0574059 0.05217003 0.2342526 0.10714587
-0.11039877 0.22219677 0.088612705 -0.08834145 0.21373056 -0.016978374 0.107668504 0.19977136
0.026948635 0.14985293 0.2713066 0.10201771 6.715768e-05 0.03656819 0.040217586 -0.21336128
-0.06458058 0.08232092 0.02628055 0.1910319 0.14030753 0.22975904 0.06615891 0.013830484
0.03453704 0.099991865 -0.09318409 -0.04103383 0.023395248 -0.14049129 0.1289729 -0.033335585
-0.08348113 -0.082197696 -0.03562967 0.050806895 -0.023016905 0.026905987 -0.118038505 0.099709384
-0.040352587 -0.08185316 0.11992334 0.16002399 0.059126083 0.00087031914 0.12572941 0.2055193
0.14966051 -0.10762182 -0.11239417 0.10515165 0.07411021 -0.061367754 -0.049451083 -0.17502041
0.044725534 0.06988382 -0.051822122 -0.016890034 0.09059156 -0.033177573 -0.08841169 -0.073865786
-0.14725931 0.05199369 -0.079290755 -0.07219365 -0.022571908 0.11050601 0.083340496 0.0031481117
0.22406092 -0.15660939 0.06687588 0.0019794325 0.14778984 0.15662438 0.0459356 0.088689916
-0.06217718 0.044491258 -0.10340813 -0.007366455 0.11367147 0.011748236 0.0645368 -0.0150650665
-0.051664054 0.09773383 -0.07264305 -0.0010227852 -0.0173913 -0.096040644 0.06326291 -0.007319192
0.14416753 0.21318953 0.045402307 0.02030952 -0.026633816 0.012159096 0.10709724 0.08468416
-0.04437984 -0.029253107 0.012735736 -0.07100525 0.17116268 0.123642124 0.0010068682 0.0872166

model.8.bias f4 [16]
00000000: cd77 6a3e 02f9 fdbb ea5b 903d 0d09 eabb
00000010: e192 d33d fa1a b7bc e348 1dbb ac48 09be
00000020: 101b 0a3d d41b df3d 57ed 0f3e 26e6 e53d
00000030: bc6b 61ba 05d9 973d c3a0 10be 64f9 8d3d
0.22897263 -0.0077506313 0.07048781 -0.007142192 0.10330749 -0.02235173 -0.0023999743 -0.13406628
0.033717215 0.1089398 0.14055382 0.11225538 -0.00085991225 0.0741444 -0.14123826 0.06932333

model.10.weight f4 [16, 3, 3]
00000000: 24ec 2c3d 4db8 cdbe 3531 7dbe 75d0 d93d
00000010: ce95 cdbc 1b1c 303e 700d 3bbe 4357 8d3e
00000020: 80eb 25be d1a7 3f3e 65a8 673e 2ec1 9e3d
00000030: 0de9 903c 608e 10be e8b5 22be 11d3 94be
00000040: f6f9 96be 3887 7dbd aae9 83be 9609 553e
00000050: 2326 acbe 8fe9 2dbd 1cb1 a9bd c4af 46bd
00000060: a574 383e b851 0e3e bd5b a9bd f64c 9bbe
00000070: 6316 f8bc ec2c d23e 0665 83be acd9 12bf
00000080: 15a8 ddbd df65 94bd baec 653e 5c5f d0bd
00000090: 03d7 bcbd 5b86 6ebe 6acf 06be 09c2 4f3e
000000a0: 2074 3ebe 58af 14be 0720 7ebe 2298 463d
000000b0: ed81 85be bfe0 683c 7dfa bd3d 2cbc 65be
000000c0: d5a5 03be f9fd 46bf 295d c13d 27d1 45bd
000000d0: 5141 fcbe 22da 11bf c94d 9f3d 5ffe 94be
000000e0: f93b 8e3e a891 50bd 1721 eabe 4ad6 b7be
000000f0: cf45 1a3d 46b1 85be cb0e 753d 64db 063d
00000100: a863 4fbe e5a2 863e 9abe 36bf 518a 99bd
00000110: 9663 093b 1b92 b4bb cc5a 703e 9b5d 69bd
00000120: 1cd9 a63e 1e15 e13e 55ad 813e cba7 d9bc
00000130: cc5c 28bf 01e6 733e ce5f 73be e453 febe
00000140: 56e5 243e 7861 a43e ba57 bf3e 134a 3bbe
00000150: 8392 2d3e bc65 0d3f 3df5 4c3e 61bc 683c
00000160: 14bb 30be 1f65 ec3c 4a55 babe 273c c6be
00000170: 33d1 af3e 1c95 693e 11f1 df3e bd2d 323e
00000180: e51f 1cbe e23b c4bd b563 2bbe c727 f139
00000190: 547e 6c3e 5f47 903c f9af 39bd 1018 043e
000001a0: 4387 df3e e5e2 d7bd 3900 993e 8186 8a3e
000001b0: 8221 823e 5ad4 813e 8dcb b53d e7ed 453e
000001c0: 6203 10bd 8604 5d3e 115b 8d3e 00f6 ab3d
000001d0: 57eb 55bd e35a ca3d 5b50 b13e 6570 693d
000001e0: de14 163d a41c 00bf 5feb 273e f345 943c
000001f0: 927e 0cbe a2ec 8b3e d7f6 1fbd 11cb 7e3e
00000200: a6d2 0bbe 56eb 243e adaf 49be 6440 1bbe
00000210: 0ef5 903c 1008 a5be d305 5d3d 9cbb 193e
00000220: de56 27be 9f00 75be 397a 93bd 6064 80be
00000230: 000c f5be 6941 743e 3900 8fbd 0763 f83d
0.04221739 -0.40179673 -0.24725802 0.10635463 -0.025095847 0.17198221 -0.18266845 0.27605638
-0.16203117 0.1871636 0.22622831 0.0775169 0.017689252 -0.14116812 -0.15889704 -0.2906728
-0.2948758 -0.061896533 -0.2576421 0.20804438 -0.33622846 -0.042459067 -0.08285734 -0.048507467
0.18013246 0.1389836 -0.08269451 -0.30332154 -0.030284112 0.41049898 -0.25663012 -0.5736339
-0.10823075 -0.07245993 0.22453585 -0.10174438 -0.09220698 -0.2329344 -0.1316506 0.20288862
-0.18598986 -0.14520013 -0.24816905 0.04848493 -0.26075688 0.01421374 0.092762925 -0.22435063
-0.12856229 -0.7773128 0.09441597 -0.048295166 -0.49268582 -0.5697347 0.07778508 -0.2910032
0.2778013 -0.05092016 -0.4572837 -0.35905677 0.03766423 -0.2611181 0.05982856 0.03292407
-0.2025286 0.26296154 -0.71384585 -0.07497085 0.00209639 -0.005510581 0.23472136 -0.056974035
0.32587516 0.43961424 0.25327554 -0.026569268 -0.65766597 0.23818208 -0.23767015 -0.49673378
0.1610311 0.32105613 0.37371618 -0.18289976 0.16950421 0.5523336 0.20015426 0.014205069
-0.17258865 0.028856812 -0.36393195 -0.38717768 0.34339294 0.22810787 0.43738607 0.1740026
-0.15246542 -0.09581734 -0.16737254 0.00045996738 0.23095065 0.017612157 -0.045333836 0.12899804
0.43657884 -0.105413236 0.29882982 0.27055743 0.2541619 0.25357324 0.08876715 0.19329034
-0.035159476 0.21583757 0.2760854 0.0839653 -0.05222639 0.098806165 0.3463162 0.056991953
0.036640994 -0.500437 0.1639838 0.01809976 -0.13720158 0.27328974 -0.039053764 0.24882151
-0.13654575 0.16105399 -0.19695921 -0.15161282 0.017694976 -0.32232714 0.053960633 0.15012974
-0.16341731 -0.23926018 -0.072010465 -0.2507658 -0.47860718 0.23853077 -0.06982464 0.12128263

model.10.bias f4 [3]
00000000: 19d3 e5be c771 883e 8970 2c3e
-0.44887617 0.26649305 0.16839804
