saved_models/cnn/cnn_gen_swa_ERCOT_tws.pt (torch, 56989 bytes, 12 tensors)

module.model.0.weight f4 [384, 24]
00000000: 3c61 0dbd eda2 173d 6395 1c3e 1209 fb3d
00000010: 0c80 2f3c c7bc 53bc eb0b 6d3d 64cd cd3c
00000020: 5867 18be 6f7f 35be ec6c 363b 382f 5abc
00000030: 741b b73e 2211 28be e554 a4bd 1964 1bbd
00000040: 2dbd 613e 9034 073e ecea 733b 5d12 7c3c
00000050: e18a 06bb 060d 183d 0a3f fbbd d95e ad3e
00000060: e813 24be f058 c73d b2fe 4fbe 3bf1 61bd
00000070: f30e 073a a9b2 883e 7e39 b4be dab6 903d
00000080: a4a3 c73d 1c7d 38bc 257f 343e 9765 b9bc
00000090: b71f 043e 9148 543d b88c b8bc 7838 bebd
000000a0: 1adc 753a 29b1 413d 7ed9 d9bd f033 da3a
000000b0: 23fe b63c 7c2a ecbc 6c86 0abe c7d6 223e
000000c0: 9c97 ecbc 05b0 2ebe 2302 133e 62c7 a93a
000000d0: 6b50 d1bd 54ab 5ebd f350 cbbb 18d1 053d
000000e0: 1a99 b6bd 3ecc 8d3e e4d4 1ebb b5da 2ebe
000000f0: 5a56 733d e4f0 073c 4956 72bd 27f8 313e
00000100: 4be5 01be 0e74 e3bd de55 fb3d f7ac 44be
00000110: 0c6a 553d 7970 163e 77a1 6e3e 6151 963d
00000120: 71f5 40bc 1cf3 243a ca54 093d 31b1 733e
00000130: f7cb 3cbe 4d55 bc3d 3104 e43c 9250 4b3b
00000140: 2fef 2cbe 1039 313e 8170 86be 3da1 94bd
00000150: 2ba8 3ebe c921 8bbe 8331 da3d 9856 ce3d
00000160: 2369 22be 6a9f 94bd 2a67 f8bc b771 07bc
00000170: f85a d03d 4aae debd 3957 3e3e b8df e43d
00000180: 4045 71bc 56bf 76bd 11e0 f13d a465 9b3d
00000190: d3c0 92bd 2d20 95bc 4b03 84bb d940 afbd
000001a0: 096a 3fbd 4e93 3ebd 20dc f93d 86b0 ffba
000001b0: 54ad 37be 37d3 4639 ae62 60bd 650d 4abd
000001c0: d5d4 2c3d 4fca 2d3e 9931 0a3e 9b89 68bd
000001d0: 2a4d eabd 8aec 81bd 681c d8bd fbad e23d
000001e0: e9d4 54bd b2bd ce3c fd48 4cbd c5e2 053c
000001f0: e64e 833d 6ee2 413e f4f6 91bd 5c67 8cbe
00000200: d384 dfbd 8194 d0bb 95dc 4abd a7db 13bd
00000210: a71d 3a3e 486f 0d3e 0d54 e23d 80f2 3d3d
00000220: 00ce dabd 7661 fd3d cb33 f3bd 69a1 e93c
00000230: 7bfc f4bd a7fc 163e 3076 743d 5fb5 ae3a
00000240: 191f 62be e9b7 eb3d defe 393d 9cdf c23d
00000250: 2362 91bd 5d64 abbd a5b2 043d e585 1ebe
00000260: 6e31 2bbd 9dc7 c73d c548 8a3e 6c72 2dbd
00000270: 609c 173e 693d a43d 6fe9 00be b015 27be
00000280: fa33 cabd be78 1cbc dfa2 8cbd 7609 b7ba
00000290: 0bd3 8fbd dbbc 0c3e 75f8 563e 06fd 823d
000002a0: f600 30be 0f73 9bbd 0d38 acbc a532 f5bd
000002b0: 6ad2 25be b4ad 88bc c696 e53d bec9 26be
000002c0: c87b 033e 2b98 f43d 949f 20be 49e8 22bd
000002d0: ca48 8c3d bb47 2b3e 9d1a 3dbe ffee 10be
000002e0: 063c 76bd 6e27 703c 3eec 01be 52e5 063e
000002f0: b031 853b 8350 063c 68c8 8ebd 3639 1fbe
00000300: dd42 fcbd 782f ecbc 7e81 32bd 93c5 133e
00000310: d08e 3c3e 7019 463e c4da b73d 7873 8ebc
00000320: 6791 e6bd 2463 86bd c8f4 edbd 032e 193d
00000330: 6903 013e ecf8 f7bd d814 b8bd 4edb cfbd
00000340: f28f 7e3d 57e7 093e 98f9 52be 7d14 2cbe
00000350: f4a5 5abc 4ccb 53bd 98fe 45be 824b 5dbe
00000360: 4e05 9ebc 797d d7bd 6629 5d3e d685 d7bd
00000370: 4e38 8abe 27da 40be b99e a93d eb99 0b3e
00000380: b19b efbd 121e 453e edfc 1ebe 21a5 7abe
00000390: a40b 6ebe f34e 60be e3fa 7b3d 028f 7f3e
000003a0: a889 643d ea46 2bbe 09dc d13d 553c a4bd
000003b0: 500d 443e 3f44 60bc 35cf 023e 7c53 813e
000003c0: 0dcd d5bd 756e 2b3e e452 20be 33ba 09be
000003d0: 6d6e 123d 86c0 00be 33e9 953c c14a 153d
000003e0: a345 cabd e440 d4bd 06a4 4dbe 7bfd 9fbd
000003f0: 310b 14be 426c 083d e5af 483c 6505 633c
-0.034516558 0.037020613 0.15291362 0.122575894 0.010711681 -0.012923426 0.057872694 0.025122352
-0.14883173 -0.17724393 0.0027835919 -0.013316922 0.35763133 -0.16412786 -0.08024005 -0.037937257
0.22044821 0.13203645 0.0037218882 0.0153852375 -0.0020529556 0.037121795 -0.12267883 0.33861426
-0.16023219 0.0973376 -0.20312002 -0.055161696 0.0005152069 0.26698807 -0.35200113 0.07066126
0.09748009 -0.011260297 0.17626627 -0.02263145 0.12902723 0.051827017 -0.022528037 -0.09288114
0.0009378806 0.047288094 -0.106371865 0.0016647559 0.022337979 -0.028828852 -0.1352784 0.15902244
-0.028880887 -0.17059334 0.14356284 0.0012953097 -0.10220417 -0.05436261 -0.0062047183 0.03267011
-0.089159206 0.27694887 -0.002423578 -0.17075618 0.059408523 0.008297179 -0.05916432 0.17379819
-0.12685125 -0.1110612 0.12272237 -0.19206606 0.052103087 0.14691342 0.23303781 0.073397405
-0.011777268 0.00062923296 0.033528127 0.23798062 -0.18437181 0.09195957 0.02783403 0.0031023365
-0.16888116 0.17306924 -0.2625771 -0.07257316 -0.18618838 -0.27174214 0.10653975 0.1007511
-0.15860419 -0.07256968 -0.03032263 -0.008266858 0.10173601 -0.10873087 0.1858796 0.111754835
-0.014725983 -0.060241066 0.118103154 0.07587746 -0.071656846 -0.01820382 -0.004028713 -0.085572906
-0.046731982 -0.0465272 0.12200189 -0.0019507564 -0.17937213 0.00018961435 -0.05478161 -0.04932918
0.04219516 0.16971706 0.13495483 -0.056771856 -0.11440499 -0.06343944 -0.10552293 0.110683404
-0.05196086 0.025236938 -0.049874295 0.008171742 0.06411533 0.18934032 -0.07127181 -0.27422607
-0.10914006 -0.0063653593 -0.04952677 -0.03609815 0.18175374 0.13811982 0.11051188 0.046373844
-0.10683823 0.12372105 -0.11875113 0.02851935 -0.11962219 0.14744817 0.059683025 0.0013329199
-0.22082175 0.115096875 0.045409076 0.09515306 -0.07098796 -0.08368752 0.03239693 -0.15480764
-0.041795187 0.0975487 0.27008644 -0.04234545 0.14805746 0.080195256 -0.12589048 -0.16316867
-0.09873195 -0.009550272 -0.06867003 -0.0013964612 -0.07022675 0.13743918 0.20993216 0.06395917
-0.17187867 -0.07590305 -0.02102282 -0.1197255 -0.16193548 -0.01668439 0.112103984 -0.16287896
0.12840188 0.11943086 -0.15685874 -0.039772306 0.06849821 0.16726582 -0.18467183 -0.1415367
-0.060115837 0.014657838 -0.12687775 0.13173416 0.004064761 0.008197906 -0.06971818 -0.15549168
-0.12317441 -0.028831229 -0.043580525 0.14430837 0.18413854 0.19345641 0.08977273 -0.017389044
-0.11258202 -0.06561878 -0.11618954 0.037397396 0.12598957 -0.12108025 -0.08988351 -0.10149251
0.062148996 0.13467155 -0.20603025 -0.1680469 -0.01334523 -0.05170755 -0.19335401 -0.21610835
-0.019289639 -0.10521979 0.21597824 -0.10523574 -0.26996082 -0.18833219 0.08282227 0.13632934
-0.11699618 0.19249752 -0.15526171 -0.24477054 -0.23246628 -0.21905117 0.06151856 0.24956897
0.05579534 -0.1672627 0.102470465 -0.0801932 0.19145703 -0.013688146 0.12774356 0.25259006
-0.10439501 0.16741355 -0.1565662 -0.13449936 0.03574984 -0.12573442 0.018299675 0.036448244
-0.098765634 -0.103639394 -0.20082101 -0.078120194 -0.14457394 0.033306368 0.012248968 0.013856267

module.model.0.bias f4 [384]
00000000: 218a 9ebe 1a4e 2e3e 332e fdba 1b82 bdbc
00000010: 2fea ad3d 790c ba3c a766 23be e511 7f3e
00000020: 6cdc 383e cbe0 b73d d99f 483e 588d 32be
00000030: 17c6 e6bd 1d5a 1d3e ea84 cf3d 75f2 5fbe
00000040: 3df1 87be a467 b2be f22b abbe cbe5 2dbe
00000050: 8095 18bd 7c80 a93d 51df 28bd c5f6 dc3d
00000060: 425a dabd b1ab 153e 955b c2bc 2b65 ce3d
00000070: 2529 0cbe db62 9bbe 40c7 8c3e 8635 f5bd
00000080: 6f43 c13c 4b7b 413e 85a2 b13d 8294 843e
00000090: 3057 41ba fe13 883d d20d 8d3e d28e 623d
000000a0: e0c1 c23c 2f74 3a3e 757e 3c3e c645 32be
000000b0: 5470 56be 3c0b 213e 42e2 c13d 68b7 b1be
000000c0: deb9 1d3e 35d9 af3e 1535 d03d 607a b83c
000000d0: 51d1 6cbe 5301 ddbc 1809 aebd 51ef 093e
000000e0: d067 983e 569a 6abe 62b5 5b3e 0036 1a3d
000000f0: 7a05 9c3b 908d 993e dd8b 943e 9ffe 5e3e
00000100: 913a 24bd eb9c 27be 2825 663c 50ef 62bd
00000110: e4a7 9dbe 4493 80be 6e67 973d d5d2 3b3e
00000120: 3bbe c2be dd31 48be d835 783d f8f1 133e
00000130: a5ee 80be a1d7 f0bd 8318 2cbd 568d 62be
00000140: bd1d 54bd 4ea7 f6bc b513 7c3e 8a30 1b3e
00000150: 248a 333e ad15 d33e b7d4 953e 1487 1a3e
00000160: 7714 02be bbdc 4b3c 80d2 9bbd f37e 003d
00000170: 8576 b5bc 0426 ce3d 9399 733d 7d21 81be
00000180: 2306 653e de40 53be 2c68 b0be c322 0d3d
00000190: 90f3 f23d 8cc0 9abe c3ed d1bd 1d9f aa3c
000001a0: 91cc 493d 5594 673e 3c8c 56bb d3b2 673e
000001b0: e856 a2bd a738 573e 7a37 3a3e a2f9 363e
000001c0: be6c 5f3d b698 183d 4339 3a3e 90dc 303d
000001d0: d6b8 553e 0f90 88bd 2ad5 9f3e 52c1 f23d
000001e0: 45c0 40bc ab62 cf3c 4007 a2bd 9057 ff3d
000001f0: 2b2f 013e e7d0 db3d b0fb 393e 06e4 c03d
00000200: 23c3 3f3e e35d cb3d 3537 373e ae6c da3c
00000210: 4631 213d ae25 7dbe 6e8c 2abc 43b7 b1bb
00000220: d2bf f63c 864b 2ebe 7996 5e3b c69c 8b3d
00000230: 6d9d 5fbe a149 dc3d 4a40 8d3d 187a 44bd
00000240: 98cb 493d 590d 043e 5f9c fbbd 460f d03c
00000250: 6566 ce3d a9de f73d 0599 713d 3c3a 24be
00000260: 7197 8bbe a72c b8bd eefb 8cbe 994d 633d
00000270: c56c 91be af55 0fbe 3188 99bd 819a 80be
00000280: 7ee7 ef3c f3d4 093d b084 aebd fdba 843e
00000290: 731d b43d 5a42 18bd acef 8f3d 795a 403e
000002a0: 2b76 9dbe c5aa 56be cf38 0e3d 92d5 803d
000002b0: d9c4 64be 91c0 b0bd 4b96 6cbe 992b c1bd
000002c0: 098e 603e ba04 2fbc f899 b33d f410 a43d
000002d0: 0e02 c5bd 8ebf 953d 8678 933d fba5 1b3d
000002e0: 6aa5 3d3e 6f57 5c3e e508 dd3c 370d 82be
000002f0: 4b8a 74be 9fac c83b 0ce6 78b9 2377 1cbe
00000300: f4cb 423e fa76 2e3e 6530 86be 52f9 973b
00000310: 0116 f9bd 5a18 20be fa60 4bbe 01a2 443d
00000320: c3c9 f63c c105 c13c ab5e c03d 3d72 903d
00000330: a5a3 a53d 51ee f33d 6d6e 6f3e e99c 28bd
00000340: 59b9 143e 1e99 5abd d4e5 97be 7806 4fbc
00000350: 69e0 c4bd 8d4b 093e 5733 733e d74a 95bc
00000360: 6e4f cbbe f3d5 b3bd dcde a63e ad2a 533e
00000370: 916a cbbd 75d6 3abd 4177 693e e5b2 22bd
00000380: 9e66 283e 9590 953c 76f5 393e 145a d3bd
00000390: be6c 86be 019a 32be cfa2 f5bd 9f57 97be
000003a0: 7d77 8bbd 222b 91be 1c6b 8abd 34ce 22bd
000003b0: eb3c 073e e963 cb3d f160 03be e1bc 8e3c
000003c0: e2e1 8a3e 4152 a23e 2a7a 9e3e 61b0 c33d
000003d0: 0c56 febd b7b6 443e 33bf 28bc 96c1 6bbe
000003e0: 31e8 d5bd 332c 5fbe 9f43 9bbc f75f 90bc
000003f0: 037b 82be 0855 64be 8b77 3dbe 335e 10be
-0.3096476 0.17021981 -0.0019316137 -0.023133328 0.084919326 0.022711026 -0.15957128 0.2490917
0.18052834 0.08978423 0.19592227 -0.17436731 -0.112682514 0.15366407 0.10132773 -0.21869834
-0.26551238 -0.34844697 -0.33431965 -0.1698219 -0.03725195 0.082764596 -0.041228596 0.10789255
-0.106617466 0.14616276 -0.02372531 0.1007789 -0.1368757 -0.30348858 0.27495766 -0.119730994
0.023591725 0.18894689 0.08673576 0.25894552 -0.00073753577 0.06644438 0.27549607 0.055311985
0.023774087 0.18208383 0.18407615 -0.17409429 -0.20941287 0.15726942 0.094669834 -0.3471024
0.15402934 0.34345403 0.101663746 0.02251929 -0.23126723 -0.02697817 -0.08497828 0.13470198
0.29766703 -0.22910437 0.21455911 0.037649155 0.004761395 0.29990816 0.29012957 0.21776818
-0.040094916 -0.16368453 0.014046945 -0.055404007 -0.30792153 -0.25112355 0.073927745 0.18342145
-0.3803576 -0.19550271 0.060598224 0.14447773 -0.2518207 -0.11759878 -0.042015564 -0.22124228
-0.051786173 -0.030109074 0.24616893 0.15155235 0.17533165 0.41227475 0.2926385 0.1509059
-0.12703119 0.012442763 -0.07608509 0.03137107 -0.022151241 0.10065845 0.05947263 -0.25220862
0.22365622 -0.20630214 -0.34454477 0.03445698 0.11862862 -0.30225027 -0.102504276 0.020827824
0.049267355 0.22615178 -0.0032737395 0.2262681 -0.07926732 0.21017705 0.18185225 0.17868665
0.054547064 0.03725501 0.18185906 0.043179095 0.2087129 -0.06668102 0.3121732 0.11853279
-0.011764591 0.025315603 -0.07911539 0.12467873 0.1261565 0.10733204 0.18162417 0.09418492
0.18726783 0.09930017 0.17892154 0.02666315 0.03935363 -0.24721405 -0.010409458 -0.005423458
0.030120764 -0.17020997 0.00339642 0.068170115 -0.21837397 0.10756231 0.06897028 -0.047968
0.049266428 0.12895717 -0.12285685 0.025397908 0.10078124 0.12103016 0.05898382 -0.1603784
-0.27263978 -0.08992892 -0.27535957 0.055493925 -0.28403297 -0.1399753 -0.074966796 -0.25117877
0.029285189 0.03365035 -0.08521402 0.2592391 0.087946795 -0.037172653 0.07028136 0.18784513
-0.30754218 -0.20963581 0.034722146 0.06290735 -0.22340716 -0.08630479 -0.23104207 -0.09432144
0.21929182 -0.010682279 0.087696016 0.08011046 -0.096195325 0.07311927 0.072007224 0.03800009
0.18520132 0.21517728 0.02698178 -0.25400707 -0.2388088 0.0061240937 -0.00023736822 -0.15279822
0.19023114 0.17037573 -0.26208797 0.0046378756 -0.121624 -0.1563429 -0.19861212 0.04800606
0.030125504 0.023562314 0.093930565 0.07053039 0.08087853 0.119106896 0.23381968 -0.041165266
0.1452383 -0.05336868 -0.29667532 -0.01263582 -0.09613115 0.13407727 0.23750053 -0.018224163
-0.39709038 -0.08781042 0.32591903 0.20621748 -0.09932435 -0.04561468 0.22799398 -0.03972139
0.16445395 0.018257419 0.18160042 -0.103199154 -0.2625484 -0.1744156 -0.11993944 -0.29559037
-0.068099 -0.2835322 -0.06758711 -0.039747432 0.13206832 0.09931166 -0.12829949 0.017424049
0.2712546 0.3170338 0.3095258 0.09555126 -0.12418756 0.19210325 -0.010299492 -0.23023066
-0.104446776 -0.21794204 -0.018953143 -0.017623885 -0.25484475 -0.22298062 -0.18502633 -0.14098434

module.model.2.weight f4 [16, 16, 3]
00000000: 375f 1cbe fb73 97bd 7209 563c babf 763c
00000010: 96db 4ebe c270 373e ef5d 49be 027e 6ebd
00000020: 12b4 3f3e d194 1ebe fd5e 42bd c1d4 93bd
00000030: 338b ad3d be51 b33c 04c2 1cbe 8b74 133e
00000040: e390 e13c e789 56bd d67b 1f3d 7cee 7e3e
00000050: 71a8 993d 6427 00be 9db8 133e d717 55be
00000060: 968a d0bd 0259 6e3c 1d23 ebbd 6e76 18be
00000070: 2a6c f7bd b51f 0bbe a13b c63d 2f2d 43bd
00000080: 1dea 1fbe 2b53 0c3e d525 303e d015 883d
00000090: b6a7 1b3e 996c 2dbe 6e66 8bbd deb6 ea3c
000000a0: 807b 07be 235f 41bd 6fa0 cdbd a495 c33d
000000b0: 12bc e8bc 508c 883b 6414 22bd 0364 ca3d
000000c0: 0432 7d3d 9a79 d6bd 111b 53bd fe36 45bd
000000d0: 6a75 a53d d8c8 7d3a af25 6a3e 6fb7 583d
000000e0: 5ae2 c2bd 4db3 ab3c e252 c9bd af09 46bd
000000f0: e6b3 963c 9f4a 82be 99fc 07be 5e39 a43d
00000100: c5b0 1fbe c3da 12be 4407 9c3c 9514 1cbe
00000110: 60d3 843c aa7a 013e 4f83 393c 2fb7 ad3d
00000120: 7317 643d 6be2 0ebd de58 44bd ac33 3a3e
00000130: 999b 21be 7b4e 7dbd f307 31bd e47d 9ebc
00000140: 0196 a63e b1df 013e 1468 b13d b7b9 e53d
00000150: 59ec d4bd c2a0 04be 14b0 223d b25b 253e
00000160: 42c3 9f3d f9b2 19be 168b 093e 10d2 85bd
00000170: 15d8 b43d d48b 0a3e 262c 813d 27ed db3d
00000180: a90d c83b 3c1a 0c3e 5906 5d3e 0ced 56bd
00000190: 983b 49bd ebc3 a3bd fbbc d9bc ca62 a43d
000001a0: 2a8d df3c 158b 193e aecb df3d 251a 843d
000001b0: 6aae 7cbc 417f 053e 9402 293e 1f2a 523d
000001c0: 92af 4fbe 5230 55be c74f e83c dcb8 2abd
000001d0: 6559 86be 483a d8bc 547f 4a3d 3f7f 2c3e
000001e0: ac21 55bd 7de0 13be ee36 c63c add0 89bd
000001f0: 0a6f 7d3d 05f5 553e 5309 f5bd 7f42 ab3d
00000200: 41df 54be 74ee a1bd b2a2 c13d 17ac 26be
00000210: 6351 b03d a4d0 4cbb 81a2 b5bd 5e31 033d
00000220: 4f8d f8bc 225f 8cbd 5c89 93bd eab5 1a3d
00000230: 3760 de3d e854 203e a913 6c3d e56e 453d
00000240: eca7 4c3e 40d9 ff3d cbb9 c93d 9ebe 25bd
00000250: 40a3 33be 74c1 e4bc 304e 423d dc4b 143e
00000260: b5f7 e73d d475 303e b86d 8d3c f35f 393e
00000270: fa0f a3bd a035 2fbe 4387 833d 4e09 31be
00000280: b704 e4bd 4eb0 033e e491 b8bd 2c71 c7ba
00000290: bc0b 3cbd b39d 0d3e e889 e3bd 01b0 acbd
000002a0: be20 f13c 8f9f 0b3e 1d50 aa3d 5f0c 463e
000002b0: d6e1 573e 3ea3 aa3d eb28 6a3d 8a62 1bbe
000002c0: 1298 63bc 6880 cabd 085d 153e eea3 243e
000002d0: ab2d cf3d 7ef4 ccbd 6fad 193c 53d0 4b3d
000002e0: 140b 48be 3084 ecbd 3448 f13d d829 493d
000002f0: 6de1 96ba 572a 92bc 243f ae3d d3d1 3f3c
00000300: b094 c5bd 312b 3fbd cd7b 7fbd a397 c5bd
00000310: e71b 2b3e 7a92 213d 21dd 4c3e 7b1b 32bc
00000320: 7a40 a33d 3090 0bbe a2d3 b3bc b7df b3bb
00000330: 8fb8 65be be57 84bd ee48 f83d 8531 16be
00000340: bea9 5bbe 60a6 103e 8de9 303e 1d43 c3bd
00000350: fa17 423e 3edd f0bd 9aa3 22bd db1d 213d
00000360: e3c5 163e d1e7 173e e9d2 1f3e 0566 db3d
00000370: bb90 a9bd 6e43 9f3d b9a0 713d 7afe 7e3e
00000380: e2ab d8bc b80a 413e 2770 953d 1d39 eb3d
00000390: cd30 2ebe 8a5b 5b3e c427 e63d 17bc 6bbe
000003a0: c93e 863e 410a 53be 7bc3 e8bd 115a 45be
000003b0: 8c1a ffbd 15aa 29bb 9ae0 353e cfd5 233e
000003c0: 5702 65be 5fb4 36be efc6 363d e8ad 39bc
000003d0: 349a 0ebd 9a4d f5bc 2e80 a0bd fbbd fcbb
000003e0: f781 c6bd 131c adbd 47f5 ecbd f62d 2cbe
000003f0: b3a1 b1bd a20d a1bd 2486 8a3d 9896 27bd
-0.15270697 -0.073951684 0.013063775 0.01506036 -0.20200953 0.17914107 -0.19664739 -0.05822564
0.18721035 -0.15486456 -0.04745387 -0.07218314 0.08473816 0.021889564 -0.15308386 0.14399926
0.027534908 -0.052377608 0.03893646 0.24895662 0.07502831 -0.12515026 0.14425893 -0.20809875
-0.10182683 0.014547588 -0.11481307 -0.14888927 -0.120811775 -0.13586314 0.09679342 -0.047650512
-0.15616651 0.13703601 0.17201932 0.066447854 0.15200695 -0.16935958 -0.06806646 0.028651651
-0.13230705 -0.04720987 -0.10040366 0.09550026 -0.028409991 0.004167117 -0.039570227 0.09882357
0.061815277 -0.104724124 -0.051539484 -0.048148148 0.080790356 0.0009681112 0.22865938 0.05290931
-0.095158294 0.02095952 -0.09830262 -0.04834908 0.01839633 -0.25447556 -0.13279952 0.080187544
-0.15594776 -0.14341263 0.019046433 -0.15242226 0.016214073 0.12644449 0.01132281 0.08482205
0.055686425 -0.034883898 -0.047936313 0.18183774 -0.15782012 -0.061842423 -0.04322047 -0.019347139
0.3253632 0.12682988 0.086624295 0.11217063 -0.10396642 -0.12951949 0.039718702 0.1614826
0.07800914 -0.15009679 0.13431963 -0.06534207 0.08830277 0.13529903 0.06307249 0.107385926
0.006105144 0.13681883 0.21584453 -0.05247216 -0.0491291 -0.07996353 -0.02657937 0.08026655
0.027288992 0.14994462 0.10927521 0.06450299 -0.015422443 0.13036825 0.1650489 0.0513097
-0.20281819 -0.20819214 0.028358353 -0.041680202 -0.26240078 -0.026394978 0.049437836 0.16845416
-0.052034065 -0.14441104 0.024196114 -0.06729255 0.061873473 0.20894249 -0.11964669 0.083622925
-0.2078829 -0.079068094 0.0945486 -0.16276585 0.08609273 -0.003125229 -0.08868886 0.032029502
-0.030340819 -0.06854083 -0.072039336 0.037771143 0.10858195 0.15657389 0.057635937 0.04820146
0.19985932 0.12492609 0.0984989 -0.04046499 -0.17542744 -0.027924277 0.047437847 0.14482063
0.11326543 0.17232448 0.017264232 0.18103008 -0.07962032 -0.171103 0.064222835 -0.17288706
-0.11133712 0.12860224 -0.090122014 -0.0015216223 -0.04590963 0.13829689 -0.11110288 -0.084320076
0.029434558 0.13635086 0.08316062 0.19340657 0.21082243 0.08331917 0.05716793 -0.15174308
-0.013891237 -0.09887773 0.1458627 0.16078159 0.10116132 -0.10007571 0.009379729 0.04975922
-0.19535476 -0.1154865 0.1178135 0.04911217 -0.0011511274 -0.017842455 0.08508137 0.011707741
-0.096475005 -0.04667205 -0.062373925 -0.09648063 0.16709863 0.03944633 0.20006229 -0.01087081
0.07971282 -0.13629222 -0.0219515 -0.0054893154 -0.22433685 -0.06462048 0.12123285 -0.14667328
-0.2145147 0.14125967 0.17276593 -0.09534285 0.18954459 -0.117609486 -0.039706804 0.039335113
0.14723925 0.14834525 0.156078 0.10712818 -0.08279558 0.07776533 0.058991168 0.24901763
-0.026449148 0.18851745 0.07296782 0.11485503 -0.17010804 0.21421638 0.112380534 -0.2302097
0.26219776 -0.2060938 -0.1136541 -0.19272639 -0.12456235 -0.002588873 0.1776146 0.1599953
-0.22364174 -0.17842244 0.04462331 -0.011332966 -0.03481503 -0.02994423 -0.07836948 -0.007713077
-0.096927576 -0.0845262 -0.115702204 -0.16814408 -0.0867342 -0.078639284 0.067638665 -0.0409151

module.model.2.bias f4 [16]
00000000: e3c0 353e 6265 ab3d f54f 893d cbf0 a83d
00000010: 5caf b43c a379 fb3d f67e de3c b741 ec3d
00000020: 5376 9b3e 0498 a43d 7490 583d 97f3 1cbd
00000030: d6cc 68bd 1f54 303e 58dc 0abd 1595 b53c
0.17749362 0.083689466 0.06704704 0.082490526 0.022056274 0.1227906 0.027160149 0.115359716
0.30363712 0.08036807 0.052872136 -0.038318243 -0.05683597 0.1721959 -0.033901542 0.022165814

module.model.4.weight f4 [16, 16, 3]
00000000: 0496 133d 5d62 4a3c ece2 4a3e b592 993d
00000010: 10c5 153d 57db e9bc 3d26 783d 560f eb3d
00000020: 3121 87bd 530a b3bd 54e7 2d3d 63e9 603e
00000030: affc 39be f6c1 8dbc 821f a7bd 35f6 413e
00000040: 9bcf fe3d 30d6 f53d 54cd 4a3e 7279 f03d
00000050: cb0c d63d 4471 da3c 3a29 e83c 60a5 de3d
00000060: 6776 39be d7ac 8dbd bd22 0a3e da12 97bd
00000070: ab50 d73a f721 8d3d 2cfc 4d3e 6159 2e3d
00000080: f29b ee3d 1119 fd3c 9ab3 123e 6e1b b23d
00000090: 7ecd 4e3d f365 f7bd cebd c2bd b696 e93d
000000a0: 2c79 5d3d 5b68 ddbd 30d6 a1bc eaf4 34be
000000b0: 8c7a 7ebd 0e4b a3bd 475a 21bc 9197 27bd
000000c0: 3e4f 85bd 6bdc 2b3e e032 de3d 6c10 1abd
000000d0: a3b5 ad3c 9fa0 cabd 6264 80bd a108 da3d
000000e0: 2565 d3bc c31a d0bd 610f 823e 63e9 103e
000000f0: 55a9 18be 1645 203e 39b5 4f3e b111 213e
00000100: dcd7 1dbe d344 86bd 41e3 cdbd db7e f4bd
00000110: 32a0 26bd 4f41 77bc b3c8 03bd 7b80 7abe
00000120: 7ebe a4bc 1c89 c23d 06a7 883d 7b30 9fbd
00000130: dc8f fa3d f1e4 ea3d dd9e c1bd 2753 943d
00000140: 96e1 883d efe8 ddbd 1b38 bdbd 8dd4 013e
00000150: bb3d b13d 907f ba3c 8fb3 203e d491 7a3e
00000160: 9e0e 673e ab66 533d aadc a9bd 2357 bd3d
00000170: 6c61 9a3d 8dcf 173c f7fb 2b3d 3760 c33d
00000180: e077 d33d 5cc3 05be 3ddf 063e 6d15 253e
00000190: 3041 f2bc db5d 2c3d a00c b93d bb34 f03d
000001a0: eb9b 6ebc 5db7 11bb bb13 8e3d fbe7 3abd
000001b0: cf1e 673d 10d1 bebd 4502 babd 3359 65bd
000001c0: a611 e53d 1201 61bd 61e5 c33d 4633 a53d
000001d0: 09df 09be bf51 2e3b b354 0b3e 7331 06be
000001e0: 647c 27be 95a7 373d 1ff3 10be 8460 2cbd
000001f0: 5be1 aa3d a9d7 00bd bff0 1d3e 5dc3 3b3e
00000200: 13df 2f3e 412b 6d3d e1ef 71bd 90cf a13d
00000210: 3133 31bb 0306 d7bc 7b7e 283e 3502 99bd
00000220: ba56 713d fa7a b6bc a6e4 bc3d 72df 5d3d
00000230: d82e 153e 238e e1bc dfef d1bd 19d8 46bd
00000240: 22c9 823d f139 26be c388 7abe 2571 c7ba
00000250: c194 193c 690d fb3d 7b77 cebd efe7 c93d
00000260: 99fb 0b3e a995 8f3b e712 a8bd 4dad d8bc
00000270: 75ec 133e fe4e d43d 875e f7bc 4e27 603d
00000280: ecd8 403e 7010 073e 9016 073d a03b 553d
00000290: 5f7d bcbd 6639 bbbd 2d1a c7bc 6d29 b6bc
000002a0: 6769 1dbd ad8a 5bbb 0680 c8bc 82f0 893b
000002b0: 1b2a 05bd 108d bc3d 22be a6bc 7bcf e93b
000002c0: 2a58 a4bd 0d4d d8bc 47b7 75bd b0f3 24be
000002d0: d1d7 683e cd93 483e f8ba 153e d6fd 9ebc
000002e0: 90fb babd 774a 053e 8fb2 473e 499d 7ebc
000002f0: cfa2 2abc ea04 0ebc 95b0 5f3c d748 02be
00000300: 16f3 683c fd35 b63d 7fc1 963d 0577 a4bd
00000310: 2ed8 f5bc 5b8c 9cbe c95d 21be 53d2 42be
00000320: fea5 0dbe a6b5 c93d ba51 4b3d 1e07 35be
00000330: 4fa1 493e 0cce 783e b4be 313e a3c3 1b3d
00000340: 69d7 ccbd aca9 f6bd f002 db3d 8097 dd3d
00000350: da09 9f3d 28f2 153e bc50 b7bd f29e 91be
00000360: 9014 d1bc 9fea d5bb 6849 873d f19a 51be
00000370: ced2 8ebd 179b 9b3c 9b33 f4bd baa7 bcbd
00000380: 817c c0bd 54e7 2abd 76da 9dbd 26d9 c83d
00000390: 02f2 03bd 88a4 22be 8646 fcbd 621e 243d
000003a0: fa74 203e 8d1a 1d3e b34a 2d3e 0b94 d7bd
000003b0: bb1f f5bd 65ea 8e3c 253a 303d 2b65 2b3e
000003c0: a187 83bd 158f a2bd 9c2a b3bd 20b9 2c3c
000003d0: 5435 f0bd f9be 26be 2439 9cbd 5f89 28be
000003e0: 47b1 a83d 3fa4 2cbd 64b9 71bd 9a4f 30bd
000003f0: 573a c13d 2f1a 5e3e 9555 183e f0fe afbd
0.036031738 0.012352553 0.19813126 0.07498685 0.036564887 -0.028546972 0.060583342 0.114775345
-0.06598128 -0.087422036 0.04245694 0.2196403 -0.18162797 -0.017304402 -0.081603065 0.18941577
0.12441941 0.12003744 0.19804889 0.11741914 0.10451659 0.026665337 0.02833997 0.108713865
-0.18111573 -0.06917732 0.13489814 -0.073766425 0.0016427239 0.06891244 0.20115727 0.042565707
0.11650838 0.030895742 0.14326325 0.08696638 0.05048894 -0.12079992 -0.095088586 0.11405699
0.054070637 -0.1081092 -0.019755453 -0.17671552 -0.06212859 -0.079733 -0.009848184 -0.04091603
-0.06509255 0.16783302 0.108495474 -0.037613317 0.021204775 -0.09893917 -0.062691465 0.10646177
-0.025805065 -0.101613544 0.25402358 0.1415153 -0.14908345 0.15651354 0.20283975 0.15729405
-0.15414375 -0.06556096 -0.10053111 -0.11938258 -0.040680118 -0.015091254 -0.032173824 -0.24463074
-0.020110365 0.09498808 0.06672482 -0.07772919 0.1223447 0.11469448 -0.09454129 0.072424226
0.06683652 -0.10835444 -0.09239217 0.12678738 0.08654352 0.022765905 0.15693496 0.24469692
0.2256417 0.051611584 -0.082940415 0.09245136 0.07538113 0.009265793 0.04198834 0.09539836
0.10325599 -0.13062805 0.13171096 0.16121455 -0.0295721 0.042081695 0.09035611 0.117288075
-0.014563541 -0.0022234537 0.06937357 -0.04563139 0.056425866 -0.09317219 -0.09082464 -0.05599327
0.11185007 -0.05493266 0.09565235 0.0806642 -0.13463987 0.0026599017 0.13606529 -0.13104801
-0.16356045 0.044837553 -0.14155243 -0.042084232 0.083437644 -0.03145567 0.15423869 0.18336244
0.1717494 0.05790258 -0.059066657 0.079009175 -0.002703857 -0.026247984 0.16454498 -0.07471124
0.0589206 -0.022275437 0.09223299 0.054168172 0.1456865 -0.027533596 -0.1025083 -0.04854593
0.06386019 -0.1623304 -0.24466233 -0.0015216215 0.009373845 0.12258417 -0.10081383 0.09858691
0.13670196 0.0043818546 -0.0820673 -0.026449824 0.1444567 0.10366629 -0.030196441 0.054724984
0.18832749 0.13189864 0.0329805 0.052058816 -0.092036 -0.09141807 -0.024304474 -0.02223655
-0.038430598 -0.0033499405 -0.024475109 0.004209579 -0.032510858 0.09206593 -0.020354334 0.0071353293
-0.080246285 -0.026403928 -0.05998924 -0.16108584 0.22738577 0.19587632 0.14622104 -0.019408148
-0.09130013 0.13016687 0.19501708 -0.015540429 -0.010414793 -0.008668164 0.01365294 -0.12723099
0.014218112 0.08897016 0.07361125 -0.08030514 -0.03001031 -0.30575833 -0.15758432 -0.19025545
-0.13832852 0.098491 0.049638487 -0.17678496 0.1969044 0.2429735 0.17357904 0.03802837
-0.10002024 -0.12044081 0.1069392 0.10819912 0.07765551 0.14643157 -0.08950946 -0.28441578
-0.0255225 -0.006528213 0.06605798 -0.20469262 -0.069738016 0.018994851 -0.119239055 -0.09211679
-0.09398747 -0.041724518 -0.07707684 0.09807043 -0.03221322 -0.15883076 -0.12318139 0.040068038
0.15669623 0.1534216 0.16923027 -0.10526284 -0.11968943 0.017445752 0.0430242 0.16737811
-0.064223535 -0.07937447 -0.087483615 0.010542184 -0.117289215 -0.16283788 -0.07628086 -0.16458653
0.08236938 -0.042148825 -0.059014693 -0.043044664 0.094349556 0.21689676 0.14876397 -0.08593547

module.model.4.bias f4 [16]
00000000: 247f 2e3e 8dea f9bc 0bc6 00bd d746 213d
00000010: 14b7 2c3e 5eea ca3d 4574 f53d ff7f 283d
00000020: d8b1 773d bf77 27bd 53e6 2dbd 9e15 d83d
00000030: 58ee d23d 47e0 89bd 877c 4d3e 40ff f43c
0.17040688 -0.03050735 -0.03143887 0.0393742 0.16866714 0.09907983 0.11985067 0.04113769
0.06047234 -0.040885683 -0.042455982 0.10550998 0.10299367 -0.06732231 0.20067035 0.029906869

module.model.6.weight f4 [16, 16, 3]
00000000: a18b 863c da61 da3c 8941 a4bd dbcd 193d
00000010: 7bec d23c 5861 d63d 9483 b33d 2f23 113e
00000020: 43ce 13bd 078a 71bd a450 cc3d 9f68 c53d
00000030: 0831 043e ce6c 0a3e 4f6d 3c3d fc0a 57bc
00000040: 5bc7 153e 23cd 843d 32b4 bf3c 021b 2e3c
00000050: 55b1 953d 7e51 663e e2bd 84bc 5a0f 473c
00000060: 3047 f73d 458c 07bd c1a9 fa3c 9da2 adbb
00000070: 694e 1cbd ca70 293e 9767 2c3e c300 4bbd
00000080: 761f 533d 1388 833e 318c c83d 5901 a6bd
00000090: 58a7 7f3d 9606 73bc e038 e73d 30bd 423e
000000a0: e878 8a3e 9bcc 76bc ca1b 13bd 74b1 08be
000000b0: d50a 263e e2a5 10bd c2f8 663e 7784 213e
000000c0: e13e 4a3d 5c71 1a3e ea9d 643d 6fcc 87bd
000000d0: 0acb de3d dcbf 9a3d f546 a63c 3c77 3a3e
000000e0: 7313 ee3d 215d f7bd 6867 103e 33fc b3bd
000000f0: 71aa 053c 2c64 e2bd 5b3c 253e 2ea9 26be
00000100: 2865 763d 121e a23c ecaf 9e3c ad16 1f3e
00000110: 0f29 5c3d 13a1 b9bd cec5 3d3e 1d50 5abc
00000120: 64ac 733d 4ac1 173d e0a9 863d a01e 0e3e
00000130: aac9 433e aec1 d1bc a760 b1bd 5f7a b63b
00000140: 5e43 77bd 5a4f 3ebe 117d 58bd fa0c 00be
00000150: a33b 0abd cef9 2a3e 106b 3f3d 2dcd 383e
00000160: 93d9 e93d 6b83 b73d 9d14 03bd d3b5 36bd
00000170: 98cc 30bd 777a 363e 002f 3dbd 94c3 103e
00000180: 9075 ea3d 9b68 103e ca5b bf3d 3d0f 643e
00000190: 3fc2 143e 19ab 25be c9c3 47bd ad64 a53c
000001a0: 3b2b febb a6c7 e93d cd89 f3bb 8284 d53d
000001b0: 713e cc3c c132 163d 1151 643d 9f1e 863d
000001c0: 5f22 f3bd 6949 e7bd a5c0 2ebc 7f7d 1e3e
000001d0: 44c8 e1bd d88b babc 76ac 94bc 5dbb 7c3d
000001e0: 5455 cabc 2d6b 293e 2343 6dbc 3bb6 8c3d
000001f0: d40a 0b3c f96f 0fbd 4673 963c a39a 89bc
00000200: 15d2 ce3d 2640 5fbe bdee 463d bdda 82bd
00000210: b4f8 cbbd fd6c 803d 06f1 d8bd 9fdd 6c3c
00000220: a6ad 9dbd 7d11 18bd 48af dbbd cbe2 d7bc
00000230: 0c72 cf3c 2b31 603d ac01 1a3e b5b4 c93d
00000240: 27a0 073c c703 50bd 7554 373d 5db8 27be
00000250: 86b5 563c 5194 183c 565a 093e 90af e03d
00000260: af5e 513b 38a4 a13d b5b0 b43d 9f4f cb3d
00000270: 0739 b3ba 7b9c cf3d 3eb6 163e f2c3 c1bc
00000280: 1121 60bd c0e6 bf3d 9811 9c3d b21f dd3d
00000290: 003c f9bb 73ff d5bc d279 ca3d 3a1a 0abc
000002a0: 5e47 6bbd f10b 2abc 3a60 913d 0599 583e
000002b0: fd04 643e a705 8e3d dd27 3c3d dbf2 a2bc
000002c0: bfb1 443e 7d23 07bd 5b26 17be d83c 30bd
000002d0: 2db3 bdbb 1fca 4fbd 94f1 93bc d858 02bd
000002e0: 21cd 6fbd aeb5 3cbd 611e 433e 769f 7cbd
000002f0: 985b 653e 532a 85bd dc37 303e d003 33bb
00000300: 70fd 78be 9ded c5bd eccf 89bd aa04 e1bc
00000310: 9673 a6bd dc58 8e3c d7c4 373d 6da1 0e3e
00000320: 2ca0 063e 05e7 6a3e f916 213e 1a62 b0bd
00000330: a66a 04bc a0b4 39bd a498 913d 5c52 373e
00000340: c5a3 343e 51c8 143d 0269 dfbc 6e83 ab3d
00000350: 41fa c93d cf1d afbd cd30 e93d a389 e3bd
00000360: d286 1ebc 60b5 afbd 3763 03bd 9ba1 4ebb
00000370: d04d 87bd 5b38 0ebe 80c8 863d 3c3e ae3d
00000380: 2e0b c83d a8f8 5f3e bef3 fa3c c595 013e
00000390: a921 053c 270f 22bd 54c9 673e 9bcb 37be
000003a0: 3e5c e6bd 72b8 0cbe 4e2b 713d 1390 e0bd
000003b0: 3a8d 7cbc b910 f13c 54bf cebd 849c 76bc
000003c0: 10f0 b43d bdbc 0c3e beee 5e3d 02dd 443e
000003d0: 040b ad3d dd99 0b3e 565a 63be cb0a 23bd
000003e0: 94bf 18be 70fb 23be 11dd 3ebe f399 36be
000003f0: c4dd d5bd f3d3 92bc 9456 913d ea82 a4bd
0.016424002 0.026657987 -0.08020312 0.037549835 0.025747528 0.104677856 0.08765331 0.14173578
-0.03608538 -0.058969524 0.099763185 0.096390955 0.12909329 0.13518068 0.046002682 -0.0131251775
0.1462683 0.06484439 0.023401354 0.010626556 0.07309214 0.22492024 -0.016203824 0.012149656
0.12074125 -0.033092756 0.030598523 -0.005298926 -0.038160715 0.16546932 0.16836391 -0.049561273
0.051543675 0.25689754 0.097923644 -0.08105726 0.06241545 -0.014833113 0.11290145 0.19017482
0.2704537 -0.01506343 -0.035915174 -0.13348943 0.1621507 -0.03531445 0.22555831 0.15773188
0.049376372 0.15082306 0.05581466 -0.066307895 0.108785704 0.075561255 0.020297507 0.18209547
0.116248034 -0.1207831 0.14101946 -0.087883376 0.008158312 -0.110542625 0.16136305 -0.16275474
0.060155064 0.01978973 0.019370995 0.15535994 0.053750094 -0.090639256 0.18532488 -0.013324765
0.059490576 0.03704957 0.0657537 0.1387887 0.19119897 -0.025605049 -0.08661013 0.005568787
-0.06036698 -0.18584958 -0.052853648 -0.1250495 -0.03374828 0.16696855 0.046732962 0.18047018
0.11418452 0.08960613 -0.03200208 -0.044606995 -0.043163866 0.17820154 -0.0461874 0.14137107
0.114482045 0.14102404 0.09343679 0.22271438 0.14527224 -0.1617855 -0.0487707 0.020189608
-0.0077566183 0.11415033 -0.0074321986 0.104256645 0.024932118 0.036669496 0.055741373 0.06548809
-0.1187179 -0.11293299 -0.010666047 0.1547756 -0.11024526 -0.02277176 -0.018148642 0.06170212
-0.02469889 0.1654479 -0.014481339 0.06870695 0.008486468 -0.035018895 0.018365514 -0.01679737
0.10098664 -0.21801814 0.048567522 -0.06389377 -0.09959546 0.06270788 -0.105928466 0.014457135
-0.076991364 -0.037126053 -0.107267916 -0.02635326 0.025322936 0.05473439 0.150397 0.0984892
0.008277929 -0.050784852 0.04475828 -0.16378923 0.013104802 0.009312705 0.13413367 0.10970986
0.0031947305 0.0789265 0.08822767 0.09927296 -0.0013673612 0.10137268 0.14717957 -0.023653004
-0.054719035 0.09370184 0.07620543 0.10797061 -0.0076060295 -0.026122784 0.09886517 -0.008429104
-0.057441108 -0.010378824 0.07098432 0.21152122 0.22267528 0.06934672 0.045936454 -0.019891193
0.1920843 -0.03299283 -0.14760725 -0.043026775 -0.0057891817 -0.050729867 -0.01805953 -0.03182301
-0.058545236 -0.0460717 0.19054557 -0.06167551 0.22398221 -0.06502213 0.17208809 -0.0027315505
-0.24315429 -0.09664462 -0.06729111 -0.027468044 -0.08127515 0.017376356 0.044865455 0.13928767
0.13147038 0.2293969 0.1573142 -0.086124614 -0.008082068 -0.045338273 0.07109192 0.17902511
0.17640598 0.03632385 -0.027271751 0.083746776 0.09862185 -0.085506074 0.11386261 -0.111102365
-0.009675698 -0.085795164 -0.03207704 -0.003152943 -0.066066384 -0.13888685 0.06581211 0.08507964
0.09767757 0.21872199 0.030633803 0.12654789 0.008125701 -0.03956523 0.22635394 -0.17948763
-0.112480626 -0.13742235 0.05887919 -0.1096498 -0.01541453 0.02942692 -0.10095087 -0.015051965
0.08834851 0.13743873 0.0544269 0.19224933 0.08449367 0.13632913 -0.22202429 -0.039805215
-0.14916831 -0.16013885 -0.18639018 -0.17832164 -0.10442689 -0.01792333 0.070965916 -0.080327824

module.model.6.bias f4 [16]
00000000: 3068 143d b63f d3bd 3d44 513d 8ff0 3f3d
00000010: efb3 b9bd 0efe 133e 7bd3 27be 585f 413d
00000020: 92b3 a7bd e34d bfbd d963 d83d e52b 40bd
00000030: ded9 1f3e 17bd ba3d 4bb0 383d 1a1c cd3d
0.036232173 -0.10314886 0.051090468 0.046860274 -0.09067523 0.14452383 -0.16389267 0.047210068
-0.08188547 -0.093410276 0.105659194 -0.04691686 0.15610453 0.09118097 0.04509 0.100151256

module.model.8.weight f4 [16, 16, 3]
00000000: a884 ef3b 61c1 4b3d 54f9 ab3d 1e4e a93d
00000010: 30df 4fbe 3693 c9bb 1d19 9b3d 25d7 943d
00000020: 6cb7 a53d 87ec 5cbc ec53 283e d3b1 b8bb
00000030: f9d3 68be f9cf 56bd 1760 593b 3c0e 2fbe
00000040: 07a1 a63d f2d2 13be 1cab 2cbe fa16 60be
00000050: f988 6f3d c404 2f3e 240a 2a3d 0ec1 d63d
00000060: 2763 58b9 3a89 213d 765a 93be c764 a9bd
00000070: 1d6f 063e 0450 3cbd 15b9 3abe 04fb 033e
00000080: f6e6 bbbd a11a 7bbc 9db1 863d 2254 073e
00000090: 99d4 333d dfe4 0b3d 8695 d0bb a158 c83c
000000a0: 630d 28bd cc89 303e 78c1 dbbc 0363 cebc
000000b0: cee3 37be 778f afbd 7684 3e3d 6ee6 d93d
000000c0: 6ce4 a93d 0ca5 02bd 3786 11bd b847 eebb
000000d0: 3925 243e d44d 223e 87a7 943c 1809 74bb
000000e0: 30ad 303d bf3e 593d c9ce 1e3e 9cd6 323e
000000f0: 1254 c33d 39e5 c33d 2dbb c0bd be92 6ebe
00000100: 4658 95bb 2b91 843e 6ac7 aa3d 0517 20bd
00000110: 0ef1 2dbb ccbe 6d3d eae8 783d d59c 343e
00000120: ebb8 413e a7a5 7f3d 4b54 67be a817 1a3d
00000130: 65f9 02bd 4323 49bd 348d 50be 278a f6bd
00000140: 691b e5bd dba0 213c 3795 93ba 1b29 fbbc
00000150: f636 433e 613f d4bd 37ea 013e 352a 203e
00000160: 2976 073e 3673 1b3e 64a2 eeba 017b aa3d
00000170: bfd2 cabd cc24 543e 8a67 ddbc 7aac 823c
00000180: 4c49 3c3e 58ab 653e f54b 1b3e c67c 38bd
00000190: dea2 a9bc b3eb abbb 1173 be3d ab80 933e
000001a0: 8ba6 0a3e 36be 0f3d f66e ddbd 1f3f 72bd
000001b0: 5083 373e f2ab 2bbd c987 ef3d f4b2 103e
000001c0: 7ec0 8b3d cfa5 c03d ebb3 813b b819 3cbe
000001d0: 5b78 0dbe ddae b2bc c81e 203e ce83 383c
000001e0: e465 48bd 73f3 e0bd 3ceb 21bd f466 fcbd
000001f0: 46c9 d2bd 0af9 1abe 463b b43d b440 843d
00000200: 49d1 c53d a5c5 213e e113 493e c5e2 08bd
00000210: 93b7 02be 74c5 03be bfdb af3d dc95 d8bd
00000220: 91f8 19be c368 01bc 6fc7 b23d 5327 ee3a
00000230: 8d3a 7dbd 6da7 4f3d 89c9 6f3e 2eb5 da3d
00000240: 09ec d8bd 02e7 5c3e 47f0 ad3d 8c7e cbbd
00000250: ede0 543e a5ef 96bc beb2 db3d f6b7 4f3e
00000260: dfbe ae3c ebf5 0c3e ecc7 8e3e 5cc9 d93d
00000270: c7a5 12b8 400c fa3c fbe0 0b3d 5e19 49be
00000280: 64e4 36bd 34cf 883d cb86 b53c 611c 2b3e
00000290: 95ad 013e 48de 643e 65b7 6d3d 535a bf3b
000002a0: 77fa 283d b23c c63d 76c0 d1bd fb4f 5ebd
000002b0: 6a7d 4b3c 55b4 11be e79c 043e 31e0 0abd
000002c0: 167c aabd 5d5b babd 4ff7 10bd 19c9 493d
000002d0: 9d18 f4bc ea50 9d3c f9d9 f5bd 7f4a bc3d
000002e0: 2d42 18bd e81d a9bd 5b3a e33d 10e7 1f3e
000002f0: 568c 483d 44eb 0a3c a774 e33d 4978 403e
00000300: ffde 213e 9a12 01be 6623 d4bd ef9e d63d
00000310: c4a7 883d 3d78 6dbd 7e66 60bd 54dc 3fbe
00000320: bce7 0e3c 7300 8f3d 2d1e 79bd 97df d3bc
00000330: c341 bb3d 8324 16bd eced 90bd 9c45 b8bd
00000340: 1a22 aabd ef7e b63d c844 9dbd cb39 cebd
00000350: 88ba b1bc c6ee fb3d a236 903d 9738 cabb
00000360: 103a 4a3e 5e9c abbd d4f1 273d 2013 0d3c
00000370: 9252 143e 5cbb 1d3e 58aa 5a3d 194e c03d
00000380: e0b6 5ebd d235 4a3d ae7c ebbd 1afb 51bc
00000390: e3bd ea3d 9fac 693c fe0b 9b3d c3f0 9bbc
000003a0: 624e 3bbd 9581 cc3d 3904 c6bd 0128 bb3c
000003b0: 7f6a 61bb 1adb f1bd 1943 933d ab36 98bb
000003c0: 3fc7 0e3e d443 5a3e 2811 543d fbd5 763b
000003d0: b84b 2ebd bde7 b1bb c931 013e f3ef a83d
000003e0: da50 1dbd bf75 14bd 8179 1a3c 7740 79bd
000003f0: a801 2e3e 5e9e ff3d 0e67 fd3b 61a8 b93d
0.007309515 0.049744967 0.08397165 0.08266853 -0.20299983 -0.006151582 0.07573149 0.07267598
0.080916256 -0.013484127 0.16438264 -0.0056364327 -0.22737111 -0.052444432 0.0033168846 -0.17095274
0.08136182 -0.14435938 -0.16862148 -0.21883765 0.058480237 0.17091662 0.041513577 0.10486041
-0.00020636302 0.03943751 -0.28779954 -0.08271175 0.13128324 -0.045974746 -0.18234666 0.12888724
-0.09174912 -0.015326173 0.06576846 0.13215688 0.04390392 0.034153815 -0.006365481 0.024456324
-0.04102839 0.17240065 -0.026825652 -0.025193697 -0.17957994 -0.085722856 0.046513043 0.10639654
0.08295521 -0.031895682 -0.035528388 -0.007271733 0.16029824 0.15850002 0.01814629 -0.0037236866
0.043133914 0.053038355 0.1550857 0.1746468 0.095375195 0.09565205 -0.09410701 -0.23298165
-0.004557642 0.25892004 0.083388165 -0.039084453 -0.0026541385 0.058043286 0.060769 0.17637952
0.18918197 0.062413838 -0.22590749 0.037620217 -0.031976122 -0.049105894 -0.20366365 -0.12038069
-0.11186869 0.009865011 -0.001125968 -0.030659249 0.19063935 -0.10363651 0.12687002 0.156411
0.13228668 0.15180668 -0.0018206355 0.083242424 -0.09903478 0.20717162 -0.02702691 0.015951384
0.18387336 0.22428644 0.15165694 -0.04504087 -0.020707544 -0.0052466034 0.09299291 0.28809103
0.13540094 0.03509351 -0.1081218 -0.05914223 0.17921185 -0.041912027 0.11695821 0.14130765
0.06823824 0.094066255 0.0039582155 -0.18369186 -0.13815443 -0.021811897 0.15636742 0.011261893
-0.048925295 -0.10983934 -0.039530978 -0.12324324 -0.10292296 -0.15134063 0.08800368 0.06457654
0.096590586 0.15798052 0.1963649 -0.03341939 -0.1276534 -0.12868291 0.08586835 -0.105754584
-0.15036227 -0.007898512 0.08729445 0.0018169679 -0.061823417 0.05069678 0.23416723 0.106790885
-0.10591895 0.21572497 0.08493095 -0.09936246 0.20788927 -0.018424818 0.10727452 0.2028502
0.021331249 0.13765685 0.27886903 0.106341094 -3.4963505e-05 0.03052342 0.034150105 -0.19638583
-0.044651404 0.06680146 0.022159 0.16710044 0.12663873 0.22350419 0.058036227 0.005839625
0.041254487 0.096795455 -0.10241787 -0.054275494 0.012420038 -0.14228947 0.12950478 -0.03390521
-0.08324449 -0.090994574 -0.0353921 0.049264047 -0.029796893 0.019203622 -0.120044656 0.091938965
-0.037172485 -0.08257657 0.11095115 0.15615487 0.04896196 0.008478943 0.11106234 0.18795885
0.15807723 -0.12604752 -0.10358314 0.10479533 0.06672624 -0.057975996 -0.054785244 -0.18736392
0.008722242 0.069825076 -0.060819793 -0.025863452 0.091434024 -0.036655914 -0.0707663 -0.08997652
-0.083072856 0.089109294 -0.076791346 -0.10069617 -0.02169539 0.12301402 0.070416704 -0.006171297
0.19748712 -0.08379434 0.04100211 0.008610517 0.14484623 0.15403503 0.05338511 0.09389896
-0.054373622 0.049367733 -0.1149839 -0.012816215 0.11461999 0.0142623475 0.07570647 -0.019035703
-0.04572905 0.09985653 -0.09668774 0.022846224 -0.0034395752 -0.118093684 0.07190532 -0.004645189
0.13943194 0.21314937 0.051774174 0.0037664163 -0.04255268 -0.0054292367 0.12616648 0.08248892
-0.038407184 -0.036245104 0.009428383 -0.060852494 0.1699282 0.12481378 0.0077332323 0.09065319

module.model.8.bias f4 [16]
00000000: 39dc 5e3e 2cb9 5cbc ff74 673d 5f4b 71bc
00000010: 18c1 cd3d e4cc ecbc cead 40bb f07d 09be
00000020: c177 1b3c 6881 cb3d b222 173e 06c8 e43d
00000030: eadb 05bc df45 833d 586b 11be ee80 6c3d
0.21763696 -0.013471883 0.05650806 -0.0147274425 0.10046595 -0.028906293 -0.002940047 -0.13426948
0.009489001 0.09936792 0.14759329 0.11170964 -0.008170107 0.06409811 -0.14201105 0.057740144

module.model.10.weight f4 [16, 3, 3]
00000000: 13a9 3f3d c854 c8be 4bce 75be 26cf c63d
00000010: a314 2cbd b081 173e e06e 43be 14da 8a3e
00000020: 80d5 2fbe 0b6e 373e ab4e 693e c3b1 893d
00000030: f2c8 083d e74d 01be cf9c 1fbe 086b 97be
00000040: bbb0 98be 549b 7fbd 9ff4 82be 5a47 593e
00000050: 3c31 aabe 8fe6 44bd c4c7 a6bd 71f5 75bd
00000060: d161 343e 684b 103e 2cd8 abbd e978 9abe
00000070: 34f0 0fbd 4142 cf3e 95c2 63be 6d5f 0ebf
00000080: 3766 e0bd efe4 90bd 824d 693e 7d58 cbbd
00000090: fbb7 c1bd 671e 70be 832e 08be 9c1f 533e
000000a0: 4ea6 32be 4894 1abe a186 81be 43ca 7d3d
000000b0: bb19 84be 3656 023c 92e2 e03d 8019 5abe
000000c0: 4a3c 87be 5077 0bbf 650d 123e ac95 a83d
000000d0: 7af4 eabe 92d3 c7be b84e 903d 9367 95be
000000e0: 95b2 8e3e 5d67 b53a 4497 d0be 383f a2be
000000f0: 4633 fa3c 7391 88be 87e5 573d 3fc5 223d
00000100: e3cd 4fbe 3dbf 883e 2259 2ebf b8de 52bd
00000110: 9248 9f3c 4d5c ceba dd36 753e 0b5b 56bd
00000120: 2898 dc3e 2b9b dd3e 39ab 6d3e 2160 a53b
00000130: bda4 0cbf 3099 6c3e 938f 89be b0f9 e2be
00000140: afd4 0f3e aa0e a43e 500e ba3e 3f6b 49be
00000150: f0ff 283e 4efa 083f f0c5 503e 3af7 333c
00000160: 0984 34be 56fa f13c 090f bcbe 0ec5 cbbe
00000170: a196 ad3e 90a6 683e 1b85 c43e 2ede 033e
00000180: 3ff3 3cbe 19da ebbd 814a 3ebe 95ea c2bb
00000190: b365 6f3e f377 a6b9 ab5a 48bd 973f dc3d
000001a0: 06b1 da3e 4ac9 dbbd 8103 993e 283d 8b3e
000001b0: 8a78 7f3e 7bfe 7b3e e887 913d ecd7 643e
000001c0: 1c59 55bd d971 5f3e d2fe 8c3e eace b03d
000001d0: 46be 3abd 4237 bd3d 4158 ad3e f55f 213d
000001e0: 18f7 6d3d 7c33 f8be 5eed 3a3e 5743 8c3c
000001f0: 85de 0abe 5322 8e3e 9f2d 1bbd 9881 813e
00000200: 05a4 10be edf1 373e 2b31 54be ec77 f7bd
00000210: c11a 0b3c a1b0 a9be 643e 2d3d 9843 0b3e
00000220: 6c22 28be e587 75be 30f6 7dbd 4b89 60be
00000230: 8571 ecbe 310a 743e 10a2 91bd 2708 f53d
0.0467921 -0.39127183 -0.24004476 0.09707479 -0.04201187 0.14795566 -0.19085264 0.27119505
-0.17171288 0.17913072 0.22783916 0.067233585 0.03339476 -0.12627374 -0.15587161 -0.29573846
-0.29822335 -0.06240399 -0.25577256 0.21218625 -0.33240688 -0.04807144 -0.08143571 -0.060048524
0.17615439 0.14091265 -0.08390841 -0.30170372 -0.035141185 0.40480235 -0.22242196 -0.5561436
-0.10956996 -0.070749156 0.22783473 -0.09928987 -0.094589196 -0.23449098 -0.13298993 0.20617527
-0.17446253 -0.15095627 -0.25298026 0.06196047 -0.2580088 0.007955125 0.10980715 -0.2129879
-0.26413184 -0.5447893 0.14262922 0.08231673 -0.45889646 -0.39028603 0.070462644 -0.29180583
0.27870622 0.0013840009 -0.40740407 -0.31688857 0.030542027 -0.2667347 0.05270913 0.03973889
-0.20293383 0.26708403 -0.68104756 -0.051481932 0.019443784 -0.001574406 0.2394671 -0.05233292
0.43084836 0.43282446 0.23209848 0.00504686 -0.5493887 0.23105311 -0.2686735 -0.4433112
0.14045976 0.32042438 0.36339045 -0.19669817 0.16503882 0.53506935 0.20388007 0.010984236
-0.17628492 0.029538315 -0.3673022 -0.39798778 0.33903983 0.22719789 0.383828 0.12877724
-0.18452166 -0.11516208 -0.18583108 -0.0059483745 0.23378639 -0.00031751356 -0.048914593 0.10754316
0.42713183 -0.10731752 0.29885486 0.27195096 0.24948326 0.24608795 0.07106 0.22347993
-0.052086934 0.21820773 0.27538162 0.08633216 -0.045591615 0.09239055 0.33856395 0.039398152
0.058096975 -0.4847678 0.18254611 0.017121954 -0.13561447 0.27760562 -0.037885305 0.25294185
-0.14125068 0.17963381 -0.20721881 -0.1208342 0.008490265 -0.3314257 0.04229583 0.13600004
-0.16419381 -0.23977621 -0.06200236 -0.21927373 -0.4618036 0.23832013 -0.07110989 0.119644456

module.model.10.bias f4 [3]
00000000: ea06 ecbe 1213 8e3e 0ef8 2a3e
-0.46099025 0.27748924 0.16696188
