saved_models/cnn/cnn_dis_ERCOT_tws.pt (torch, 238956 bytes, 5 tensors)

model.0.weight f4 [128, 24, 3]
0	0x3e7b330f	0.24531196
1	0xbe27cb23	-0.16386084
2	0x3e0cccd1	0.13750006
3	0x3ea318c5	0.31854835
4	0xbe89ddc6	-0.26927012
5	0xbab840d8	-0.0014057411
6	0x3e757d67	0.23973618
7	0xbcb1ffdd	-0.02172845
8	0xbdc77392	-0.0973884
9	0x3dae95b7	0.085246496
10	0x3da51170	0.080599666
11	0xbe419cd1	-0.18907477
12	0x3db62b67	0.08894997
13	0xbdcb774a	-0.09934862
14	0x3e022d46	0.12712583
15	0xbe023cef	-0.12718557
16	0xbbc68c91	-0.0060592373
17	0x3e16fe82	0.14745525
18	0xbea254e8	-0.31705403
19	0x3e863c81	0.26218036
20	0x3d58fa00	0.052972794
21	0xbe80f903	-0.2518998
22	0x3e1c57cc	0.15267867
23	0xba4db8d4	-0.0007847671
24	0xbe025229	-0.12726654
25	0xbdcca145	-0.09991697
26	0x3d7a9a81	0.061182503
27	0xbe45f985	-0.19333465
28	0x3e0e8d92	0.13921192
29	0xbd389c68	-0.045071036
30	0xbd59923d	-0.05311798
31	0x3d3f4921	0.0467006
32	0xbcccc70d	-0.024997259
33	0xbd48fdee	-0.04907029
34	0x3e18e17c	0.14929765
35	0x3da40e87	0.08010583
36	0xbdeef9ce	-0.1166874
37	0xbe3fba18	-0.18723333
38	0x3d39ffaf	0.045409855
39	0xbe3dc115	-0.18530686
40	0x3dd9a68b	0.10627469
41	0x3d4816d4	0.048849896
42	0xbdf10009	-0.11767585
43	0x3dc3175a	0.09525938
44	0x3e1ca6e9	0.15298046
45	0xbe2a01a2	-0.16602185
46	0xbc8d802b	-0.01727303
47	0x3c9255df	0.017863212
48	0xbe86c7d0	-0.2632432
49	0x3e689f3c	0.22716993
50	0x3d8a531b	0.06754132
51	0xbd6dcf2c	-0.058058903
52	0x3d826e57	0.06368702
53	0xbea65f58	-0.32494617
54	0xbca79980	-0.020458937
55	0xbdca7337	-0.09885257
56	0xbdcc4be1	-0.0997541
57	0xbe142bca	-0.14469829
58	0xbda93a83	-0.08263113
59	0xbd8e0a60	-0.069355726
60	0xbe1d6431	-0.15370251
61	0x3db330e5	0.0874956
62	0xbe0a848a	-0.13527122
63	0xbd789a31	-0.060693923
64	0xbdabf28f	-0.08395874
65	0xbdf0a7f3	-0.11750784
66	0x3d5c0738	0.05371782
67	0xbd68566a	-0.056723036
68	0x3d3d024f	0.04614478
69	0x3dda7f1f	0.10668778
70	0xbea11525	-0.31461444
71	0xbe54f473	-0.20796375
72	0x3e6fcc63	0.23417811
73	0xbe62ae53	-0.22136812
74	0x3d71f827	0.059074547
75	0x3d8c9b5e	0.068655714
76	0xbd029578	-0.031880826
77	0xbe8e114d	-0.27747574
78	0xbd981abc	-0.07426974
79	0x3e27f3fe	0.1640167
80	0x3dd41f66	0.10357551
81	0x3ccc6d7d	0.024954552
82	0xbdccea76	-0.100056574
83	0xbe0301aa	-0.12793604
84	0xbca70d4a	-0.020392079
85	0x3db5cbc8	0.08876759
86	0xbdc72be1	-0.09725166
87	0xbe1ae9dc	-0.15128273
88	0x3e367f13	0.17821912
89	0xbe1728e4	-0.14761692
90	0xbe50ba67	-0.20383607
91	0x3e0e439b	0.13892977
92	0xbd6e0a40	-0.058115244
93	0xbd72e162	-0.059296973
94	0xbda87c52	-0.08226837
95	0xbe4f3e04	-0.20238501
96	0x3e2322c8	0.15931237
97	0x3d468ae7	0.04847231
98	0xbe076420	-0.13221788
99	0x3e8619a4	0.26191437
100	0xbe91877f	-0.28423688
101	0xbe18d711	-0.14925791
102	0x3e6ee852	0.2333081
103	0xbe0e5e02	-0.13903049
104	0xbda88f26	-0.082304284
105	0x3e696e31	0.22795941
106	0xbe854577	-0.2602956
107	0xbd657306	-0.056017898
108	0x3e7543b7	0.23951612
109	0x3d5a069e	0.053228967
110	0xbe277e7e	-0.16356847
111	0xbc5e988d	-0.013586176
112	0xbdcb2911	-0.09919942
113	0x3e1c2d26	0.15251598
114	0x3de44f35	0.1114792
115	0x3df58b64	0.11989477
116	0x3cdedddd	0.027205402
117	0xbd771d7d	-0.060330857
118	0x3dd6ed8e	0.10494529
119	0xbe39fd0e	-0.18162939
120	0xbdd83ce2	-0.105584875
121	0xbe52ffd8	-0.20605409
122	0xbdf99049	-0.12185723
123	0xbd9078dd	-0.07054303
124	0x3ccbf28f	0.024895934
125	0xbdfa3899	-0.122178264
126	0xbe1badbe	-0.15202996
127	0x3d8d23e4	0.06891611
128	0xbd8aafc1	-0.06771804
129	0xbda010ed	-0.07815728
130	0xbe600c26	-0.21879634
131	0x3e2b10b6	0.16705593
132	0xbe4b6e00	-0.1986618
133	0x3d8a987f	0.067673676
134	0x3e825196	0.2545287
135	0x3c936b7f	0.017995594
136	0x3e864106	0.26221484
137	0x3dfb051f	0.12256836
138	0xbe6548bb	-0.22391026
139	0x3dae666d	0.0851563
140	0x3e881d31	0.2658477
141	0xbe845e1c	-0.2585305
142	0x3e269e63	0.16271357
143	0x3ea01512	0.31266075
144	0x3d273ff3	0.04083247
145	0x3dd14832	0.10218848
146	0xbdb0ffdb	-0.086425506
147	0xbd4f8a8d	-0.05066924
148	0xbe3a8d86	-0.1821805
149	0xbe1f9484	-0.15583998
150	0xbc530fc3	-0.012882176
151	0xbdcffd1b	-0.10155698
152	0xbe12d594	-0.14339286
153	0x3db4fbe7	0.08837109
154	0x3d81ede4	0.06344202
155	0x3c2f5341	0.010701002
156	0xbe13705a	-0.14398327
157	0xbd71066d	-0.05884402
158	0x3c444d50	0.011981323
159	0xbd00b0a4	-0.031418458
160	0x3cc6f40d	0.024286294
161	0x3d28f852	0.04125244
162	0xbc0d7df6	-0.008635988
163	0xbdac532c	-0.08414301
164	0xbd279447	-0.040912893
165	0xbd843d44	-0.06456998
166	0x3e85878d	0.2607998
167	0xbcd84e70	-0.02640459
168	0xbe68c157	-0.22730003
169	0x3e885131	0.26624444
170	0xbc991409	-0.018686311
171	0xbe28ec68	-0.16496432
172	0x3e949c02	0.29025275
173	0x3d6feb88	0.05857423
174	0x3dd2ce29	0.10293228
175	0x3e2ee21c	0.17078441
176	0xbd2ec3aa	-0.04266707
177	0xbe4b816b	-0.19873588
178	0x3e649aed	0.22324724
179	0xbe3083f1	-0.17237832
180	0x3db8cca7	0.09023409
181	0xbe015a85	-0.12632187
182	0xbc8e09e6	-0.017338704
183	0xbe02acfc	-0.12761301
184	0xbda94c1d	-0.082664706
185	0xbd057cd0	-0.032589734
186	0xbd3b2cd2	-0.04569704
187	0x3d9e4ffc	0.077300996
188	0x3e2f2f37	0.17107855
189	0x3bd29c8d	0.0064273537
190	0xbc9f4078	-0.01943992
191	0x3e16259e	0.14662787
192	0x3e1537ef	0.14572118
193	0xbc270dda	-0.010196174
194	0xbe3d1336	-0.1846436
195	0xbd08056c	-0.033208296
196	0xbdbe2fb4	-0.092864424
197	0xbe5b2f9f	-0.21404885
198	0xbda76649	-0.08173806
199	0xbe00efa7	-0.1259142
200	0xbe55e820	-0.2088933
201	0xbbcecc39	-0.0063109663
202	0x3e704f37	0.23467718
203	0xbe71faa5	-0.2363077
204	0xbe3af774	-0.18258458
205	0x3e767821	0.24069263
206	0xbd316eac	-0.043318436
207	0xbdee347f	-0.116311066
208	0x3e8e282b	0.2776502
209	0xbd4fc8a7	-0.050728466
210	0x3e454402	0.19264224
211	0x3de985e6	0.11402492
212	0xbe166e44	-0.146905
213	0x3e32cc4b	0.17460744
214	0xbd41e929	-0.0473415
215	0xbe2a51c2	-0.1663275
216	0xb8ae6e1b	-8.317475e-05
217	0xbe3b870f	-0.1831324
218	0x3e6502db	0.2236437
219	0xbd60238b	-0.054721396
220	0x3df92893	0.12165942
221	0x3e95ab36	0.29232186
222	0xbe17ae9f	-0.14812706
223	0x3e6b535f	0.22981022
224	0x3e949580	0.2902031
225	0x3d8e36a2	0.06944014
226	0xbeae796a	-0.34077007
227	0x3e922d45	0.28550163
228	0xbc3c9fb8	-0.011512689
229	0x3ca3d9e0	0.020001352
230	0x37437c3c	1.1651831e-05
231	0x3e971411	0.29507497
232	0xbd571d12	-0.052517958
233	0xbc53364c	-0.012891363
234	0x3e1a8c8e	0.1509268
235	0x3dc8aa0b	0.09798058
236	0x3e96c1f1	0.2944484
237	0x3e215195	0.15753777
238	0xbe631c37	-0.22178732
239	0xbe68e6e8	-0.22744334
240	0x3cf7a3c4	0.030229457
241	0x3eb3ff2a	0.35155612
242	0xbbfb4802	-0.007668496
243	0x3e050a26	0.12992153
244	0xbe0d004c	-0.13769644
245	0xbe4c8363	-0.19971995
246	0x3d297431	0.041370574
247	0xbc8b43c5	-0.017000088
248	0x3d1f65dd	0.038915504
249	0x3e106262	0.1410003
250	0xbe5dab14	-0.21647292
251	0x3df32107	0.11871534
252	0x3d0fa768	0.03507176
253	0x3d1c9b3e	0.038233988
254	0xbd3098ef	-0.0431146
255	0x3d494932	0.04914207

model.0.bias f4 [128]
0	0xbed7dca0	-0.4216051
1	0x3e1bf70e	0.15230963
2	0xbeb63f2b	-0.35595068
3	0xbedd243e	-0.43191713
4	0xbd86d2dc	-0.06583187
5	0x3e32c7c3	0.17459016
6	0x3e363549	0.17793764
7	0x3da14b6f	0.07875716
8	0xbe2c014d	-0.16797371
9	0xbc26afe1	-0.010173769
10	0x3c2ebb20	0.010664731
11	0xbe2af972	-0.16696718
12	0x3e158fe8	0.14605677
13	0x3d805bfb	0.06267544
14	0xbe2e964a	-0.17049518
15	0x3e992407	0.299103
16	0x3e3d496d	0.18485041
17	0xbe8e2e32	-0.2776962
18	0xbe9638a5	-0.2934009
19	0x3d69cc02	0.057079323
20	0xbe9137f2	-0.28362995
21	0x3e3026e1	0.17202331
22	0xbe888520	-0.26664066
23	0x3ea1f8bf	0.3163509
24	0xbdb726c7	-0.08942943
25	0xbe56cfa5	-0.20977648
26	0x3e077183	0.13226895
27	0x3e0269b5	0.12735637
28	0x3d00df15	0.031462748
29	0x3d092e7b	0.033491593
30	0xbe09b7b8	-0.1344899
31	0xbe96ccf2	-0.29453236
32	0xbbcfbe22	-0.0063398043
33	0x3c31b478	0.01084625
34	0x3eb6f46d	0.35733357
35	0xbdcfdee3	-0.10149934
36	0xbdb2ef13	-0.08737006
37	0xbeb8e784	-0.36114132
38	0xbc9fa09a	-0.01948576
39	0x3e89e79c	0.26934516
40	0x3dec4293	0.115361355
41	0x3d7080a5	0.058716435
42	0xbdaf68a7	-0.08564883
43	0x3d105ed8	0.0352467
44	0xbd8c639b	-0.06854936
45	0x3dc453d1	0.09586299
46	0xbd3c7136	-0.046006404
47	0xbe2dcfd1	-0.16973807
48	0x3e3150a7	0.17315923
49	0x3e78db5d	0.2430243
50	0x3ea3da94	0.320027
51	0xbc51f89a	-0.012815619
52	0xbe81b5ea	-0.25334102
53	0x3c538e22	0.012912305
54	0x3da300f9	0.0795917
55	0xbe0f47f4	-0.13992292
56	0xbc427e39	-0.011870914
57	0xbe152d01	-0.14567949
58	0x3d18e6c7	0.03732946
59	0xbe87296f	-0.263988
60	0x3d1fa79e	0.03897821
61	0xbee1c9fe	-0.4409942
62	0x3e3e538e	0.18586561
63	0xbe16bdf2	-0.14720896
64	0xbe3768df	-0.17911099
65	0x3b90c2d7	0.004417758
66	0xbde06e0e	-0.10958491
67	0x3e23c31d	0.15992399
68	0x3e070856	0.13186774
69	0x3e311fb3	0.17297249
70	0xbc8334dc	-0.016016416
71	0xbeaf5ede	-0.34252065
72	0xbd953e43	-0.07287266
73	0x3e622e63	0.22088008
74	0xbb22ac83	-0.0024822063
75	0xbe3084a4	-0.17238098
76	0x3b64903c	0.003487601
77	0xbe057e28	-0.13036406
78	0x3ddf23a4	0.1089547
79	0x3e66bda0	0.22533274
80	0x3e6c8b9f	0.23100136
81	0x3e6c8780	0.23098564
82	0xbc31e6ee	-0.010858281
83	0xbe3e13df	-0.18562268
84	0x3d445683	0.047934067
85	0xbc28c150	-0.010299996
86	0x3e7b12e0	0.24518919
87	0xbe3bcebb	-0.1834058
88	0x3e55339f	0.20820473
89	0x3d3fcb6c	0.046824858
90	0xbd2e081a	-0.042488195
91	0xbee2a09f	-0.4426317
92	0xbe69ddb4	-0.2283848
93	0x3e800cfc	0.25009906
94	0xbdca7ffe	-0.09887694
95	0xbe8fc794	-0.28081954
96	0xbcd101dc	-0.025513582
97	0xbdda01a2	-0.10644843
98	0xbc2969e7	-0.0103401905
99	0x3d94fcb8	0.07274765
100	0x3dbfe44c	0.09369716
101	0x3db4aa96	0.08821599
102	0xbeaeb1b3	-0.3411995
103	0x3d7438f1	0.059624616
104	0xbd8d56b3	-0.06901302
105	0xbdf6730b	-0.120336615
106	0x3cf991a8	0.030464962
107	0xbde7f72e	-0.11326443
108	0xbc92f281	-0.0179379
109	0x3e28157e	0.16414449
110	0x3e1c2e88	0.15252125
111	0x3d745a8e	0.059656672
112	0xbd39c704	-0.04535581
113	0x3c879468	0.016550258
114	0x3e834e8c	0.25645864
115	0xbec7d1cf	-0.3902726
116	0xbde7ef32	-0.1132492
117	0xbe279323	-0.16364722
118	0x3e75f549	0.2401935
119	0xbed4ecd4	-0.41586936
120	0xbd082597	-0.033238973
121	0xbd573764	-0.05254306
122	0xbdfbc6fa	-0.12293811
123	0xbde01b2a	-0.10942681
124	0x3d5ce1a7	0.053926136
125	0xbe830dc7	-0.2559645
126	0x3e2edbc6	0.17076024
127	0xbcf03ca0	-0.029325783

model.2.weight f4 [128, 128, 3]
0	0xbda06fdb	-0.07833835
1	0xbe2054ec	-0.15657395
2	0xbe01d142	-0.12677482
3	0x3d749e1e	0.059721105
4	0x3dc286e7	0.09498387
5	0x3d2136cf	0.03935891
6	0x3d74a88f	0.059731063
7	0x3e0408b6	0.12893948
8	0xbe00853f	-0.1255083
9	0x3da7a135	0.08185045
10	0xbd3d09a6	-0.04615178
11	0x3c2a3539	0.010388666
12	0x3ecf4f37	0.40490124
13	0x3e9761ac	0.29566705
14	0x3e473c24	0.19456536
15	0xbe96efe8	-0.2947991
16	0x3ca12bec	0.019674264
17	0x3dedee7e	0.116177544
18	0xbc5eed9e	-0.013606457
19	0x3cfb37f6	0.030666333
20	0x3d098caa	0.033581413
21	0x3e6cf477	0.23140131
22	0x3dfbe6b7	0.12299865
23	0xbcd9a1a3	-0.026566332
24	0x3d6d51d9	0.057939384
25	0xbe93369d	-0.28752604
26	0xbd88a621	-0.066723116
27	0x3d9908fd	0.074724175
28	0xbc5ace40	-0.013354838
29	0xbc899af4	-0.01679752
30	0xbd015edd	-0.03158461
31	0x3ea388fb	0.31940445
32	0x3e48c4f1	0.19606377
33	0xbdc3a431	-0.095528014
34	0x3e609c12	0.21934536
35	0xbc9f96ac	-0.019481026
36	0x3e1cd618	0.15316045
37	0xbda5b72c	-0.08091578
38	0x3d011671	0.031515542
39	0xbe36d6a3	-0.17855315
40	0x3cac430b	0.021028062
41	0xbe3c8b2f	-0.1841247
42	0x3d115f90	0.035491526
43	0xbdb76413	-0.089546345
44	0x3d6ed007	0.05830386
45	0xbdc565f8	-0.096385896
46	0xbd960b1b	-0.07326337
47	0xbeb00dce	-0.34385532
48	0x3e8ab212	0.27088982
49	0x3e83a6ca	0.25713187
50	0x3e1109e0	0.14163923
51	0xbe64583b	-0.22299282
52	0x3e3d5566	0.18489608
53	0x3d2f7cd4	0.042843655
54	0xbdf90a2e	-0.12160145
55	0xbde3d927	-0.11125403
56	0xbdaf7240	-0.08566713
57	0xbddbf868	-0.10740739
58	0xbce8c7d3	-0.028415596
59	0x3d43a0d6	0.047760807
60	0xbdaff89e	-0.08592342
61	0x3db196e7	0.086713605
62	0xbe839732	-0.2570129
63	0x3d9df57c	0.07712838
64	0x3dbb8246	0.09155707
65	0x3e3f4ab9	0.18680848
66	0xbc9a77ac	-0.018855892
67	0xbe8c10a6	-0.27356452
68	0xbd631d76	-0.055448018
69	0x3e647f96	0.22314295
70	0x3d961a0e	0.07329188
71	0xbd9e251d	-0.077219225
72	0x3e515de0	0.20445967
73	0x3dd91955	0.10600535
74	0x3da71b9d	0.08159564
75	0xbd07d809	-0.03316501
76	0xbdea2921	-0.11433626
77	0xbb844ec2	-0.004037709
78	0xbe6d2c2b	-0.2316138
79	0x3dde713c	0.108614415
80	0xbe23d2c0	-0.15998363
81	0x3e08b897	0.13351665
82	0xbe8744bd	-0.2641963
83	0x3ba3799b	0.0049888617
84	0xbdebd9fd	-0.11516187
85	0x3de6f791	0.11277688
86	0xbe93ae68	-0.28844
87	0x3cfc4e8d	0.030799175
88	0x3c7b5d4e	0.01534207
89	0x3e632c37	0.22184835
90	0xbe20e302	-0.15711597
91	0xbe3e6c55	-0.18596013
92	0xbd4b78be	-0.049675696
93	0x3e4051b2	0.18781164
94	0xbd72ed60	-0.05930841
95	0xbe854606	-0.26029986
96	0xbe05f407	-0.1308137
97	0xbd9c7efc	-0.07641408
98	0x3e3cd45c	0.18440384
99	0xbc35b749	-0.011091062
100	0xbe358b96	-0.17729029
101	0x3d392a0c	0.045206115
102	0x3de345d1	0.11097301
103	0x3dfdffdc	0.12402317
104	0x3d92e0bb	0.0717177
105	0x3d19873c	0.037482485
106	0x3db41d0a	0.08794601
107	0xbdd61549	-0.104532786
108	0xbe7c329f	-0.24628685
109	0x3e5d62cb	0.21619718
110	0x3e016d52	0.12639359
111	0x3da7be8c	0.08190641
112	0xbda5673e	-0.080763325
113	0xbd9e4825	-0.07728604
114	0xbda7b32c	-0.08188471
115	0x3e33f38f	0.17573379
116	0x3e5eb5fb	0.21749108
117	0x3d94a73b	0.07258459
118	0x3dab31c0	0.083590984
119	0x3dc11f55	0.09429804
120	0x3cc4cb27	0.024022652
121	0x3d283c8b	0.041073363
122	0x3d807eb4	0.06274167
123	0x3ddd7fa2	0.1081536
124	0x3ed65470	0.41861296
125	0x3de737f2	0.112899676
126	0xbd9b01e7	-0.07568722
127	0x3d26eaa8	0.04075113
128	0x3e1895ef	0.14900945
129	0x3d24e7de	0.04026019
130	0x3d577e10	0.052610457
131	0xbd71188a	-0.058861293
132	0x3d41173d	0.047141302
133	0x3d3b9b60	0.045802474
134	0xbd9fc499	-0.0780117
135	0xbd86a839	-0.06575055
136	0x3da94315	0.08264748
137	0x3d10867e	0.03528451
138	0xbc26bb59	-0.010176503
139	0x3c52d2df	0.012867658
140	0x3e470d8a	0.19438758
141	0xbd960d07	-0.073267035
142	0xbd83f3f4	-0.06443015
143	0xbccb1a68	-0.024792865
144	0xbcea0927	-0.028568817
145	0xbbb8e6c9	-0.005642746
146	0x3d3cb5ba	0.046071745
147	0xbd7a56d3	-0.06111796
148	0xbe4fca3d	-0.20291992
149	0xbdd2c83e	-0.102920994
150	0x3e60f3f2	0.21968058
151	0x3de8c918	0.113664806
152	0x3e92c161	0.2866316
153	0x3e89d5ef	0.2692103
154	0xbe1c295a	-0.1525015
155	0xbc67dc4f	-0.014151647
156	0xbe682e43	-0.22673897
157	0x3e2bf480	0.16792488
158	0xbdbc4917	-0.09193628
159	0xbe4b050a	-0.19826141
160	0x3e89e13c	0.26929653
161	0x3dbfba10	0.093616605
162	0xbcb985cf	-0.022646813
163	0xbdcd72f5	-0.10031692
164	0x3de78e93	0.11306491
165	0xbe110d15	-0.14165147
166	0xbe08ef9a	-0.1337265
167	0xbe34c63d	-0.17653747
168	0x3dc830d4	0.09774938
169	0xbe672b60	-0.2257514
170	0xbbaf03fc	-0.005341051
171	0xbe4103ca	-0.18849102
172	0xbe5540eb	-0.20825545
173	0xbd576425	-0.05258574
174	0xbb1c91fb	-0.0023890722
175	0x3e31f013	0.17376737
176	0xbe122f3c	-0.14275831
177	0x3e08cfcb	0.13360517
178	0xbe69df12	-0.22839001
179	0xbe46b282	-0.19404033
180	0x3e920a30	0.28523397
181	0xbea88e06	-0.32920855
182	0xbd12ab29	-0.035807762
183	0xbda95db3	-0.08269825
184	0x3d11c6b7	0.0355899
185	0xbe334c3c	-0.1750955
186	0x3d91c584	0.07117751
187	0x3e2062ae	0.15662643
188	0x3cd52901	0.026020529
189	0xbbd48e22	-0.00648667
190	0xbe3b91d2	-0.18317345
191	0x3da014bb	0.07816454
192	0xbe0bae9f	-0.13640831
193	0xbe3cfbc5	-0.18455417
194	0xbd7e5ef8	-0.062102288
195	0x3d8e77b6	0.06956427
196	0x3dcac23b	0.09900328
197	0x3e334f2d	0.17510672
198	0x3c43599c	0.01192322
199	0xbd806530	-0.062693
200	0xbdd643d2	-0.104621544
201	0x3daa5fa8	0.08319026
202	0xbcc55f46	-0.024093281
203	0x3e19f692	0.15035465
204	0x3e0e607f	0.13903998
205	0xbe681b4f	-0.22666667
206	0x3f1ae2ce	0.60502326
207	0x3e041a90	0.12900758
208	0x3c96301f	0.018333493
209	0xbdcc0130	-0.09961164
210	0x3c35c059	0.011093223
211	0xbddbcb2e	-0.10732113
212	0xbd82940c	-0.06375894
213	0xbe03f13f	-0.12884997
214	0xbd672a49	-0.05643681
215	0xbe9e8096	-0.30957478
216	0xbce731c5	-0.028221974
217	0x3ded769a	0.11594887
218	0x3e31b30a	0.17353454
219	0xbdfa7ab8	-0.12230438
220	0x3d61350e	0.054982238
221	0xbe031b76	-0.12803444
222	0x3e70f380	0.23530388
223	0x3e68d1c4	0.22736269
224	0x3eab4700	0.33452606
225	0x3e87af0d	0.2650074
226	0x3df8ad29	0.12142403
227	0x3d86ef1d	0.06588576
228	0xbd0428f6	-0.032265626
229	0xbe5572f1	-0.20844628
230	0x3e2b7f54	0.1674779
231	0xbd5e24f5	-0.054234464
232	0xbdb130ac	-0.086518615
233	0xbe488e32	-0.19585493
234	0x3eebe2c3	0.46071443
235	0xbdd36850	-0.103226304
236	0x3c353d35	0.011061956
237	0xbcc196b8	-0.023631439
238	0xbdc2d364	-0.09512976
239	0x3e6282c9	0.22120203
240	0x3e599f91	0.21252276
241	0x3dd446eb	0.10365089
242	0x3dfcb7e7	0.12339764
243	0x3d1f51ab	0.038896244
244	0xbd8eff80	-0.069823265
245	0x3db14a19	0.08656711
246	0x3c22eab0	0.009943649
247	0x3df5ba0f	0.119983785
248	0x3e0ac74c	0.13552588
249	0xbeb20f1c	-0.34777153
250	0x3da2038a	0.07910831
251	0x3d58c44a	0.05292157
252	0xbe39f2a0	-0.1815896
253	0xbd1f7284	-0.03892757
254	0xbe87c9bd	-0.26521102
255	0xbdda31b2	-0.1065401

model.2.bias f4 [128]
0	0xbd12ae40	-0.03581071
1	0xbdcbbcf3	-0.099481486
2	0x3d444d14	0.04792507
3	0x3cc35cba	0.023847926
4	0x3b8afee2	0.00424181
5	0xbe16ff7f	-0.14745902
6	0xbdb98627	-0.09058791
7	0xbd33bc17	-0.04388055
8	0xbe3ac707	-0.18239985
9	0xbe0582da	-0.13038197
10	0xbdc3f604	-0.09568408
11	0xbc43590f	-0.011923089
12	0x3b474b1c	0.003040976
13	0xbd8ae2b5	-0.06781522
14	0x3dd2889b	0.10279962
15	0xbd6582cb	-0.056032937
16	0x3c73f174	0.01488911
17	0xbb6de88f	-0.0036301946
18	0xbd53dc4b	-0.05172376
19	0x3d35a442	0.0443461
20	0xbde8263e	-0.11335419
21	0xbbdcb2a4	-0.006735163
22	0xbdad5dd7	-0.08465164
23	0xbe1ed499	-0.15510787
24	0x3c097881	0.008390547
25	0xbdbdb029	-0.092621155
26	0xbdcdb441	-0.10044146
27	0xbd8535de	-0.06504415
28	0xbd9980de	-0.074952826
29	0xbd5af470	-0.05345577
30	0xbd93fbc3	-0.07225754
31	0xbe18298c	-0.14859599
32	0xbdaf477e	-0.08558558
33	0xbda84792	-0.08216776
34	0xbcd6ba8d	-0.026212001
35	0x3ca9f1dd	0.020745212
36	0xbe4bb458	-0.19893014
37	0xbd47d276	-0.048784696
38	0xbbf903a0	-0.007599309
39	0xbda9bbfe	-0.0828781
40	0xbe576525	-0.21034677
41	0xbd4a6fef	-0.049423154
42	0x3cbe1cef	0.023207156
43	0x3d393f56	0.045226417
44	0xbd5fa25c	-0.054598197
45	0xbd9fd991	-0.078051694
46	0x3d4472f2	0.047961183
47	0x3cd94a7e	0.026524778
48	0xbcfa3b88	-0.030545965
49	0xbd4263e2	-0.047458537
50	0x3da18eef	0.078885905
51	0xbd8c66c9	-0.06855542
52	0x3bf0cef2	0.0073488886
53	0xbe340a15	-0.17581971
54	0xbd13642f	-0.035984214
55	0x3bc399c5	0.0059692585
56	0xbe404322	-0.18775609
57	0xbe1d86aa	-0.15383402
58	0xbdfaa99a	-0.1223938
59	0xbda29b9a	-0.07939835
60	0xbdc2fa43	-0.0952039
61	0x3d19df88	0.03756669
62	0xbdaf4bba	-0.085593656
63	0xbd9c0b50	-0.07619345
64	0xbdd88261	-0.10571743
65	0x3d12a99d	0.035806287
66	0xbdc17309	-0.09445769
67	0xbe4b0805	-0.19827278
68	0xbdfd5455	-0.12369601
69	0x3d7149cc	0.05890827
70	0x3cafbd36	0.021452527
71	0xbe238e9b	-0.15972368
72	0x3d459876	0.0482411
73	0xbdaf9b10	-0.08574498
74	0xbcd9a9ce	-0.026570227
75	0xbe1f9489	-0.15584005
76	0xbd420baf	-0.047374424
77	0xbd2aa093	-0.04165704
78	0xbe8e93e9	-0.27847221
79	0xbdb439e1	-0.08800102
80	0xbd477792	-0.048698016
81	0xbdb2bc95	-0.087273754
82	0x3bf9c72b	0.0076226196
83	0xbe29e4ee	-0.16591236
84	0xbe2292bf	-0.15876292
85	0x3ce1d1e6	0.027565908
86	0xbd82d6f0	-0.06388652
87	0xbe3b4820	-0.18289232
88	0xbe586e12	-0.21135738
89	0xbdbc0b35	-0.09181825
90	0xbde53427	-0.11191588
91	0x3c3bf1fa	0.011471266
92	0xbd99acae	-0.07503639
93	0xbe5b7bb4	-0.21433908
94	0xbe15031b	-0.14551966
95	0xbddd2467	-0.10797959
96	0xbddae32c	-0.10687861
97	0xbd171db2	-0.036893554
98	0xbd27dd25	-0.040982384
99	0xbd8bb174	-0.06820956
100	0x3c203015	0.009777089
101	0xbdee4f6e	-0.11636244
102	0xbe0969d3	-0.13419275
103	0xbd7b5bce	-0.06136685
104	0xbdc63cd6	-0.09679572
105	0xbcefb52f	-0.0292612
106	0x3b247c50	0.002509851
107	0xbe201e14	-0.15636474
108	0xbcbba35c	-0.022905044
109	0x3e339cdb	0.17540304
110	0xbd2c1313	-0.042010378
111	0xbaf8b36b	-0.0018974369
112	0xbe84a0de	-0.25903982
113	0xbd998df1	-0.07497776
114	0xbc1d63e5	-0.009606336
115	0x3d345085	0.044022102
116	0xbd4a4071	-0.049377862
117	0xbdfa5987	-0.12224107
118	0xbea7c225	-0.32765308
119	0xbdf0aeb9	-0.11752076
120	0xbc056f60	-0.00814423
121	0xbd4769c1	-0.04868484
122	0x3dc1abe4	0.09456614
123	0x3d7a8368	0.061160475
124	0xbc8f389c	-0.017483048
125	0x3b852eb6	0.0040644063
126	0xbd17a566	-0.03702297
127	0x3cc464de	0.023973878

model.5.weight f4 [1, 384]
0	0xbd82ea64	-0.06392363
1	0xbd0a2c90	-0.033733904
2	0xbe152a22	-0.14566854
3	0x3d7f5f63	0.062346827
4	0x3e6ad737	0.2293366
5	0x3e753c00	0.2394867
6	0xbd66d5ef	-0.056356367
7	0xbe12c1b6	-0.14331707
8	0x3e11904d	0.14215203
9	0xbe6c79fa	-0.23093405
10	0x3e6f53c1	0.23371793
11	0x3e18b2f9	0.14912023
12	0x3dda8e90	0.10671723
13	0xbed48bb5	-0.41512838
14	0x3dcf12f4	0.10111037
15	0xbed792e8	-0.42104268
16	0x3e7608a5	0.24026735
17	0x3dd4d6cf	0.10392534
18	0xbe3e74a9	-0.1859919
19	0x3e5b9fec	0.21447724
20	0x3c7c725c	0.015408125
21	0x3dd68c90	0.10476029
22	0xbe0edc30	-0.13951182
23	0xbd584ea8	-0.052809387
24	0x3e81e130	0.25367117
25	0xbd626ac5	-0.055277605
26	0x3f1d3a2a	0.61416876
27	0x3e0fec1a	0.1405491
28	0x3da238f9	0.07921023
29	0xbe2998a4	-0.16562134
30	0x3bf864e6	0.0075803874
31	0x3d4f7fa8	0.05065885
32	0xbceee993	-0.029164111
33	0xbe0d9881	-0.13827707
34	0x3ede3735	0.43401495
35	0xbe1e75d1	-0.15474631
36	0xbdef8de8	-0.11696988
37	0x3e6f238c	0.23353404
38	0x3e861e1d	0.2619485
39	0xbe228b14	-0.15873367
40	0x3ddb6bc6	0.107139155
41	0xbe0c3818	-0.13693273
42	0x3df6da55	0.12053362
43	0xbe0640c5	-0.13110645
44	0xbd874ac9	-0.06606061
45	0xbe1b17c5	-0.15145786
46	0x3e5f6fe4	0.21820027
47	0x3d43f30c	0.04783921
48	0xbe966464	-0.29373467
49	0x3de2f2d1	0.1108147
50	0x3ed393f6	0.41323823
51	0xbeb632b4	-0.35585558
52	0x3e1307fe	0.14358518
53	0x3ec958ba	0.39325505
54	0x3e329e60	0.17443228
55	0x3cd03073	0.025413727
56	0x3d461ff3	0.048370313
57	0x3dc9039e	0.09815143
58	0x3e8221b1	0.2541633
59	0x3d1388cf	0.036019143
60	0x3e093554	0.1339925
61	0x3d4b2642	0.049597032
62	0x3d650df0	0.055921495
63	0x3c7bc7c7	0.015367455
64	0x3e0a5cc0	0.13511944
65	0xbe8b14f1	-0.27164415
66	0xbeb1370c	-0.3461231
67	0x3ea7ea09	0.32795742
68	0x3e7c34b2	0.24629477
69	0xbd511174	-0.051042035
70	0xbe01af7b	-0.12664597
71	0x3e394dd2	0.18096092
72	0xbe14c664	-0.14528805
73	0xbdc65ab6	-0.096852705
74	0xbd94261c	-0.07233831
75	0x3e14f9a4	0.14548355
76	0x3dab0acf	0.08351671
77	0x3d5e30b3	0.054245662
78	0x3dcb3be4	0.099235326
79	0xbd1834e5	-0.03715982
80	0xbb5c9194	-0.0033656107
81	0x3ddb7fc8	0.10717732
82	0x3d7ba6d3	0.061438393
83	0x3d4f137a	0.050555684
84	0xbe0ec812	-0.13943508
85	0xbe9bd095	-0.30432573
86	0x3e5bf339	0.21479501
87	0x3d811e0d	0.0630456
88	0xbb59cd24	-0.0033233846
89	0xbcf46f75	-0.029838303
90	0x3dd22d30	0.10262525
91	0x3d9e3ba6	0.07726221
92	0x3d391913	0.04518993
93	0x3dfe2e8b	0.12411221
94	0xbe4527ff	-0.19253539
95	0xbe004fc0	-0.12530422
96	0x3d51882a	0.051155247
97	0xbd6af928	-0.05736652
98	0x3d417dec	0.04723923
99	0x3e3013bb	0.17195027
100	0x3cacb5b7	0.021082742
101	0xbd75a524	-0.059971943
102	0xbe14a7c7	-0.14517127
103	0xbe2a6dbe	-0.16643426
104	0xbe71f113	-0.23627119
105	0xbed5d1c1	-0.41761592
106	0x3dc49213	0.09598174
107	0x3de0904a	0.10965021
108	0x3e8b706a	0.27234203
109	0x3d06bebb	0.03289674
110	0xbdf2f94e	-0.11863957
111	0xbe562029	-0.20910706
112	0xbd8c858d	-0.0686141
113	0x3e131f12	0.14367321
114	0x3e94ed0a	0.29087096
115	0x3e5baa00	0.21451569
116	0xbde0be06	-0.10973744
117	0x3dfbde54	0.12298265
118	0xbe91b90c	-0.28461492
119	0xbe600cbe	-0.21879861
120	0x3e4fb865	0.20285185
121	0xbeb289e9	-0.34870842
122	0xbdc4f6ad	-0.09617362
123	0x3dc94922	0.09828402
124	0x3d89c1c8	0.06726414
125	0x3d6b8b8d	0.057506133
126	0x3e7c0c90	0.24614167
127	0x3dbed082	0.093171135
128	0xbe0199cc	-0.12656325
129	0xbe1ca717	-0.15298115
130	0x3e62af9e	0.22137305
131	0xbcb77071	-0.022392483
132	0x3dd3be39	0.103390165
133	0xbed167bd	-0.4089946
134	0xbea771d8	-0.32704043
135	0xbe7b3260	-0.24530935
136	0x3e0f2a12	0.13980892
137	0xbe71d4ea	-0.23616377
138	0xbe3f0b5b	-0.18656676
139	0xbe26b069	-0.16278233
140	0xbacf7802	-0.0015828612
141	0xbee58c6e	-0.44833702
142	0x3e1d710c	0.15375155
143	0x3d60c989	0.0548797
144	0x3db0cd29	0.08632881
145	0x3da153f2	0.078773394
146	0x3dba4d23	0.09096744
147	0xbe709019	-0.23492469
148	0x3e8dfca9	0.27731827
149	0x3e2b6b45	0.16740139
150	0xbdffd84c	-0.12492427
151	0xbd8c7e18	-0.06859988
152	0xbe3ea341	-0.18616964
153	0xbea757c8	-0.3268416
154	0x3c81a9bf	0.015828012
155	0x3da08b0c	0.07839021
156	0x3e834f8a	0.2564662
157	0x3dbf1492	0.09330095
158	0xbdfae21c	-0.12250158
159	0x3e0fe611	0.14052607
160	0xbee69d42	-0.45041853
161	0xbd76aabf	-0.06022143
162	0xbec074c2	-0.3758908
163	0x3dc7d1aa	0.09756787
164	0x3e505d1e	0.20348021
165	0xbd96f416	-0.073707744
166	0x3d9c8083	0.07641699
167	0xbd2ca88e	-0.042152934
168	0xbe8b2343	-0.2717534
169	0x3cbac8e0	0.022800863
170	0xbe720f2a	-0.23638597
171	0xbedb011e	-0.4277429
172	0x3dc40bcd	0.09572563
173	0x3daccbcf	0.08437311
174	0x3e3039cd	0.17209549
175	0x3e27a6b5	0.16372187
176	0xbe002148	-0.12512696
177	0x3df1053a	0.11768575
178	0x3ca64a18	0.020299003
179	0x3d8c35cf	0.06846201
180	0x3d8bafb6	0.068206236
181	0xbd560db6	-0.05225917
182	0x3d612b73	0.054973077
183	0xbe94c5c3	-0.2905713
184	0xbe110715	-0.14162858
185	0x3d2791ca	0.04091052
186	0x3de609f8	0.1123237
187	0x3d321f7c	0.043487057
188	0xbd5853c2	-0.052814253
189	0x3dc87707	0.09788328
190	0x3d7f220b	0.062288325
191	0x3d03e5af	0.032201465
192	0x3e0f7c57	0.14012276
193	0x3d8dd7c1	0.069259174
194	0x3d9b1f8c	0.075743765
195	0xbe459630	-0.19295573
196	0x3e9ae960	0.30256176
197	0xbdc91469	-0.09818346
198	0x3e35d8b5	0.17758448
199	0xbdfeff6a	-0.1245106
200	0x3ed80dfe	0.42198175
201	0xbd27b6a9	-0.040945683
202	0xbd7f40a3	-0.0623175
203	0x3ec1a010	0.3781743
204	0x3e2b0e17	0.16704594
205	0x3d43a2d2	0.0477627
206	0xbd9162b1	-0.07098902
207	0x3e4dc26a	0.20093694
208	0xbd83c0db	-0.06433269
209	0xbe29c630	-0.16579509
210	0xbdfd5e22	-0.1237147
211	0xbd551bb0	-0.052028358
212	0xbe00161c	-0.12508434
213	0x3df8484b	0.12123164
214	0x3d4372f9	0.04771707
215	0xbe3f885b	-0.18704359
216	0xbe283c06	-0.16429147
217	0x3e5c6a27	0.21524869
218	0x3d62965a	0.055319168
219	0x3dea14a4	0.11429718
220	0xbe03e12e	-0.12878868
221	0x3da369af	0.07979142
222	0x3e3ba0c4	0.18323046
223	0x3efd6c09	0.49496487
224	0x3e800755	0.25005594
225	0xbd9a5c94	-0.07537189
226	0xbec64288	-0.38722634
227	0x3e14bacb	0.14524381
228	0xbe282367	-0.16419755
229	0x3e2d4d1a	0.16923943
230	0xbe953b44	-0.2914678
231	0x3c938355	0.01800696
232	0x3d3de4de	0.046360843
233	0x3c64343d	0.01392847
234	0x3e9c9aaa	0.3058675
235	0xbecae311	-0.39626363
236	0x3e61dae5	0.22056158
237	0x3dbd639b	0.09247514
238	0x3d2c7a5b	0.042108875
239	0x3d9a0436	0.075203344
240	0xbdc7ed0a	-0.097620085
241	0xbdcc9951	-0.0999018
242	0xbd10d285	-0.035357017
243	0xbe245689	-0.16048636
244	0x3e6afac6	0.22947225
245	0xbe3835e6	-0.1798931
246	0x3df9577e	0.12174891
247	0x3e0efd8a	0.13963905
248	0xbd3c755b	-0.046010356
249	0x3dc10565	0.09424857
250	0xbe312203	-0.1729813
251	0xbe10f3e0	-0.14155531
252	0x3e9654cf	0.2936158
253	0xbe96faa6	-0.29488105
254	0xbe93b221	-0.2884684
255	0xbe2eaa2d	-0.17057104
