saved_models/cnn/cnn_dis_swa_ERCOT_tws.pt (torch, 239390 bytes, 5 tensors)

module.model.0.weight f4 [128, 24, 3]
0.20621476 -0.12630789 0.08318936 0.26379427 -0.3081143 -0.024832657 0.17581277 -0.02553757
-0.15851341 0.039765503 0.0725724 -0.19062476 0.06849027 -0.128125 0.12678902 -0.110948995
-0.070095025 0.14175682 -0.2558826 0.12302844 0.016799638 -0.1832281 0.12120439 -0.03153735
-0.08605365 -0.1414057 0.030972783 -0.17087986 0.15087214 -0.03010779 -0.055713035 0.06585838
-0.04806085 -0.045052774 0.17677176 0.048257943 -0.12612858 -0.18055771 -0.0021247352 -0.1871038
0.13530841 0.013774986 -0.108016625 0.07864503 0.15481389 -0.15159698 -0.018142765 0.027000746
-0.27012536 0.18867564 0.08783403 -0.05682458 0.030127963 -0.28122306 -0.02807591 -0.064488485
-0.17369577 -0.089099996 -0.050586604 -0.07539695 -0.1405564 0.1402378 -0.22594842 -0.04926056
-0.090255104 -0.19341916 0.025403569 -0.06019706 -0.013220139 0.078814395 -0.301406 -0.2215917
0.21449938 -0.19048755 0.12225342 0.061217837 -0.042038966 -0.25605187 -0.0844765 0.19464596
0.10155931 0.015970035 -0.11838207 -0.19161518 -0.021538125 0.10726406 -0.10397488 -0.13304368
0.20172636 -0.16989748 -0.17007509 0.14698498 -0.078056134 -0.05666475 -0.092980705 -0.1512921
0.12688571 0.08318401 -0.09218801 0.22837327 -0.27558315 -0.12776443 0.2003082 -0.12014917
-0.078513026 0.20684111 -0.2831063 -0.051026303 0.21030459 0.062295813 -0.17898506 -0.051231474
-0.08202847 0.12656847 0.12065604 0.1340016 0.04245544 -0.06847769 0.13079423 -0.17218684
-0.10723667 -0.23382278 -0.11913124 -0.04720704 0.055172868 -0.067957364 -0.13598642 0.053666715
-0.038259063 -0.057043497 -0.21273178 0.14852017 -0.17981286 0.056742612 0.29091 0.04954438
0.19937779 0.18317403 -0.22184002 0.05318254 0.24829908 -0.21228577 0.15415141 0.26800203
0.04303779 0.14674158 -0.08273989 -0.04992713 -0.2209838 -0.10848719 -0.009047661 -0.1327348
-0.13165255 0.1090672 0.08841183 0.0057310276 -0.13669486 -0.08102499 0.03443268 -0.0253696
0.015088443 0.07561176 0.0024720253 -0.06825183 -0.03114733 -0.05103677 0.26695064 0.001346769
-0.2499249 0.21155697 0.032866634 -0.15385443 0.24217667 0.06924406 0.07163467 0.14759599
-0.00474637 -0.18677172 0.20042369 -0.16779551 0.064856604 -0.14540721 -0.0052715223 -0.117891215
-0.09614879 -0.02663063 -0.018587103 0.0861959 0.15616576 -0.065728545 -0.0029560244 0.15049236
0.113405004 -0.004492139 -0.19600102 -0.026531778 -0.113118544 -0.18110417 -0.06880623 -0.122939035
-0.2355131 0.04759517 0.20566167 -0.24384922 -0.15417007 0.23955916 -0.110767 -0.058663808
0.22512802 -0.08745724 0.21148774 0.11839425 -0.1856061 0.17797488 -0.023314493 -0.17099874
0.047102824 -0.20091487 0.2121436 -0.04563112 0.13812931 0.25880995 -0.15736899 0.22944668
0.2897184 0.11197177 -0.29327014 0.23762618 0.03021953 0.02123467 -0.033202786 0.16162014
-0.014732441 -0.032267705 0.06852161 0.12592389 0.29794383 0.13562152 -0.2522201 -0.18543687
0.012197242 0.40108612 -0.016054781 0.13076642 -0.16143857 -0.19038112 0.054080773 -0.020263843
0.033478826 0.13812238 -0.21843675 0.07843535 0.038614888 0.05947119 -0.04636524 0.0568652
00000000: f629 533e db56 01be 2f5f aa3d 0b10 873e
00000010: 28c1 9dbe db6d cbbc 4308 343e 2a34 d1bc
00000020: 5751 22be 27e1 223d d7a0 943d 2333 43be
00000030: a044 8c3d 3333 03be fbd4 013e 3a39 e3bd
00000040: fb8d 8fbd b328 113e 0b03 83be 56f6 fb3d
00000050: 659f 893c 26a0 3bbe 023a f83d 4f2d 01bd
00000060: e53c b0bd a8cc 10be a2ba fd3c 21fb 2ebe
00000070: 3a7e 1a3e 9da4 f6bc 5a33 64bd c2e0 863d
00000080: 74db 44bd 4289 38bd a803 353e 1faa 453d
00000090: da27 01be 1fe4 38be 243f 0bbb 2398 3fbe
000000a0: 4a8e 0a3e 7bb0 613c d237 ddbd a510 a13d
000000b0: 8887 1e3e 3d3c 1bbe 23a0 94bc ab30 dd3c
000000c0: df4d 8abe 3034 413e 54e2 b33d e4c0 68bd
000000d0: ebce f63c 78fc 8fbe 73ff e5bc 8a12 84bd
000000e0: 4edd 31be 0f7a b6bd e633 4fbd b769 9abd
000000f0: 04ee 0fbe 7f9a 0f3e 065f 67be 71c5 49bd
00000100: abd7 b8bd ac0f 46be 251b d03c 3191 76bd
00000110: 4899 58bc 7169 a13d e351 9abe efe8 62be
00000120: baa5 5b3e 2b0f 43be 0060 fa3d 8ebf 7a3d
00000130: 0d31 2cbd 3b19 83be 0402 adbd 4551 473e
00000140: 54fe cf3d 97d3 823c 4c72 f2bd c536 44be
00000150: b970 b0bc 42ad db3d c8f0 d4bd 9a3c 08be
00000160: 5b91 4e3e 9bf9 2dbe 2a28 2ebe 3b83 163e
00000170: e5db 9fbd 4c19 68bd ab6c bebd 51ec 1abe
00000180: 54ee 013e 615c aa3d 11cd bcbd afda 693e
00000190: 3c19 8dbe aed4 02be 981d 4d3e c510 f6bd
000001a0: 70cb a0bd 28ce 533e 4ff3 90be f500 51bd
000001b0: 165a 573e e529 7f3d dc47 37be 18d8 51bd
000001c0: 8bfe a7bd 2a9b 013e 841a f73d b737 093e
000001d0: c1e5 2d3d 083e 8cbd ecee 053e bf51 30be
000001e0: e69e dbbd 3d6f 6fbe 14fb f3bd 2b5c 41bd
000001f0: f2fc 613d 3b2d 8bbd 0640 0bbe a1d1 5b3d
00000200: 89b5 1cbd 71a6 69bd 5cd6 59be ac15 183e
00000210: dd20 38be f16a 683d 28f2 943e 0cef 4a3d
00000220: b129 4c3e f991 3b3e 082a 63be efd5 593d
00000230: 1d42 7e3e 7161 59be ded9 1d3e 9037 893e
00000240: 6548 303d 6d43 163e 8873 a9bd 6480 4cbd
00000250: 9449 62be 882e debd a43c 14bc a2eb 07be
00000260: edcf 06be a05e df3d 4311 b53d 58cb bb3b
00000270: bdf9 0bbe 6ef0 a5bd 4809 0d3d e8d3 cfbc
00000280: 8435 773c 57da 9a3d b401 223b 9ec7 8bbd
00000290: af28 ffbc ef0b 51bd c1ad 883e 1286 b03a
000002a0: 50ec 7fbe 64a2 583e 2a9f 063d 048c 1dbe
000002b0: 29fd 773e d4cf 8d3d 33b5 923d 6723 173e
000002c0: 7087 9bbb 1641 3fbe de3b 4d3e 96d2 2bbe
000002d0: 8ad3 843d a1e5 14be bcbc acbb f370 f1bd
000002e0: a8e9 c4bd 7b28 dabc fb43 98bc 7a87 b03d
000002f0: ebe9 1f3e b09c 86bd dcb9 41bb ab1a 1a3e
00000300: e240 e83d cb32 93bb 7eb4 48be 2c59 d9bc
00000310: b2aa e7bd 5f73 39be 48ea 8cbd 76c7 fbbd
00000320: 592a 71be 27f3 423d f998 523e 9cb3 79be
00000330: c2de 1dbe ff4e 753e cfd9 e2bd 7649 70bd
00000340: f687 663e c81c b3bd 3e90 583e af78 f23d
00000350: 870f 3ebe 0c3f 363e 09fe bebc 4b1a 2fbe
00000360: e4ee 403d a1bc 4dbe 2c3c 593e b3e7 3abd
00000370: c571 0d3e bd82 843e 5625 21be 12f4 6a3e
00000380: f855 943e 7551 e53d 8127 96be 4754 733e
00000390: f38e f73c 55f4 ad3c a5ff 07bd c07f 253e
000003a0: 5660 71bc 242b 04bd 0f55 8c3d 31f2 003e
000003b0: 188c 983e 5ee0 0a3e fe22 81be 2ae3 3dbe
000003c0: f1d6 473c 295b cd3e 5185 83bc a2e7 053e
000003d0: 2750 25be 45f3 42be cd83 5d3d 5c00 a6bc
000003e0: 1821 093d f46f 0d3e e2ad 5fbe b6a2 a03d
000003f0: a52a 1e3d 1098 733d 7ae9 3dbd 7ceb 683d

module.model.0.bias f4 [128]
-0.37309635 0.11149451 -0.2876221 -0.37744462 -0.08997505 0.17016704 0.16659214 0.046353325
-0.1798475 -0.020572947 -0.0014883387 -0.17488901 0.14916623 0.074182525 -0.15868843 0.24104303
0.18109438 -0.2498982 -0.26017094 0.04728202 -0.267044 0.15295301 -0.2368735 0.273932
-0.0846608 -0.20977648 0.07697756 0.11202403 0.020125445 0.040241648 -0.154598 -0.26880404
0.004567412 0.0010310657 0.30268946 -0.09231039 -0.060623348 -0.31027427 -0.048316285 0.2313778
0.09832711 0.054594517 -0.09664661 0.009311173 -0.06766887 0.056615695 -0.03731674 -0.15065002
0.1636238 0.20923217 0.27267018 0.015776256 -0.21258344 0.031076789 0.081334196 -0.106293425
-0.032344744 -0.13604282 0.010619201 -0.21665293 0.004762641 -0.38775122 0.17060202 -0.11707804
-0.13825232 0.0043281717 -0.11098992 0.13958779 0.12625147 0.14235644 -0.038238324 -0.31165606
-0.082568176 0.20840374 0.0018590947 -0.15416427 0.005847983 -0.10464369 0.10812454 0.17810799
0.1849341 0.20711003 -0.008273025 -0.16650498 0.071002826 0.0016545575 0.22550835 -0.14149311
0.20789516 0.035409883 -0.044504546 -0.38632292 -0.18638863 0.18802004 -0.1007395 -0.23696895
-0.01986168 -0.08253328 -0.00065223034 0.06407362 0.045280267 0.07426126 -0.29164383 -0.019259179
-0.09908557 -0.09670941 0.0037745535 -0.11599465 0.014851395 0.13903391 0.13747364 0.06454971
-0.04832823 0.01984253 0.23426378 -0.34082264 -0.12935497 -0.15092696 0.22636706 -0.36470506
-0.042825095 -0.059635896 -0.1102612 -0.12526135 0.056331642 -0.20285067 0.18989642 -0.022155741
00000000: 7c06 bfbe 3c57 e43d 3443 93be 6c40 c1be
00000010: d744 b8bd 4540 2e3e 2197 2a3e fcdc 3d3d
00000020: f129 38be 9988 a8bc 5c14 c3ba 1b16 33be
00000030: 08bf 183e 02ed 973d 387f 22be fcd3 763e
00000040: ce70 393e 50e5 7fbe 2035 85be cbaa 413d
00000050: feb9 88be b79f 1c3e f78e 72be d140 8c3e
00000060: a462 adbd a5cf 56be 69a6 9d3d db6c e53d
00000070: 1ede a43c 6dd4 243d f04e 1ebe afa0 89be
00000080: 3baa 953b d324 873a 1dfa 9a3e 3b0d bdbd
00000090: 3050 78bd 45dc 9ebe 4ce7 45bd 4dee 6c3e
000000a0: b95f c93d 809e 5f3d a8ee c5bd e48d 183c
000000b0: fa95 8abd dce5 673d 70d9 18bd 0044 1abe
000000c0: ff8c 273e f540 563e 6d9b 8b3e 353d 813c
000000d0: 79af 59be c094 fe3c 8b92 a63d 5eb0 d9bd
000000e0: ec7b 04bd cf4e 0bbe 28fc 2d3c 44da 5dbe
000000f0: ee0f 9c3b 5487 c6be 4cb2 2e3e 9dc6 efbd
00000100: 0492 0dbe 56d3 8d3b af4e e3bd 1af0 0e3e
00000110: 1148 013e e3c5 113e ca9f 1cbd 6291 9fbe
00000120: 8119 a9bd ca67 553e deac f33a 3ddd 1dbe
00000130: 70a0 bf3b 6e4f d6bd 6670 dd3d f161 363e
00000140: 5d5f 3d3e a714 543e 958b 07bc 4880 2abe
00000150: ee69 913d bddd d83a a9eb 663e 92e3 10be
00000160: 78e2 543e f409 113d 664a 36bd 1ecc c5be
00000170: a9dc 3ebe 5388 403e 8350 cebd fda7 72be
00000180: f6b4 a2bc 3507 a9bd 70fa 2aba 0839 833d
00000190: cd77 393d 4a16 983d 5752 95be 6dc5 9dbc
000001a0: 60ed cabd 950f c6bd 805e 773b 9a8e edbd
000001b0: 4453 733c e85e 0e3e e4c5 0c3e a332 843d
000001c0: d2f3 45bd cd8c a23c d8e2 6f3e 4e80 aebe
000001d0: a175 04be 998c 1abe c4cc 673e 9fba babe
000001e0: 5e69 2fbd c544 74bd a0d0 e1bd 8344 00be
000001f0: 02bc 663d 16b8 4fbe 3574 423e f57f b5bc

module.model.2.weight f4 [128, 128, 3]
0.0057162917 -0.04727985 -0.033768427 0.008795245 0.10059926 0.033871926 0.09223325 0.1090992
-0.08460886 0.06974004 -0.058012087 -0.009486629 0.34846035 0.3010374 0.2176956 -0.25109696
0.05199394 0.1608163 0.034290876 0.010087908 0.059399463 0.1777497 0.12242592 -0.017777506
0.046256162 -0.31716424 -0.07727382 0.0531854 -0.00044289415 -0.08109377 0.012356527 0.3138121
0.23397788 -0.08476696 0.17773432 -0.036483027 0.13522944 -0.14984675 0.037206538 -0.16503032
0.007977369 -0.17860164 0.06622783 -0.09611368 0.042950366 -0.06330705 -0.06916741 -0.20018992
0.22025831 0.281694 0.13509664 -0.07724452 0.14568357 0.029138185 -0.084875435 -0.11570346
-0.04051737 -0.09273119 -0.067055486 0.0012421102 -0.14432159 0.062419735 -0.18740146 0.05422814
0.13696946 0.19317867 -0.0074881692 -0.25748923 -0.028125456 0.1584803 0.159569 -0.07365938
0.190229 0.0764806 0.13096836 -0.03316501 -0.11433626 -0.004037709 -0.2297554 0.06816571
-0.16872086 0.119136885 -0.2596 0.022345252 -0.07211437 0.10962062 -0.23669995 0.030092021
0.104705416 0.23243895 -0.10965776 -0.16069299 -0.08488084 0.12643112 -0.04411538 -0.27382547
-0.05555997 -0.07514788 0.20344451 -0.0073020537 -0.18349282 0.01481454 0.101240925 0.103230536
0.06616573 -0.01019372 0.09708551 -0.10165137 -0.1928787 0.23296031 0.094057225 0.0023829339
-0.08794728 -0.033274617 -0.12888323 0.170096 0.18449193 0.11132137 0.06456152 0.0844099
-0.015718013 -0.0046947445 0.042288795 0.14352837 0.4135542 0.09751483 -0.10002901 -0.029049978
0.13862139 0.013368101 0.028731143 -0.04638099 -0.0045767706 0.102425784 -0.09504461 -0.071147904
0.075960755 0.027718915 0.113539435 0.0012211394 0.23291239 0.009760674 -0.052538462 -0.042678684
-0.029442776 -0.050805368 0.032843936 -0.057970084 -0.1898361 -0.09368204 0.16232644 0.09779443
0.25557357 0.2501173 -0.15720208 -0.03416575 -0.20761439 0.19179171 -0.1235971 -0.14250794
0.21618992 0.052577812 -0.0021511996 -0.083011664 0.083051495 -0.10434141 -0.13891564 -0.18753484
0.08652881 -0.21565385 0.03720729 -0.18825223 -0.09780433 -0.05258574 -0.0019224078 0.18298113
-0.05723428 0.12737824 -0.1826974 -0.112089634 0.19189782 -0.25878668 -0.04165751 -0.057578754
0.089823045 -0.1301625 0.050750658 0.19388308 0.06343174 0.013790918 -0.13652885 0.07379456
-0.093673036 -0.21791372 -0.053811405 0.11117136 0.09698536 0.18453754 0.013241735 -0.088798955
-0.12167416 0.04946246 -0.034599785 0.14733149 0.16195624 -0.211175 0.53436357 0.096940525
0.0033224623 -0.02559809 -0.015512345 -0.035697777 -0.017437737 -0.13111143 -0.013490802 -0.3674295
-0.061189674 0.07891837 0.16153207 -0.10691728 0.08468499 -0.12716106 0.11126795 0.29214838
0.29964334 0.22885521 0.1187723 0.06588576 0.008895689 -0.18419139 0.18562104 -0.042123005
-0.0595774 -0.140563 0.43877864 -0.08836371 -0.016514646 -0.02324054 -0.10107784 0.21302402
0.19563258 0.13248189 0.12828116 0.040817775 -0.021933803 0.05920811 0.0208174 0.06816665
0.1251178 -0.33745658 0.072646946 0.033564188 -0.18824793 -0.08387032 -0.22040716 -0.055644862
00000000: bb4f bb3b 84a8 41bd c350 0abd ee19 103c
00000010: fc06 ce3d 4abd 0a3d c9e4 bc3d 676f df3d
00000020: 6947 adbd ded3 8e3d 159e 6dbd ce6d 1bbc
00000030: 6569 b23e 9321 9a3e 98eb 5e3e c88f 80be
00000040: 99f7 543d 07ad 243e 9774 0c3d c147 253c
00000050: da4c 733d 0404 363e 71ba fa3d 22a2 91bc
00000060: 1a77 3d3d 5a63 a2be bd41 9ebd efd8 593d
00000070: 3f34 e8b9 7e14 a6bd 0873 4a3c fbab a03e
00000080: e697 6f3e 4d9a adbd fcff 353e 3a6f 15bd
00000090: 9679 0a3e 6d71 19be e265 183d b5fd 28be
000000a0: 83b3 023c 59e3 36be 75a2 873d 40d7 c4bd
000000b0: b9ec 2f3d 20a7 81bd a5a7 8dbd 96fe 4cbe
000000c0: 658b 613e 323a 903e c656 0a3e 6032 9ebd
000000d0: 132e 153e 34b3 ee3c 2cd3 adbd f0f5 ecbd
000000e0: 8bf5 25bd dae9 bdbd 6354 89bd 4dce a23a
000000f0: 0ac9 13be d6ab 7f3d 2be6 3fbe 531e 5e3d
00000100: b941 0c3e a1d0 453e 515f f5bb a1d5 83be
00000110: 5b67 e6bc a948 223e 0e66 233e bbda 96bd
00000120: 64cb 423e dca1 9c3d 921c 063e 09d8 07bd
00000130: 2129 eabd c24e 84bb 0045 6bbe 779a 8b3d
00000140: 29c5 2cbe 0afe f33d 4bea 84be 640d b73c
00000150: b3b0 93bd c780 e03d 7961 72be 8b83 f63c
00000160: cb6f d63d 7a04 6e3e 3f94 e0bd b48c 24be
00000170: 01d6 adbd 2977 013e 54b2 34bd da32 8cbe
00000180: da92 63bd 22e7 99bd c253 503e 1146 efbb
00000190: 8be5 3bbe afb8 723c 6757 cf3d 886a d33d
000001a0: e681 873d 9003 27bc c5d4 c63d 982e d0bd
000001b0: fe81 45be 268d 6e3e 13a1 c03d ff2a 1c3b
000001c0: b41d b4bd f74a 08bd f7f9 03be a52d 2e3e
000001d0: 74eb 3c3e 75fc e33d d538 843d 19df ac3d
000001e0: 10c3 80bc 5fd6 99bb 0437 2d3d 1af9 123e
000001f0: 60bd d33e dbb5 c73d 02dc ccbd 38fa edbc
00000200: c4f2 0d3e e105 5b3c 935d eb3c fef9 3dbd
00000210: bcf8 95bb 9cc4 d13d c0a6 c2bd feb5 91bd
00000220: 5091 9b3d c712 e33c 5d87 e83d a40e a03a
00000230: 9680 6e3e 3ceb 1f3c 9232 57bd d8cf 2ebd
00000240: fa31 f1bc 4a19 50bd 5d87 063d 0a72 6dbd
00000250: 6564 42be 5fdc bfbd e738 263e 7248 c83d
00000260: 8ada 823e 600f 803e 95f9 20be 63f1 0bbd
00000270: de98 54be 0c65 443e 7a20 fdbd 9aed 11be
00000280: e460 5d3e d55b 573d 24fb 0cbb 0502 aabd
00000290: e716 aa3d f3b0 d5bd e73f 0ebe 2209 40be
000002a0: 0436 b13d 5dd4 5cbe ac66 183d 31c5 40be
000002b0: a34d c8bd 2564 57bd 4df9 fbba 685f 3b3e
000002c0: 7e6e 6abd 716f 023e 0715 3bbe 408f e5bd
000002d0: dd80 443e b07f 84be 11a1 2abd b3d7 6bbd
000002e0: 25f5 b73d 5249 05be ecdf 4f3d 4989 463e
000002f0: 80e8 813d 4df3 613c 38ce 0bbe 9a21 973d
00000300: a6d7 bfbd c624 5fbe 5969 5cbd cfad e33d
00000310: 43a0 c63d 69f7 3c3e ddf3 583c 3adc b5bd
00000320: 4d30 f9bd 2699 4a3d 81b8 0dbd 11de 163e
00000330: dbd7 253e 423e 58be 0dcc 083f c188 c63d
00000340: abbd 593b 16b3 d1bc 7e27 7ebc d537 12bd
00000350: 96d9 8ebc 1342 06be 8608 5dbc b81f bcbe
00000360: 06a2 7abd f49f a13d aa68 253e 72f7 dabd
00000370: 536f ad3d 8236 02be 73e0 e33d 7994 953e
00000380: da6a 993e 0559 6a3e e43e f33d 1def 863d
00000390: 39bf 113c ab9c 3cbe 7113 3e3e 2c89 2cbd
000003a0: 6f07 74bd bfef 0fbe 98a7 e03e 08f8 b4bd
000003b0: b949 87bc f262 bebc e601 cfbd f822 5a3e
000003c0: e853 483e 55a9 073e 235c 033e 8a30 273d
000003d0: 85ae b3bc 3484 723d 4189 aa3c f59a 8b3d
000003e0: e11e 003e 1cc7 acbe ecc7 943d 9a7a 093d
000003f0: 11c4 40be 34c4 abbd 6ab2 61be deeb 63bd

module.model.2.bias f4 [128]
-0.030074608 -0.0880174 0.049985617 0.022679877 0.020745104 -0.1212235 -0.10072149 -0.051778823
-0.17710868 -0.12726153 -0.09568408 0.02639349 0.035385206 -0.08184745 0.06473493 -0.051047448
0.025051396 0.026052827 -0.033811506 0.05330923 -0.11309593 -0.004026149 -0.060357526 -0.13727677
0.007466221 -0.09236225 -0.09740621 -0.06504415 -0.089813806 -0.05345577 -0.07225754 -0.13853633
-0.07810197 -0.056141682 -0.03772493 0.028730333 -0.20635276 -0.06490877 -0.006246914 -0.08804529
-0.16910078 -0.04731743 0.05574566 0.049824744 -0.038718645 -0.07749007 0.028465562 0.017995931
-0.030545965 -0.020325202 0.08261282 -0.059240878 0.0018785353 -0.17724165 -0.03019804 0.0050265486
-0.15724535 -0.1772776 -0.10062499 -0.07337264 -0.0952039 0.034018613 -0.07422945 -0.07619345
-0.10571743 0.056495953 -0.08603787 -0.15855525 -0.08479511 0.07295684 0.022730894 -0.16466258
0.05167258 -0.08574498 -0.0170048 -0.14618182 -0.03417622 -0.007096836 -0.23022977 -0.08800102
-0.036724743 -0.111606866 0.0040323986 -0.13916345 -0.14459474 0.023368662 -0.06388652 -0.15054597
-0.17127801 -0.07627463 -0.11165757 0.022542799 -0.071038894 -0.17553422 -0.14551966 -0.09805953
-0.1237623 -0.027199501 -0.040982384 -0.059188217 0.00414845 -0.083727665 -0.11690386 -0.062304202
-0.09679572 0.010338546 0.006871568 -0.11290161 -0.027494716 0.17149408 -0.042010378 0.00019283695
-0.21540701 -0.044039648 -0.024093775 0.041597698 -0.055987976 -0.11254188 -0.29968497 -0.100889824
0.011299278 -0.04868484 0.09995725 0.059863344 -0.035253756 -0.010585754 -0.036910556 0.043024343
00000000: 065f f6bc 7742 b4bd b8bd 4c3d 26cb b93c
00000010: a3f1 a93c 0744 f8bd 1247 cebd 0816 54bd
00000020: fa5b 35be d950 02be 04f6 c3bd 2937 d83c
00000030: 14f0 103d a39f a7bd bf93 843d 2117 51bd
00000040: 9638 cd3c bd6c d53c ef7d 0abd c75a 5a3d
00000050: d79e e7bd c9ed 83bb 7439 77bd 4892 0cbe
00000060: 34a7 f43b 6b28 bdbd e87c c7bd de35 85bd
00000070: 4df0 b7bd 70f4 5abd c3fb 93bd 78dc 0dbe
00000080: edf3 9fbd d2f4 65bd 7585 1abd e05b eb3c
00000090: 234e 53be e4ee 84bd eab2 ccbb 1751 b4bd
000000a0: c128 2dbe eccf 41bd 9055 643d 0815 4c3d
000000b0: 7197 1ebd 1db3 9ebd 9c30 e93c 346c 933c
000000c0: 883b fabc 0a81 a6bc e930 a93d 90a6 72bd
000000d0: 2f39 f63a d67e 35be e161 f7bc bfb5 a43b
000000e0: ed04 21be 4288 35be 7a14 cebd 6544 96bd
000000f0: 43fa c2bd 1a57 0b3d 9c05 98bd 500b 9cbd
00000100: 6182 d8bd 4d68 673d 9f34 b0bd 4f5c 22be
00000110: 0fa9 adbd 656a 953d 2436 ba3c 4f9d 28be
00000120: a1a6 533d 109b afbd a64d 8bbc b0b0 15be
00000130: 5dfc 0bbd 938c e8bb 5ac1 6bbe e139 b4bd
00000140: af6c 16bd 2492 e4bd 3622 843b dd80 0ebe
00000150: a510 14be a36f bf3c f0d6 82bd b928 1abe
00000160: 8163 2fbe e035 9cbd b9ac e4bd adab b83c
00000170: d77c 91bd 3ebf 33be 1b03 15be 6fd3 c8bd
00000180: 1777 fdbd 7dd1 debc 25dd 27bd 586f 72bd
00000190: b9ef 873b 6979 abbd 4a6b efbd b132 7fbd
000001a0: d63c c6bd 0163 293c e42a e13b f638 e7bd
000001b0: 993c e1bc 259c 2f3e 1313 2cbd 4634 4a39
000001c0: a893 5cbe eb62 34bd 4f60 c5bc 5962 2a3d
000001d0: a653 65bd 5b7c e6bd 4f70 99be 539f cebd
000001e0: 9b20 393c c169 47bd 63b6 cc3d 4433 753d
000001f0: 3e66 10bd df6f 2dbc 862f 17bd 4b3a 303d

module.model.5.weight f4 [1, 384]
-0.04779189 -0.035577275 -0.12684974 0.085717335 0.2000767 0.25362206 -0.08309038 -0.1388804
0.078921996 -0.28417194 0.22963518 0.16954373 0.10454307 -0.27982584 0.13155705 -0.3850751
0.21561731 0.13656355 -0.15457393 0.16782008 0.040623028 0.09587822 -0.12907411 -0.009438872
0.2881303 -0.051386986 0.5314348 0.122115165 0.07465379 -0.17065518 0.0075803874 0.05065885
-0.029164111 -0.1417089 0.39825758 -0.13489074 -0.15738633 0.13390164 0.259537 -0.15993372
0.123663984 -0.11978409 0.06527728 -0.103153944 -0.09432811 -0.12432841 0.24305294 0.022767415
-0.33085242 0.08330168 0.3376051 -0.39221323 0.11151011 0.36184356 0.16888364 0.04350335
0.117608674 0.1089361 0.29373553 0.034818076 0.1339925 0.049853828 0.055921495 0.033165514
0.03044002 -0.20552172 -0.31332302 0.27582142 0.13432829 -0.10802916 -0.13567519 0.19236732
-0.13434431 -0.05435366 -0.031896375 0.14548355 0.08377514 0.054245662 0.07119454 -0.038454548
0.006298484 0.10717732 0.061438393 0.050555684 -0.1031092 -0.29714525 0.2771421 0.0630456
-0.0033233846 -0.029838303 0.10262525 0.07726221 0.04518993 0.15369485 -0.20141897 -0.17831066
0.058585316 -0.05736652 0.04723923 0.13837582 0.025750779 -0.027799042 -0.16239305 -0.10300032
-0.21597958 -0.42024794 0.124566756 0.12240106 0.24654187 0.050622445 -0.13439101 -0.2256457
-0.0150235025 0.06900474 0.28761798 0.20477702 -0.09703738 0.19504392 -0.2091545 -0.1638259
0.1559949 -0.29118946 -0.084541775 0.10032918 0.06726414 0.057506133 0.28034905 0.098427095
-0.16529469 -0.16385818 0.19214511 -0.031705372 0.06485984 -0.22753865 -0.13602442 -0.22706205
0.13912226 -0.2323931 -0.15429306 -0.13288228 0.002285304 -0.48939422 0.15687875 0.18907744
0.08632881 0.078773394 0.09096744 -0.22137429 0.2769463 0.16760112 -0.13190135 -0.033295695
-0.064467065 -0.2553582 0.018901551 0.06904755 0.23108286 0.1022601 -0.09231089 0.17795803
-0.4568944 -0.07514122 -0.2396386 0.03860802 0.053559784 -0.07816297 0.056128927 -0.058519747
-0.21307725 0.027636915 -0.1566167 -0.35171574 0.0725172 0.048024584 0.15941627 0.1415245
-0.13277061 0.11768575 0.026354378 0.06846201 0.068206236 -0.05225917 0.054973077 -0.30071267
-0.11665993 0.07433904 0.11220701 0.04584597 -0.052945733 0.09788328 0.062288325 0.032201465
0.14012276 0.069259174 0.075743765 -0.17330661 0.32748377 -0.09376385 0.10472017 -0.0763293
0.27602437 -0.05368002 -0.06004346 0.38296714 0.14646251 0.05455453 -0.08922265 0.2802013
-0.06176687 -0.17768869 -0.13039257 -0.044951353 -0.1653745 0.11243292 0.06855913 -0.15404388
-0.18554315 0.1862404 0.023590257 0.11429718 -0.12878868 0.07979142 0.20542361 0.41733533
0.26075506 -0.08347173 -0.36879703 0.15297495 -0.15652421 0.14451468 -0.2577294 0.005944526
0.069998465 0.039505105 0.2173266 -0.34398836 0.21230175 0.09247514 0.042108875 0.075203344
-0.10224571 -0.07896957 -0.034751136 -0.19459002 0.25058976 -0.18601228 0.11103702 0.13442783
-0.005756816 0.061764393 -0.16563715 -0.18929876 0.17890206 -0.1572388 -0.19814107 -0.1504851
00000000: 6ec1 43bd 7ab9 11bd e6e4 01be 928c af3d
00000010: e8e0 4c3e c0da 813e 4a2b aabd aa36 0ebe
00000020: dba1 a13d fc7e 91be 7c25 6b3e df9c 2d3e
00000030: ad1a d63d 5545 8fbe e4b6 063e 9028 c5be
00000040: c9ca 5c3e 51d7 0b3e a148 1ebe 07d9 2b3e
00000050: 5564 263d cd5b c43d 012c 04be 80a5 1abc
00000060: d185 933e 297b 52bd 1c0c 083f 8417 fa3d
00000070: 16e4 983d 3bc0 2ebe e664 f83b a87f 4f3d
00000080: 93e9 eebc 231c 11be 6be8 cb3e cc20 0abe
00000090: e229 21be 831d 093e 09e2 843e aac5 23be
000000a0: 8b43 fd3d 5c51 f5bd 18b0 853d 6042 d3bd
000000b0: 192f c1bd e59f febd dfe2 783e bb82 ba3c
000000c0: 7d65 a9be 129a aa3d 93da ac3e 2cd0 c8be
000000d0: 6a5f e43d 8f43 b93e d5ef 2c3e 9230 323d
000000e0: d1dc f03d e419 df3d 8164 963e 669d 0e3d
000000f0: 5435 093e 8733 4c3d f00d 653d 90d8 073d
00000100: 595d f93c 4974 52be e06b a0be 7738 8d3e
00000110: 5b8d 093e 643e ddbd 70ee 0abe f0fb 443e
00000120: 8e91 09be f2a1 5ebd c6a5 02bd a4f9 143e
00000130: 4d92 ab3d b330 5e3d 71ce 913d 8482 1dbd
00000140: 8363 ce3b c87f db3d d3a6 7b3d 7a13 4f3d
00000150: eb2a d3bd 6c23 98be 92e5 8d3e 0d1e 813d
00000160: 24cd 59bb 756f f4bc 302d d23d a63b 9e3d
00000170: 1319 393d 2f62 1d3e c640 4ebe 1297 36be
00000180: 28f7 6f3d 28f9 6abd ec7d 413d 64b2 0d3e
00000190: 4cf3 d23c d1ba e3bc 5d4a 26be d5f1 d2bd
000001a0: c029 5dbe bd2a d7be db1c ff3d 68ad fa3d
000001b0: 7975 7c3e 7b59 4f3d cc9d 09be ab0f 67be
000001c0: 2325 76bc 5b52 8d3d aa42 933e 11b1 513e
000001d0: 89bb c6bd 98b9 473e 992c 56be fac1 27be
000001e0: 21bd 1f3e c916 95be 3d24 adbd 6379 cd3d
000001f0: c8c1 893d 8d8b 6b3d e989 8f3e 2594 c93d
00000200: 0343 29be 70ca 27be b0c1 443e 7edd 01bd
00000210: 3cd5 843d e4ff 68be fc49 0bbe f482 68be
00000220: 1176 0e3e 75f8 6dbe 00ff 1dbe 4b12 08be
00000230: 0ac5 153b e191 fabe d3a4 203e 849d 413e
00000240: 29cd b03d f253 a13d 234d ba3d f1af 62be
00000250: e8cb 8d3e a19f 2b3e 2611 07be 1161 08bd
00000260: 4f07 84bd 4fbe 82be 6dd7 9a3c cd68 8d3d
00000270: fca0 6c3e be6d d13d 7e0d bdbd a13a 363e
00000280: 10ee e9be a4e3 99bd d263 75be 7123 1e3d
00000290: 8161 5b3d e813 a0bd 72e7 653d 67b2 6fbd
000002a0: ec30 5abe d066 e23c 2160 20be 1614 b4be
000002b0: e683 943d 6db5 443d 053e 233e cceb 103e
000002c0: 05f5 07be 3a05 f13d 23e5 d73c cf35 8c3d
000002d0: b6af 8b3d b60d 56bd 732b 613d 03f7 99be
000002e0: 67eb eebd 113f 983d cacc e53d fcc8 3b3d
000002f0: a0dd 58bd 0777 c83d 0b22 7f3d afe5 033d
00000300: 577c 0f3e c1d7 8d3d 8c1f 9b3d 4a77 31be
00000310: f4ab a73e 4307 c0bd 8777 d63d 8952 9cbd
00000320: 1153 8d3e 95df 5bbd 22f0 75bd 4514 c43e
00000330: 45fa 153e 9274 5f3d 5dba b6bd 8b76 8f3e
00000340: 42ff 7cbd 06f4 35be a185 05be e91e 38bd
00000350: ef57 29be 3b43 e63d bb68 8c3d aebd 1dbe
00000360: 06ff 3dbe ceb5 3e3e 5b40 c13c a414 ea3d
00000370: 2ee1 03be af69 a33d 915a 523e faac d53e
00000380: b081 853e 3af3 aabd f7d2 bcbe 77a5 1c3e
00000390: e247 20be a8fb 133e 1cf5 83be 4cca c23b
000003a0: 5b5b 8f3d 1bd0 213d dd8a 5e3e 3e1f b0be
000003b0: a165 593e 9b63 bd3d 5b7a 2c3d 3604 9a3d
000003c0: 3366 d1bd ccba a1bd 3557 0ebd 9b42 47be
000003d0: 4d4d 803e 017a 3ebe 6167 e33d 73a7 093e
000003e0: aca3 bcbb a9fc 7c3d c99c 29be 89d7 41be
000003f0: 1a32 373e 3503 21be 7ee5 4abe c418 1abe
